HistoryResults_30agents_10x10/tcn_model.pth (torch, 184600 bytes, 8 tensors)

tcn.0.weight f4 [64, 12, 5]
000000 b0 e7 af be 7c 13 13 3d d8 1c a4 3c ba 9a e3 3d
       -0.3435645 0.035907254 0.020033285 0.11113496
000010 ba 7d 19 bd c9 50 84 3f 00 12 67 3c e0 21 f6 3c
       -0.037473418 1.0337154 0.014103413 0.03004545
000020 12 7f 82 bd 4e aa cb 3d 68 0e ea be f4 e1 0a 3d
       -0.06371893 0.099445924 -0.45714116 0.033906892
000030 74 06 a5 bd 4d 9a c3 bd 00 86 bf bd 35 ad 8f be
       -0.080578715 -0.09550915 -0.0935173 -0.28061834
000040 58 df be 3c 54 56 a3 3d 44 3a c2 bd 10 db 12 3c
       0.023299858 0.0797545 -0.094837695 0.008963361
000050 9b d7 73 be 16 94 9c 3d d6 b1 8c 3d f0 b6 de bb
       -0.23812716 0.07645433 0.06869857 -0.00679671
000060 bf 93 fc bd d9 98 e5 bd 90 df de bd a5 a2 84 bd
       -0.12332868 -0.11210794 -0.10882485 -0.064763345
000070 90 38 fc bd 52 cc f0 3d 6c 37 52 3d 88 96 c1 bd
       -0.12315476 0.11757721 0.051322386 -0.0945254
000080 d4 c8 6e 3d 20 36 4f bd d0 f6 4e 3c ed 38 39 3d
       0.058296993 -0.050588727 0.012632087 0.045220304
000090 cc 0a 4f bd 06 31 f3 3d 40 8e 40 3d a0 f3 dd 3b
       -0.050547406 0.11874585 0.04701066 0.006773427
0000a0 fb c9 12 3e 2a 90 64 bd 58 f5 16 bc e0 13 c1 3d
       0.14334862 -0.055801548 -0.009213768 0.09427619
0000b0 c8 74 a0 3c 83 29 89 be c8 62 89 3c e0 94 e4 bc
       0.019586936 -0.26789483 0.016770735 -0.02790302
0000c0 e0 4e 45 3c 1c 62 4e 3d 0e ec 4e 3d 30 eb 77 bd
       0.012042731 0.050386533 0.050518088 -0.060527027
0000d0 5b 05 01 be a0 72 8f bc b0 78 ed 3c 44 d3 59 be
       -0.12599699 -0.017510712 0.028988212 -0.21271998
0000e0 14 cf 02 be 87 70 87 bd 9a a0 b5 bd 00 22 8d 3c
       -0.12774307 -0.0661326 -0.08868523 0.017228127
0000f0 d9 61 3e 3d a8 c7 9f bd 22 0e e8 bd b8 da b5 3c
       0.046480034 -0.07801753 -0.113308206 0.02219902
000100 d6 ca c3 bd fa ad 44 bf 71 2f 01 3e f0 de ad 3d
       -0.09560172 -0.7682797 0.12615754 0.084897876
000110 7c be 5b bd 6c 32 6d 3d 04 d6 09 3d e0 c3 49 3c
       -0.053648457 0.057909414 0.033651367 0.012314767
000120 76 bf 86 bd 0d 36 00 3e e8 52 4d bc 18 9f b7 bd
       -0.06579487 0.12520619 -0.012531973 -0.089658916
000130 5a 94 e3 3d 70 24 e6 3c f4 cf b4 bc 00 50 67 ba
       0.1111228 0.028093547 -0.022071816 -0.00088238716
000140 0c 01 0a be 42 44 ab 3d e6 94 b5 bd 60 e8 86 3d
       -0.13476962 0.083626285 -0.08866291 0.06587291
000150 74 c8 f5 bc a7 7a 17 bc fa 1d 89 3d 96 b1 9c 3d
       -0.03000281 -0.009245551 0.06695171 0.07651059
000160 03 67 f6 bd e2 ac c2 3d d5 9b d6 3d 76 c7 d1 3d
       -0.12031367 0.09505631 0.10478941 0.10243122
000170 da 64 b7 bd a8 3e b6 bd b8 95 9f bc c2 31 98 bd
       -0.08954783 -0.088986695 -0.019480571 -0.074313655
000180 b2 0f a6 bd 98 e7 1b bc a4 45 61 bd 5a c3 a0 bd
       -0.081084624 -0.0095156655 -0.054998055 -0.0784976
000190 c1 5b 87 3d 3a 9d a0 bd 14 25 92 bd 71 3a ce bd
       0.066092975 -0.078424886 -0.07135978 -0.100697406
0001a0 88 3c d3 3c cf e1 75 be dc dd 4d 3d 3c 1e 7b 3d
       0.0257857 -0.2401192 0.05026041 0.06130813
0001b0 f0 1e 7e 3d 94 21 9b 3d 8f 54 65 bb ac 04 29 3d
       0.062041223 0.07574764 -0.0034993028 0.04126422
0001c0 16 e3 f2 3d f4 81 90 bd 28 a5 60 bc 50 d1 e8 bd
       0.118597195 -0.070560366 -0.013711251 -0.11368048
0001d0 f0 b9 5c 3d 06 61 c1 bd 20 2c 12 bc de 7d fb 3d
       0.05388826 -0.09442334 -0.008921653 0.12279867
0001e0 21 6b a7 3e b0 26 52 3d f6 92 e0 bd f4 0f 62 bd
       0.3269892 0.051306427 -0.109655306 -0.055190995
0001f0 36 f1 86 bd 6e a7 0e bf da fe f4 3d 60 cd eb 3b
       -0.06588976 -0.5572423 0.119626716 0.0071961135
000200 4b aa 03 be a4 d0 73 3d 4a c4 07 3e bc 7a 52 bd
       -0.1285793 0.059525147 0.13258472 -0.05138658
000210 1e f0 79 bd e6 ff b5 3d bc fe 89 3d c7 7c 29 be
       -0.06102001 0.088866994 0.0673804 -0.16551505
000220 d4 64 50 bd 20 63 44 bc 5a 69 80 3d d8 01 5c 3d
       -0.050877407 -0.011986524 0.06270094 0.053712696
000230 de 16 cd bd 78 09 90 3d 60 81 fc bd 14 83 4a 3d
       -0.10014127 0.07033056 -0.12329364 0.049441412
000240 a6 44 9e bd 8d 05 33 bd e7 1d 03 be 6e 04 fa bd
       -0.077279374 -0.043706466 -0.12804376 -0.12207876
000250 9c 73 2d 3d bc f2 a1 3d 81 7a 0c 3d 66 b3 d5 3d
       0.04234658 0.07907626 0.034296516 0.10434608
000260 f8 6e e8 3c 0c 8f aa bd 2c 48 46 bd 19 ef 76 3c
       0.028373227 -0.08328065 -0.048408672 0.015071654
000270 8b 14 03 3e 84 05 0c 3d d4 2a a3 3d 80 6e b8 3c
       0.12800805 0.034184948 0.07967153 0.022513628
000280 b1 99 9c 3d b8 32 bc bd a8 fe ef bc b4 31 c6 bd
       0.07646502 -0.09189361 -0.029296234 -0.09677449
000290 b8 c3 b8 3d 1d 40 41 be 4c 3b f2 3d ba 7a 58 bd
       0.090217054 -0.18872114 0.11827716 -0.052851416
0002a0 d4 a6 21 bd 00 6f 30 3c 65 d3 d8 3d 1a 6a 16 bd
       -0.03946574 0.010768652 0.10587195 -0.03672228
0002b0 4e 84 fe 3d 01 ac 00 3e 72 ca fe bd f6 55 3c bd
       0.12427579 0.12565614 -0.12440957 -0.045980416
0002c0 e4 fa f2 3d ae 9c 8e 3d c0 97 1a 3b 92 a3 f3 bd
       0.1186426 0.06963478 0.0023588985 -0.11896433
0002d0 4f 73 5e bf 98 fc 38 bd ae b7 e4 3d fc 3d ec 3d
       -0.86894697 -0.045162767 0.111678466 0.1153526
0002e0 96 60 87 bd 70 87 51 bf b0 9b 89 3c 6e f6 bb 3d
       -0.06610219 -0.81847286 0.01679787 0.09177862
0002f0 40 75 b6 3c 71 a1 e9 bd cf db 1f be d0 39 6a 3c
       0.022272706 -0.11407746 -0.15611194 0.01429601
000300 2e cc ed 3d 04 62 1c bd 20 04 59 bd e8 f8 49 3e
       0.1161121 -0.038179412 -0.05298245 0.19723856
000310 70 b9 b9 bd f0 67 9f bd ce e2 9e bd 73 38 ad bd
       -0.090685725 -0.077834964 -0.07758103 -0.084580325
000320 a4 37 49 bf 6e 0f a4 bd c0 ed 4b 3c 4b 14 e3 bd
       -0.78600526 -0.080107555 0.012446821 -0.11087855
000330 f8 fb 42 3d 0d cb a7 bf 18 fd c3 bd 70 51 a9 bd
       0.047603577 -1.3108841 -0.09569758 -0.08267486
000340 76 dc d7 3d 07 27 c2 bd 9d 6a 41 bf 80 61 a7 bd
       0.105400965 -0.094801 -0.75553304 -0.081728935
000350 f6 85 c0 3d d8 41 48 bd e0 56 68 3c 32 8e 24 bf
       0.09400551 -0.04889092 0.014180869 -0.6427947
000360 96 3e e6 3d 76 24 a7 bd ab 9a 86 bd 88 bd af 3d
       0.11242406 -0.08161251 -0.06572469 0.08581072
000370 0c aa 2e bd 70 e5 31 3d 13 85 01 3e 9a d3 af 3d
       -0.042642638 0.0434317 0.1264842 0.08585282
000380 d8 0c 90 3d 77 07 18 3f 68 8d bd bd 03 c9 cd bd
       0.070337 0.5938639 -0.09255487 -0.100481056
000390 50 0b 54 3d f0 65 9f 3d f3 5d 15 3f 68 94 16 3d
       0.0517686 0.07783115 0.5834648 0.036762625
0003a0 dc 8d 1f 3d f6 f5 e9 bd c4 15 3c 3d 0c 4c 8d bd
       0.038953647 -0.114238665 0.045919195 -0.068992704
0003b0 e0 60 24 3d ea 26 51 bd d0 f3 d9 3d 34 94 91 3d
       0.04013145 -0.051062502 0.10642207 0.07108346
0003c0 6d d5 a8 be 68 f5 de bd 5a 24 ee 3d f8 76 ac 3d
       -0.3297533 -0.10886651 0.11628027 0.08421129
0003d0 04 7b 29 bd ef 1e 31 bf 40 7d ba bd 1a d7 c7 3d
       -0.041377082 -0.69187826 -0.09105921 0.09757824
0003e0 80 67 fe bc b0 90 f1 3c 5d 39 59 3f 78 3a af 3c
       -0.031055212 0.029487938 0.84853154 0.021390185
0003f0 30 1e 19 3d 70 af 5f 3d 40 9a 3e 3b 16 46 c1 bc
       0.037382305 0.05461067 0.002908364 -0.02359299

tcn.0.bias f4 [64]
000000 08 45 9f bf b1 37 2a be ef 21 b5 be 85 1d 15 bf
       -1.2442942 -0.16622807 -0.35377452 -0.5824817
000010 66 23 46 bf ac c5 18 3f 09 25 bb bf d0 2a a1 bf
       -0.77397764 0.59676623 -1.4620677 -1.259119
000020 1f 64 5a 3f af b8 50 bf 8d fc c2 be d1 38 82 be
       0.8530902 -0.81531805 -0.38083306 -0.25433972
000030 f4 b6 c3 bc 30 d0 be bf b2 e4 f6 be 5d 9b 81 bf
       -0.02389095 -1.4907284 -0.48221356 -1.0125538
000040 d8 73 ae be 76 5f bb bf d9 91 63 bf 31 ad c9 3d
       -0.34072757 -1.4638507 -0.8889442 0.09847487
000050 d6 00 bf bf 2b 40 15 3e ce bb 01 bf ce c4 cb 3e
       -1.492213 0.1457526 -0.5067719 0.39798588
000060 34 20 e4 be e1 b3 9e bf 87 76 cf bd 11 db 30 be
       -0.4455582 -1.2398645 -0.10130029 -0.17271067
000070 09 f0 65 bf b3 42 27 be 92 b6 84 bf d4 7a 92 bd
       -0.8981939 -0.16334037 -1.0368216 -0.07152334
000080 76 df f5 3e f3 62 9a bf 3d c3 88 bf 49 57 a0 bf
       0.4802205 -1.2061447 -1.0684582 -1.2526637
000090 fb cb 26 be ab 35 b6 bf a4 34 df bc 46 a1 67 bf
       -0.1628875 -1.4235128 -0.02724678 -0.9048046
0000a0 21 7f da be 3a 88 10 bf d5 cc b3 bf af 93 55 bf
       -0.42675117 -0.56457865 -1.4046885 -0.8342847
0000b0 b2 fb db 3e 3b 80 a3 bf 98 3f bf be 55 b8 95 bf
       0.42965466 -1.2773508 -0.37353206 -1.1696879
0000c0 f1 80 23 bf 59 51 9a bf da 07 4f bf 4b 26 69 3f
       -0.63868624 -1.2056075 -0.80871356 0.91074055
0000d0 38 a7 19 bf 9f 19 07 bf 4a 92 93 bf ce a9 82 be
       -0.6002078 -0.5277347 -1.1529019 -0.25520176
0000e0 e5 99 85 bd f2 52 fc 3d d6 fc 49 bf a5 e0 53 be
       -0.06523494 0.12320508 -0.7890142 -0.20691164
0000f0 94 e2 d1 be 97 d1 b3 bf 81 ca ad 3e eb 79 7b bf
       -0.40993178 -1.4048337 0.3394356 -0.9823291

tcn.4.weight f4 [64, 64, 5]
000000 2a 62 74 3d e3 d7 29 bd a0 98 09 3c 8a ba 0a bd
       0.05966393 -0.04146565 0.008398205 -0.033869304
000010 42 e6 06 3d 8c 2c 9d bd 9e 59 4e 3d b2 e3 ba bc
       0.032934435 -0.07674512 0.050378434 -0.022813652
000020 98 7f 3c 3d 78 29 f5 3c f2 46 28 bd a8 d3 8d 3b
       0.04602012 0.029927 -0.041083284 0.00432821
000030 aa 3e dc bc 48 07 5c bc e8 55 05 bc 57 d7 25 bf
       -0.02688535 -0.01342947 -0.008138157 -0.6478171
000040 00 8a c6 3a 0a c5 64 bd c4 11 3f 3d 9c 0e 2e 3d
       0.0015147328 -0.055851974 0.046647802 0.0424944
000050 65 cd 56 bf dc 6a 14 bd 80 49 31 ba 0a 06 10 3d
       -0.8390716 -0.03623472 -0.00067629665 0.03516201
000060 7c 63 14 3d 15 b7 d8 3e 91 c5 cc bc 80 7c db 3b
       0.03622769 0.4232718 -0.02499655 0.006698191
000070 c0 e7 3b 3a c4 ac 08 bc 6f 51 dc bf b2 14 34 3d
       0.00071680173 -0.008341972 -1.7212352 0.04396505
000080 00 07 a2 3b 47 9c 55 bd a2 ed 50 3d f6 f1 25 3d
       0.004944682 -0.05215099 0.051007874 0.040513955
000090 5f 23 28 bd 78 d8 41 bc 64 e8 82 3c 68 bf 89 bb
       -0.041049358 -0.011831395 0.015979953 -0.0042037256
0000a0 ee 43 82 bf 33 2b 4b bd 70 6e fd 3b b2 3a dc bc
       -1.017698 -0.049601745 0.0077341124 -0.026883457
0000b0 a2 5f 20 3d e9 63 9e 3d f5 bf 58 bd 40 2b d7 ba
       0.039153703 0.077339 -0.05291744 -0.0016416088
0000c0 9a 5b 16 3d 50 30 43 bd 01 22 95 bd f8 fa 46 3c
       0.03670845 -0.047653496 -0.07281876 0.012144797
0000d0 a8 bc 03 3c ec 43 c7 3c 00 dc e8 39 a0 26 2c 3e
       0.008040585 0.02432438 0.000444144 0.1681161
0000e0 0e bc 92 bc 5a 26 63 bd 80 62 c5 3a 76 08 06 bd
       -0.017911937 -0.055456497 0.0015059263 -0.032722913
0000f0 bf d0 0e be 4c db cb 3c 1c 8c 3f bd dc 2d 14 bd
       -0.13946818 0.024884842 -0.046764478 -0.036176547
000100 b0 f1 06 3d 52 60 19 c0 c4 f5 05 3d b0 d1 ec bc
       0.032945335 -2.396504 0.032705083 -0.02890858
000110 08 dd 6f 3c 60 4f a3 3a 65 4e 15 3d 70 e8 17 bc
       0.0146401 0.0012459569 0.036451716 -0.009271726
000120 84 08 3f 3d 40 f3 57 ba 4c 46 86 3c 54 8c ce bd
       0.04663898 -0.0008237846 0.016390942 -0.10085359
000130 20 21 75 3b 94 5b 60 bd 8c 07 92 bc e9 2e 63 bd
       0.0037403777 -0.054774836 -0.017825864 -0.05546466
000140 02 82 7e 3f f5 1e 40 bd db 5e 2a bd dc cb 20 bc
       0.99417126 -0.046904523 -0.041594367 -0.009814229
000150 e7 af 4e bd eb 59 ee bf 58 53 45 bc a0 53 9e 3c
       -0.050460722 -1.8621191 -0.0120437965 0.019326985
000160 6c 52 f7 3c 5e ec 00 3d 6b 44 bc be e4 91 a8 3c
       0.030190669 0.031475417 -0.3677095 0.020577379
000170 a2 31 26 3d cc 21 ee 3c c0 12 49 3c 86 70 9a bf
       0.040574677 0.02906885 0.012272537 -1.206559
000180 4e 39 43 bd 18 c9 55 3c 28 75 61 3d b8 65 0e bd
       -0.047662072 0.013048433 0.05504337 -0.034764975
000190 fd a4 c0 bf 95 5f 00 bd 3c 00 9f bc 7c 30 40 bd
       -1.505035 -0.031341154 -0.019409291 -0.04692124
0001a0 a0 08 c7 3c 8d ff a7 bf f0 8d 91 bc 58 8d 50 bc
       0.024296105 -1.3124863 -0.017767876 -0.0127290115
0001b0 5e 43 9b bc 1e 3c 45 3d 97 15 ad be 04 c9 37 bc
       -0.018953022 0.048153035 -0.33805534 -0.011217359
0001c0 76 a8 48 3d d6 2f 11 3d a4 f4 35 bd 1b dc 37 3f
       0.048988782 0.03544601 -0.04442276 0.7182023
0001d0 a8 53 df 3c 02 09 03 3d 6e 7d 55 3d da 52 1e 3d
       0.02726157 0.031991012 0.052121572 0.038653232
0001e0 73 aa 1b be 80 ba 08 bd af 2e d2 bc 58 7b 4c bd
       -0.1520174 -0.033380985 -0.025657026 -0.049922317
0001f0 2c c4 c2 3c 9c 2e b9 3e 50 2b 33 3d 00 e0 79 bb
       0.023775183 0.36168373 0.043742478 -0.00381279
000200 58 45 af 3b 50 c9 05 3d 0b fb 14 3e 18 24 94 bb
       0.0053488426 0.03266269 0.1454889 -0.0045209043
000210 57 bc 5a bd 3c cb e8 bc 38 a7 a8 3b 3f 9b b1 bf
       -0.05340227 -0.028417222 0.005146887 -1.3875502
000220 de df ab bc 48 90 15 3d b4 0b c0 3c 30 21 7e bb
       -0.020980772 0.03651455 0.02344308 -0.0038777106
000230 ed cb 00 c0 48 bd 94 bb 1c 6b 45 bc d0 b0 bd 3b
       -2.0124466 -0.0045391656 -0.012049463 0.0057889
000240 74 8d 87 bc a5 86 53 3a 84 0a 7a bc 40 b7 af 3a
       -0.016546942 0.0008069075 -0.015261296 0.0013406053
000250 e8 dc 5a 3d 94 f9 c9 3c 5b 44 85 3e 60 1e 29 3d
       0.05343333 0.024655141 0.26028714 0.041288733
000260 4a 6e 49 3d 80 37 ef 3c be 36 24 3d 71 79 40 3e
       0.049177445 0.02920127 0.04009127 0.18796326
000270 88 3a 5b bd 49 47 63 bd f8 1e af 3c 08 7a 2d 3c
       -0.053522617 -0.055487905 0.021377072 0.010588177
000280 0d 83 7d 3f 10 bb 52 3d 1e 3b 51 3d 28 6d 01 3c
       0.9902809 0.051447928 0.05108177 0.00789956
000290 be 08 63 3d 54 98 57 3e e8 e1 48 3c 4c 23 31 3d
       0.05542826 0.21054202 0.0122608915 0.043246552
0002a0 26 2a 04 3d 34 d9 9b 3c 2c 52 e3 3f b8 39 4a 3d
       0.03226676 0.019024469 1.7759452 0.04937145
0002b0 ee e1 5e 3d d6 1f 46 3d 96 69 9a bc ce 27 99 3f
       0.054414682 0.048370205 -0.018849175 1.1965272
0002c0 b0 7c 08 bc 52 f0 52 bd a0 d1 74 bb 0c 5a 71 bc
       -0.008330509 -0.05149872 -0.0037356392 -0.0147309415
0002d0 6c be b8 3b 56 ed 3a bd 48 ae 1e 3d 8e f2 b6 bc
       0.0056379344 -0.045636497 0.038740426 -0.022332456
0002e0 2f 9b 15 bd ae 56 4b 3e e0 97 02 3d b8 09 0b 3d
       -0.036524948 0.19857284 0.03188312 0.033944815
0002f0 7c a5 df bc 58 94 ae bb bb fd 89 bd 16 cb 28 3d
       -0.027300589 -0.0053277425 -0.06737848 0.041209303
000300 fc 57 04 bd f4 5a 29 bd 2c 3c 8c 3c fe 09 e8 bf
       -0.03231047 -0.041346505 0.017118536 -1.8128049
000310 6a 88 05 bd a4 23 8d 3c 60 72 6c 3c eb cf 58 bd
       -0.032600798 0.017228909 0.014431566 -0.05293266
000320 af 31 94 3d f2 3c 26 3d f6 ff 2d 3d 88 98 0a 3d
       0.07236039 0.040585466 0.04248043 0.03383687
000330 80 98 b2 b9 12 2b 0b be 24 5e 25 bc fe 0d 23 bd
       -0.00034064427 -0.13590649 -0.010093246 -0.039808266
000340 54 cb 1f 3d 10 55 7b 3c 3a 06 96 bf 90 8b 2a 3c
       0.03901227 0.015340105 -1.172065 0.010409251
000350 0c 08 61 3d 94 e3 09 3d d1 6e 2f bd af 82 9f 3d
       0.054939315 0.0336643 -0.042830292 0.07788598
000360 c2 96 46 bd 00 e4 1b ba b8 0a 4e 3c 58 ce f6 3c
       -0.048483618 -0.00059467554 0.012575798 0.03012769
000370 08 da d1 3d 20 dc 22 3d 24 08 f9 3c 7a 77 92 bc
       0.10246664 0.03976071 0.03039939 -0.017879236
000380 5a b1 15 3d 61 5e 80 3d f4 60 60 bc fc 2e cc 3c
       0.03654609 0.06268001 -0.01369499 0.024924748
000390 40 c0 5b 3d d3 b4 39 bd 5f 6c 97 3d 94 68 a1 3c
       0.05365014 -0.045338463 0.07393717 0.019703187
0003a0 44 1a 53 bc 4c 2c 36 3d c0 6e 02 3d 3e c8 81 bf
       -0.01288468 0.04447584 0.0318439 -1.0139234
0003b0 36 08 0e bd a0 64 62 3b 54 a7 a9 bc b0 20 18 3c
       -0.0346758 0.003454484 -0.020709671 0.009285137
0003c0 37 1a 48 3f 80 f1 dc 3c 70 49 3a 3d 06 53 15 bd
       0.78165 0.026970625 0.04548019 -0.03645613
0003d0 88 31 4c bc 05 07 c2 bf 85 af 53 bd 66 d5 47 bd
       -0.012462981 -1.5158392 -0.05168106 -0.048787497
0003e0 c0 a4 68 ba 2f 42 4f bd 5f 88 b8 3f 81 b5 1f bd
       -0.00088746473 -0.050600227 1.4416617 -0.038991455
0003f0 22 f8 8f bc 28 04 dd 3c f8 82 55 bc a3 64 18 3f
       -0.017574374 0.02697952 -0.013031714 0.5952856

tcn.4.bias f4 [64]
000000 75 e0 12 bd 6f e2 56 3d aa 27 92 3c 5f 66 65 c0
       -0.03585859 0.052462038 0.017841179 -3.5843732
000010 a5 d4 8f bd 14 db 48 bd 5a dd aa be 6f 6d 6d 3d
       -0.070229806 -0.049037054 -0.33372003 0.057965692
000020 d8 fc 21 bd eb 0d c9 bc 02 6a 83 3d f5 65 92 bd
       -0.03954777 -0.02454277 0.06416704 -0.07148353
000030 54 f5 50 3d 14 50 0a 3d da 1c 87 bd a4 fa 6a c0
       0.051015213 0.033767775 -0.065973 -3.671548
000040 8b cf 2b bf 97 58 36 be ce 93 0a 3d 93 67 b6 3d
       -0.6711356 -0.17807232 0.033832364 0.08906474
000050 11 25 96 bd 49 a7 a9 bf ea 68 26 3d d4 28 d6 3d
       -0.073312886 -1.3254176 0.040627398 0.10457006
000060 26 f9 5c bd 91 81 19 c0 70 db 0b bd eb a1 11 bd
       -0.053948544 -2.398533 -0.03414482 -0.035554808
000070 4a e9 d1 bd d7 d0 f0 ba 12 d5 13 c0 56 d0 91 bd
       -0.102495745 -0.0018372786 -2.3098798 -0.07119815
000080 be 59 5c bd d0 78 98 bd bc 81 39 bd 11 54 9b be
       -0.053796522 -0.07444918 -0.04528974 -0.30337575
000090 46 39 02 be ce 7d aa bd 4e 85 a1 bd ca 8d e0 3d
       -0.1271716 -0.083247766 -0.07886754 0.10964544
0000a0 9b fe 5a 3d 62 bf 99 bd ee 0a 14 bf 9e ba 83 bb
       0.053465467 -0.075072065 -0.5782918 -0.0040200492
0000b0 52 56 30 bf 11 9a d7 3b 7a 5d 03 be 60 e1 02 be
       -0.68881714 0.0065796454 -0.12828627 -0.12781286
0000c0 3b 1f 00 3e 79 cc 3c 3d de c8 e8 3d 31 f4 8f bd
       0.12511913 0.046093438 0.113664374 -0.07028998
0000d0 78 de 72 be d3 38 5d bf f5 3f 5f bd 21 55 15 3e
       -0.23717678 -0.8641483 -0.054504354 0.14583255
0000e0 75 25 8c 3d 5a 5e f6 be 51 b6 96 be 99 d0 96 bd
       0.06843082 -0.4811886 -0.2943597 -0.073640056
0000f0 f6 43 e3 3d 21 4c 99 bd 32 36 c1 bd 67 0a 36 3b
       0.11096947 -0.074852236 -0.09434165 0.0027777196

tcn.8.weight f4 [64, 64, 5]
000000 73 a6 67 3e dc fe 02 3d 2c 84 fa 3c f0 dc 7f 3c
       0.22622089 0.031981334 0.030580603 0.01561664
000010 16 b5 39 3d 11 3a 54 3e a8 0e d8 bb 32 c9 19 bd
       0.045338713 0.20725276 -0.006593544 -0.03754539
000020 40 ef 43 3c 62 9d 49 3d 75 14 e0 3d 3e 7d e9 bc
       0.011958897 0.049222358 0.10941402 -0.028502103
000030 38 46 86 3c d8 3a c5 3c 44 8f 35 bc 73 f4 27 c0
       0.016390905 0.02407591 -0.0110815205 -2.624295
000040 40 b9 a2 bc 78 ec 30 3c 9a 19 12 3d db d4 f9 bc
       -0.019863725 0.010798566 0.035668947 -0.030497005
000050 f3 24 13 3c 50 ad 52 3c a1 7b cf bc d9 3d 59 bd
       0.008980977 0.012858704 -0.025327506 -0.0530375
000060 c0 34 e1 ba 15 ac ff 3d 74 9d c6 3c dc 36 a0 3c
       -0.0017181858 0.12483994 0.024245001 0.019557409
000070 34 b4 b4 3c 70 0c 18 bb e5 c7 29 3c 68 12 a1 bc
       0.022058584 -0.0023200773 0.0103626 -0.019662097
000080 b2 3f 04 3d a0 ea f7 3b 7b aa f1 bc 26 a4 32 be
       0.032287307 0.0075658113 -0.029500237 -0.1744543
000090 f4 dd 8e bc 60 94 91 3b e0 1b 5b bc 04 74 83 bc
       -0.01743982 0.0044427365 -0.013373345 -0.016046531
0000a0 b3 a7 a7 3d 92 65 1b 3d 02 ea aa bc 50 48 04 3c
       0.08186283 0.037938662 -0.020863537 0.008073881
0000b0 f0 7e 61 3d d2 a2 ba 3d dc 11 f8 3c b8 23 d0 3c
       0.055052698 0.09113087 0.030281954 0.025407657
0000c0 80 ff b0 39 cd 49 49 bd 66 42 96 be b8 f3 a5 3c
       0.00033759698 -0.049142648 -0.29347533 0.020257816
0000d0 62 ac 0d 3d e3 d8 03 bd a0 57 ab 3c 41 cd 9a bd
       0.034588225 -0.03218926 0.020915806 -0.0755868
0000e0 a2 34 5f 3d 3c b2 52 3d dc 43 03 3d 78 89 47 bd
       0.054493554 0.05143951 0.032047138 -0.048715085
0000f0 26 1a 6d 3e 28 1b 02 3d 40 17 12 ba 9c a6 44 bc
       0.23154506 0.03176418 -0.00055729225 -0.012002613
000100 33 19 40 bd 47 5d 76 3e b8 60 34 bd c4 e5 a2 3c
       -0.04689903 0.2405902 -0.04403755 0.019884951
000110 3e 94 47 3d 46 fd 10 3d 2b a9 92 bc c8 99 c0 3c
       0.04872536 0.03539779 -0.017902931 0.023510829
000120 7e e1 01 bd a0 42 2e bd b0 29 14 3c 23 6f 8d 3e
       -0.031709187 -0.042544007 0.009043142 0.27623853
000130 98 28 c2 3c 4c f5 05 bd 5e 34 92 bc af b2 34 bd
       0.023700997 -0.032704636 -0.017847236 -0.04411572
000140 37 4f 86 bf 68 ed 62 bc 00 53 48 ba 7c 22 97 bc
       -1.0492924 -0.013850547 -0.00076417625 -0.01844906
000150 d0 70 08 bd 33 8b 97 be 38 5f 55 3d 64 a1 be 3c
       -0.03331071 -0.29598388 0.05209276 0.023270316
000160 e2 d5 e0 bc 38 71 b3 3c 7b 4d 5f 3d 04 c3 a2 bc
       -0.027445737 0.021904573 0.05451725 -0.019868381
000170 08 57 b6 3c 74 70 04 3d 44 14 0e bc 3f ad 8a bd
       0.022258297 0.032333806 -0.008671824 -0.06771325
000180 3c 3b ca 3c dc 3e f7 3c 0e 0c 11 3d 00 32 78 b9
       0.024686448 0.03018134 0.035411887 -0.0002366975
000190 88 76 c7 3d 70 cd 85 3b ed 4f cf bc 30 03 d1 3c
       0.09739405 0.004083328 -0.025306666 0.025514215
0001a0 86 27 38 3d 52 7a 5c bf 2e cd a3 bc 34 5e cb bc
       0.044959567 -0.86124146 -0.019995298 -0.024825193
0001b0 70 60 8d 3c c0 32 68 3b e3 3f 28 be e2 6b aa bc
       0.017257899 0.003543064 -0.16430621 -0.020803396
0001c0 5c f3 23 bc 62 20 51 3d 46 0d a6 bc 99 8c 6f be
       -0.010006752 0.051056273 -0.020270001 -0.23393477
0001d0 78 4f 57 bc 14 0b 89 bc 7f 20 d1 bc 60 49 bb bb
       -0.013141505 -0.016728915 -0.02552819 -0.005715534
0001e0 c3 c3 b8 bc fc ba 98 3c 6f 37 ff bc e0 19 35 bb
       -0.022554284 0.018643849 -0.031154362 -0.002763383
0001f0 a8 21 64 bc ae 40 ac 3e 94 83 90 bc e8 96 d4 3c
       -0.01392404 0.33643097 -0.017640866 0.025950864
000200 3a 4b f2 bc 7e d7 46 3d 71 7f cf 3d d8 0d 57 bd
       -0.029576886 0.048545353 0.101317294 -0.052503437
000210 2c 21 a3 bc 18 2f e2 3c d8 c6 30 3c 32 af da bc
       -0.019913279 0.027610347 0.010789596 -0.026694868
000220 ce db fb bc c2 9e 62 3d 96 99 35 bd 36 eb b4 bc
       -0.03074446 0.055327184 -0.044335924 -0.022084814
000230 d5 37 f4 3d 00 07 80 3c 9c bd de 3c 8c 28 9b 3c
       0.119247116 0.015628338 0.027190022 0.018940233
000240 6b d2 63 bd b3 ba 0c 3e fa d8 64 3d 98 b6 97 bb
       -0.055620592 0.13743095 0.055870987 -0.004629921
000250 60 44 eb 3b b8 b6 02 3d 69 5b 91 bf 90 d0 d6 3b
       0.007179782 0.031912535 -1.1356021 0.0065556243
000260 00 e5 f0 3c 34 0b 19 3d 86 90 56 3d 89 16 85 3c
       0.02940607 0.0373642 0.052383922 0.016246097
000270 a0 93 81 3b a8 e8 86 bc 68 25 25 bd 2c 7d 89 3c
       0.003954366 -0.016468361 -0.040318877 0.01678332
000280 b3 b3 9d bb 60 67 36 bb de e7 0f 3d c8 17 a6 3b
       -0.0048126816 -0.0027832612 0.035133235 0.005068753
000290 00 e3 6e ba 52 04 1b 3e 99 77 53 bd a6 51 3d bd
       -0.0009112805 0.15138367 -0.05162773 -0.046220444
0002a0 58 22 22 3d 70 6d 2f bb b2 d5 e4 bb 30 e3 8a 3c
       0.039583534 -0.002676811 -0.0069834823 0.016954035
0002b0 c4 8b c7 3c 58 95 14 bd 00 0d ee 3b 73 0c d1 be
       0.024358638 -0.036275238 0.0072647333 -0.4082981
0002c0 20 43 c1 bb 96 9b 5c 3d 4e 4d 04 bd 06 fb 9d bc
       -0.0058978945 0.053859316 -0.032300286 -0.019284736
0002d0 d0 29 b8 3c d9 35 0e bd 6d 0d eb bc 4c 94 26 bd
       0.022480875 -0.034719322 -0.028692925 -0.04066877
0002e0 34 d0 53 3d f8 83 46 3b 95 51 19 bd f8 7c 92 bc
       0.05171223 0.0030291062 -0.03743132 -0.017881855
0002f0 15 13 33 bd 62 df 98 bc 94 a4 63 3c 03 5a 13 bd
       -0.04371937 -0.018661205 0.013894219 -0.035974514
000300 02 e3 2f bd cc bd 2a bd fc 2b 51 bd f9 1c d6 3d
       -0.0429411 -0.04168491 -0.051067337 0.10454745
000310 9c 75 51 3d be c3 13 bd 65 e4 5b bd 9f 07 1f bd
       0.05113755 -0.036075346 -0.05368461 -0.038825627
000320 e6 62 93 3b ea e6 57 3d 8e ac 3d 3d c0 86 c8 bc
       0.0044978736 0.05271045 0.04630714 -0.024478316
000330 60 98 ee bb 3b 3c e2 bc cc 36 5e bd 34 6d fc bc
       -0.007281348 -0.02761661 -0.054251477 -0.03081379
000340 56 1b 44 3d ec 2e ab 3c 5c a5 45 3c 10 98 68 bc
       0.047877632 0.020896398 0.0120633505 -0.014196411
000350 24 63 ad bc 7a 8a 0b bd 08 89 21 bc f2 65 1b 3e
       -0.021165438 -0.03406761 -0.009859331 0.15175608
000360 02 24 25 bd 96 6e 3e bd ba 43 19 bd 14 49 b9 bc
       -0.040317543 -0.04649218 -0.037418105 -0.022617854
000370 65 82 51 bf 8c c1 20 bc 40 80 b9 3a 94 ca d9 bc
       -0.8183959 -0.00981177 0.0014152601 -0.026585855
000380 0e a0 4a 3d f5 1a 87 3d c2 f8 63 3d 35 72 61 bd
       0.049469046 0.065969385 0.055657156 -0.055040557
000390 e4 87 0a 3d 40 3f 10 3c 6f db 79 3d 08 11 3f bd
       0.033821 0.0088041425 0.061000284 -0.0466471
0003a0 d8 fa 6f 3c fa 0f 54 3d 34 4c 4c bc 91 8b 6e 3d
       0.014647208 0.05177305 -0.01246934 0.05823857
0003b0 90 02 04 bd 18 dd 2f 3d d8 41 a3 3b af c8 2a bd
       -0.032229006 0.04293546 0.0049822144 -0.041695293
0003c0 55 47 83 3b a5 34 56 bd 14 5f 24 bc b4 53 eb 3c
       0.004006306 -0.0522963 -0.010032434 0.028726436
0003d0 30 4c 4b 3d 00 87 07 3e 40 08 d0 bb 83 73 45 bd
       0.049633205 0.13235092 -0.0063486397 -0.048205864
0003e0 ca 72 45 3d 26 ca 48 bd 4f 50 e9 3c 14 6f 18 3d
       0.048205175 -0.04902091 0.028480677 0.037215307
0003f0 cc d6 28 bc 54 dd 11 bd 26 6c 1b 3d 5e 22 30 3e
       -0.010305118 -0.035611466 0.037944935 0.1720061

tcn.8.bias f4 [64]
000000 6a c0 27 40 78 56 a9 bd 5f 5c 24 40 9f fc 02 be
       2.621119 -0.08268446 2.568138 -0.1279168
000010 ad a0 b3 3f e1 06 86 bd e2 74 01 be 99 81 00 be
       1.4033409 -0.06544281 -0.12642244 -0.12549438
000020 5a be 50 bd 4e c3 85 bd 8f 3b ae bd 41 bd e2 bd
       -0.050962783 -0.06531392 -0.08507454 -0.110712536
000030 c0 39 f2 bd 0f 2d 98 bd b7 10 9e bd c4 f1 da bd
       -0.11827421 -0.07430469 -0.07718032 -0.106906444
000040 b4 be a5 bd 5f 55 18 be 60 6c a9 bd da 37 02 be
       -0.08093014 -0.14876316 -0.08272624 -0.12716618
000050 93 df d4 bd 2a b9 f6 bd 80 f6 8e bd 36 1e 0a be
       -0.10394206 -0.12047036 -0.0698061 -0.13488087
000060 8e 28 05 be b6 62 0e be e6 8b e1 bd e6 48 6f bd
       -0.13003752 -0.13904843 -0.11013012 -0.05841913
000070 9e 95 8d bd 73 6c 98 bd 56 52 79 bd 42 b4 21 be
       -0.06913303 -0.0744256 -0.060869537 -0.15791419
000080 d9 30 05 be 9a a7 84 bd b1 44 a5 bd 5a a4 d8 bd
       -0.13006915 -0.0647728 -0.080697425 -0.105782226
000090 8a 3d fe bd 57 cb 07 bd d7 5f fb bd f8 fd 8c bd
       -0.124140814 -0.033152904 -0.122741394 -0.06884378
0000a0 d2 3f 14 bd e3 2b 93 bd 83 a5 8e bd cb 58 d2 bd
       -0.036193676 -0.07186105 -0.069651626 -0.10270842
0000b0 df 25 e5 bd a1 8b fb bd 7f ac 0b bd 22 95 b1 bd
       -0.11188864 -0.122824915 -0.034100052 -0.08671023
0000c0 3f 49 e0 bd da 8d d5 bd 86 e5 fd bd e5 63 9f bd
       -0.109514706 -0.10427447 -0.12397294 -0.07782725
0000d0 68 2c aa bd 55 e1 8b bd ae 04 fe bd 69 1f 05 be
       -0.08309251 -0.06830088 -0.12403236 -0.13000263
0000e0 74 73 ff bd ac a2 5c bd 52 e9 04 be dd 37 5e bd
       -0.12473193 -0.053866073 -0.1297963 -0.054252494
0000f0 0e 16 eb bd 4c 37 0b be ac 2e da bd ed cc a3 bd
       -0.11478816 -0.13595313 -0.10653433 -0.07998071

fc.weight f4 [5, 64]
000000 00 7d 81 bb c2 40 e8 3d 50 2b 03 bc ec c7 e8 3d
       -0.0039516687 0.113404766 -0.008005932 0.11366257
000010 58 6a f1 bd 0a b4 9c bd e8 16 79 3d 0c 62 33 bd
       -0.117878616 -0.07651527 0.06081286 -0.043794677
000020 d6 00 d6 bd c0 76 fb 3c 0c cd 23 bd f6 2f a3 3d
       -0.10449378 0.030696273 -0.03999047 0.07968132
000030 a2 9b 8d 3d f2 4e a3 bd 48 e9 65 3d 48 d0 b5 3d
       0.0691445 -0.07974042 0.056130677 0.08877617
000040 52 69 f2 3d a4 94 05 3d 1c 89 2f bd ca e6 dc bd
       0.118364945 0.032612458 -0.042855367 -0.10786207
000050 80 35 b5 bd c0 4e cb 3d 84 4e f4 3d e0 06 aa 3d
       -0.08848095 0.0992713 0.11929038 0.083020926
000060 38 f3 1f 3d e8 29 49 bd c4 a5 af bd d2 c0 ab 3d
       0.03905031 -0.04911223 -0.08576539 0.08386387
000070 9e e8 c2 3d a0 16 1c 3d de 52 ee 3d d0 02 44 bc
       0.095170245 0.038107514 0.116368994 -0.011963561
000080 6c ab bc 3d 40 e5 37 bb f4 c7 5a 3d 00 61 3b bb
       0.09212384 -0.0028060228 0.053413346 -0.0028591752
000090 e0 9d e2 3d 68 08 66 bd b8 97 87 bd 88 3d 75 3d
       0.110652685 -0.05616036 -0.06620735 0.059873134
0000a0 8a 68 ad 3d de 1d 87 3d 98 a1 c3 bd 0c 96 9e bd
       0.08467205 0.065974936 -0.09552306 -0.07743463
0000b0 2e b6 8f bd 18 01 b9 bd 6c 3a ae 3d d0 08 ed bc
       -0.0701717 -0.09033412 0.08507237 -0.028934866
0000c0 b4 52 f4 3d d0 86 18 bc 80 ed b7 bc 64 aa cb bd
       0.11929837 -0.009309486 -0.022452116 -0.09944609
0000d0 b8 d7 7a 3d bc ee 7d 3d f4 29 eb 3d 54 df f2 3d
       0.06124088 0.061995253 0.11482611 0.11859003
0000e0 08 9d 6b 3d 5a 11 a7 bd dc 44 26 bd 0c 14 46 bd
       0.057522804 -0.081576064 -0.040593013 -0.048358962
0000f0 00 28 68 bb 68 ff c0 bd b0 13 7b bd b0 9a a2 3c
       -0.0035424232 -0.09423715 -0.061298072 0.019849151
000100 ea b4 be 3d e6 8a ef bd a4 1d 8e bd da 4b 83 bd
       0.0931185 -0.11696415 -0.06939247 -0.06410952
000110 88 16 03 3d 38 fe ea 3c 88 59 0d 3d 6c b3 4d 3d
       0.03200391 0.028685674 0.03450921 0.05021994
000120 86 b9 bd bd 48 43 44 3d 00 a4 1f 3b 00 90 8b 3a
       -0.092639014 0.047915727 0.0024359226 0.0010647774
000130 b0 2f 04 bd 80 0e ae bd fa b5 d0 3d 10 af 95 bd
       -0.03227204 -0.084988594 0.10190959 -0.07308781
000140 b0 fe 7d 3d 60 43 78 3c e0 63 d1 3d aa 43 e3 3d
       0.062010467 0.015152782 0.10224128 0.1109689
000150 0c 6b 63 bd 12 49 c3 bd 4e 4a b0 3d 7c c2 93 bd
       -0.05552201 -0.095354214 0.086079225 -0.07214829
000160 94 d4 76 bd c0 0b fd bc c0 ec df 3c a0 12 6f 3d
       -0.060261324 -0.030889392 0.02733457 0.05836737
000170 1c 6f b2 bd 30 d2 af bc 98 f2 75 bd 30 a6 12 bd
       -0.08712599 -0.02146253 -0.06004581 -0.03580302
000180 9c 41 5d 3d 2e 68 fa 3d 4a 49 dc bd f0 28 48 3c
       0.054017648 0.12226902 -0.10756166 0.0122167915
000190 b0 93 e5 bd 44 d0 09 bd f0 8a ba 3c 50 d4 80 3d
       -0.1120981 -0.033645883 0.022771329 0.062904954
0001a0 68 81 c8 3c e8 95 8d bd 88 04 4b 3d 7c a6 05 3d
       0.024475768 -0.06913358 0.04956487 0.032629475
0001b0 a2 72 89 bd 42 6b b2 3d 9c c1 36 bd b0 e6 12 3c
       -0.067113176 0.08711864 -0.044618234 0.008966133
0001c0 c0 be ac 3d 70 f1 15 bd a0 31 c0 3d 56 d9 8d 3d
       0.0843482 -0.036607206 0.09384465 0.06926219
0001d0 9c 38 47 bd 3e 20 b1 bd 78 c5 6c 3d c0 46 4c bd
       -0.04863797 -0.08648728 0.05780551 -0.04987216
0001e0 b4 f8 3a 3d 02 65 b1 bd 60 71 4a bc 0c ba c9 bd
       0.045647338 -0.08661844 -0.012356132 -0.09849939
0001f0 2c 6f b7 bd 9e 3d a5 bd d4 c2 82 bd b0 19 e1 3d
       -0.08956751 -0.08068393 -0.06384817 0.109912276
000200 70 a4 80 bd d0 49 f3 3c a0 e3 fe 3b 04 60 65 bd
       -0.06281364 0.029698282 0.0077786 -0.05599977
000210 fc 9a 6e bd e4 44 17 bd 40 d0 6b 3b 58 2e ff bc
       -0.058253273 -0.036930934 0.003598228 -0.031150028
000220 4e c2 c5 bd 42 de fc 3d 64 bf f0 3d f0 5c 16 3d
       -0.09656201 0.1234708 0.11755255 0.036709726
000230 c8 50 81 3c 24 87 49 3d 4c 22 d1 3d 80 99 2c bc
       0.01578559 0.049201146 0.1021162 -0.010534644
000240 80 bc 2d 3c a8 48 64 bd ba 2c fb 3d e0 cc 4b bc
       0.010604024 -0.055733353 0.1226439 -0.012438983
000250 fa b5 ea 3d b0 be 5f 3d ce 02 ca bd 8c 3f 27 3d
       0.114604905 0.054625213 -0.09863816 0.040832087
000260 2a c1 c5 3d 20 8c b0 bd d4 cd 37 bd 54 49 22 bd
       0.09655984 -0.08620477 -0.044874027 -0.039620712
000270 18 b5 d3 3c b8 ce bb bc 70 0b d7 bc 26 07 b6 3d
       0.025843188 -0.02292572 -0.026250571 0.08888082
000280 80 4a e3 3d 50 ad 3b bd a0 42 fb bc 08 c5 eb 3c
       0.11098194 -0.04581958 -0.030671418 0.028780475
000290 60 52 0a bc 7c a7 09 bd 42 1d 8f 3d f8 16 ef 3d
       -0.008442491 -0.03360699 0.06988002 0.11674303
0002a0 f8 8f a3 bd ee e8 98 3d c0 43 e5 bb e4 82 09 bd
       -0.07986444 0.07466303 -0.006996602 -0.033572093
0002b0 bc 40 70 3d dc 80 e0 bd 6e 38 bc bd 00 1f 91 bc
       0.058655486 -0.10962078 -0.091904506 -0.017714977
0002c0 98 61 9b bd 36 60 8c 3d 78 39 c3 3d 98 2c b6 bd
       -0.07586974 0.06854288 0.09532446 -0.08895224
0002d0 8c 35 11 3d c4 f3 2a bd e0 34 d6 3c e2 9d 94 3d
       0.035451457 -0.04173638 0.02614826 0.07256676
0002e0 40 ce 4c 3b 5c 05 53 3d 8a c9 83 bd e0 6e 47 3d
       0.0031250864 0.051518783 -0.06434925 0.048689723
0002f0 de 89 ef 3d be 16 b9 bd 0e b9 de 3d e8 3c 67 3d
       0.11696218 -0.09037541 0.1087514 0.05645457
000300 ea 61 8c bd e4 37 0a 3d ec 19 16 3d 60 dd 07 3c
       -0.06854613 0.033744708 0.036645815 0.008292526
000310 66 bc e9 bd 62 5c 9b 3d 50 f5 7d bd ae 8e a1 bd
       -0.11412887 0.0758598 -0.062001526 -0.07888542
000320 3c a5 55 bd 08 04 93 bc 1c b2 90 3d f8 12 1a 3d
       -0.052159533 -0.017946258 0.07065222 0.037615746
000330 08 f3 4b 3d 9e 73 dd 3d 5e ab 98 bd c0 03 93 3b
       0.04979232 0.10813068 -0.07454561 0.004486531
000340 ee 06 cf 3d 38 5f 61 3d 00 cf 4b 3d 78 94 1b bd
       0.101087436 0.05502245 0.049757957 -0.037983388
000350 d2 c7 84 bd 4c 0a 67 bd 30 58 4b 3c 12 f1 aa 3d
       -0.06483425 -0.056406304 0.012411162 0.08346762
000360 40 f2 64 3d 98 b6 d9 3d 80 47 bf bc e8 87 eb 3c
       0.05589509 0.1063053 -0.023349524 0.028751329
000370 38 f8 d3 3c 68 f5 88 bc ae 99 cf bd fa a0 f6 3d
       0.025875196 -0.016718581 -0.10136734 0.120424226
000380 a0 e6 56 3d c0 88 37 3b 94 a4 4f 3d b8 2e f9 3c
       0.052466035 0.0028005093 0.050694063 0.030417785
000390 ac 30 53 bd e4 d8 8b bd 60 37 42 bd 9c a1 c8 3d
       -0.05156009 -0.06828478 -0.04741609 0.097964495
0003a0 18 51 dd 3c 9c ad a4 bd b0 34 f4 bc be d5 b4 3d
       0.027016208 -0.08040926 -0.02981028 0.088298306
0003b0 30 24 59 3c c0 5c b4 bd 48 be 91 bc 08 0c 8c 3c
       0.013253257 -0.08806753 -0.017790928 0.01709558
0003c0 5a 6a ea bd 20 6c e7 bd 74 31 ae bd d2 49 b8 3d
       -0.11446066 -0.1129992 -0.08505526 0.08998455
0003d0 90 f7 dc bc 60 f1 83 bd 60 a2 b3 3c 14 31 3f bd
       -0.026973516 -0.06442523 0.021928012 -0.046677664
0003e0 c8 c5 ef bc 64 f7 eb 3d b0 75 21 bc f8 1b f2 bc
       -0.029269114 0.115217954 -0.009854719 -0.029554352
0003f0 68 68 aa bd 28 c6 50 3d 50 51 3f bd bc f2 bb 3d
       -0.08320695 0.050970227 -0.046708405 0.09177157

fc.bias f4 [5]
000000 58 b2 6c 3d 3c f7 22 3d 20 e8 91 3c 26 f6 bf bd
       0.05778727 0.039786562 0.017810881 -0.09373121
000010 c8 2c 3c bd
       -0.045941144
