tcn_model.pt (torch, 141656 bytes, 19 tensors)

tcn.0.weight f4 [64, 6, 5]
-0.001626611 -0.12044177 -0.021795606 -0.057935454 0.06536629 0.121405095 0.055612177 -0.1912507
-0.15727359 0.112589315 0.18088213 -0.0668979 -0.011730959 -0.13686982 0.11389581 -0.13894854
0.049565982 -0.16926032 -0.047710553 -0.10333299 0.07059663 -0.11894428 -0.11909553 -0.032333013
0.13839449 -0.14944308 0.085104965 0.07070189 0.062211934 -0.084673576 0.017594371 -0.06334103
-0.20475076 0.10393828 -0.15009114 -0.104782715 -0.1372219 0.051730696 -0.17118593 -0.100328244
0.16276762 0.12662333 0.12886888 0.074834526 7.881821e-05 0.011477953 -0.07672052 -0.1585345
-0.01642633 -0.050609514 0.076815724 0.010157055 -0.099080704 0.08422109 -0.13702114 -0.16362986
-0.11150712 0.0831032 -0.07338072 -0.16726178 -0.18204264 -0.041046098 -0.13401058 -0.05245215
0.08892377 -0.09071733 0.103147686 0.08492578 -0.11972212 -0.103657015 0.16925651 -0.026829567
-0.121749476 -0.14669405 -0.11179425 -0.15480746 -0.13907841 -0.13437277 -0.1446986 -0.17877358
-0.1758939 0.15278152 0.15128691 0.103684075 0.15991865 0.13952231 -0.10508374 0.08561517
-0.13504612 -0.014558054 -0.19297032 -0.08530235 -0.07887811 -0.019667387 0.15374137 -0.10202512
-0.15470228 0.032946568 -0.032744043 -0.07810648 -0.0046990304 0.03472025 -0.039950233 0.0034226864
0.028169347 0.052667946 0.038537763 0.08405431 0.13349757 -0.009780962 -0.051267505 0.052850835
-0.16482338 -0.14901443 0.040066294 -0.051322956 -0.18269627 -0.066707976 0.057960797 -0.033332564
-0.08099614 0.0023420774 -0.016054258 -0.06669047 -0.10512701 -0.066558994 0.16395847 -0.17368327
0.042107638 -0.080627084 -0.13672636 -0.078554854 0.0051463675 -0.08690842 0.042676475 0.18141949
0.033852186 -0.123199075 -0.11446572 0.14776133 -0.044310723 0.08119997 -0.07504549 0.019768292
-0.102350086 0.1387783 0.1508289 -0.004534892 0.14824073 -0.1333443 -0.0055107116 -0.106511965
-0.020442784 -0.017528448 0.017270975 0.16938053 0.028195355 -0.12567617 -0.16317615 -0.091082804
0.015908932 0.08467553 0.11979457 0.17051308 0.05565811 -0.11695506 -0.1524561 -0.12207111
-0.109926805 -0.030240485 -0.14930359 0.18237664 0.17563862 -0.09252753 -0.17445073 0.053981367
-0.06555092 0.10707293 0.06109482 0.068478234 0.050794207 0.11749606 -0.03588341 0.10052242
0.12718083 -0.05476681 0.12513833 -0.0837535 -0.026697343 -0.021738943 -0.059141085 0.056283258
0.15184696 -0.11893317 0.0708881 -0.04187047 0.18998185 0.15059666 -0.07292342 -0.0794156
0.0130341835 0.16481066 -0.170951 0.1969412 0.11576405 0.07126891 0.1917631 0.1697864
0.048137683 -0.16037612 -0.16561434 0.110107616 0.08668179 -0.1018384 -0.12994584 -0.01705061
0.08082316 -0.1236619 0.022917531 0.12653966 0.14338556 0.12084024 0.046905093 -0.09033913
0.0054370216 -0.072495796 -0.12031762 -0.045978967 0.10998682 -0.06630337 -0.040419232 -0.020799015
-0.04130189 0.05661956 -0.021829367 -0.06921784 -0.13846268 -0.091918156 0.13737075 -0.025318272
0.1560552 -0.132857 -0.068307154 0.03167739 0.08999525 0.14873382 0.1023675 -0.030505551
0.14681304 0.030151732 0.10080305 -0.064099915 -0.12023222 -0.036162294 0.11244773 0.16465662
00000000: 0234 d5ba 2daa f6bd b38c b2bc ba4d 6dbd
00000010: c3de 853d 3ca3 f83d 98c9 633d 39d7 43be
00000020: 540c 21be 3a95 e63d 2a39 393e c401 89bd
00000030: 3533 40bc 9a27 0cbe 3542 e93d 8748 0ebe
00000040: b305 4b3d 9452 2dbe 246c 43bd 3fa0 d3bd
00000050: f794 903d 0f99 f3bd 5be8 f3bd 9f6f 04bd
00000060: 49b7 0d3e 9b07 19be 834b ae3d 27cc 903d
00000070: f1d1 7e3d 5769 adbd 1222 903c f1b8 81bd
00000080: 2faa 51be 98dd d43d 7eb1 19be 5298 d6bd
00000090: e683 0cbe 91e3 533d 5d4b 2fbe e578 cdbd
000000a0: 8eac 263e 8ca9 013e 34f6 033e d842 993d
000000b0: 344b a538 060e 3c3c a61f 9dbd de56 22be
000000c0: 8390 86bc ec4b 4fbd 9051 9d3d c769 263c
000000d0: d3ea cabd 1b7c ac3d 454f 0cbe 968e 27be
000000e0: d85d e4bd 0332 aa3d a248 96bd ac46 2bbe
000000f0: 6369 3abe f41f 28bd 123a 09be 11d8 56bd
00000100: aa1d b63d 02ca b9bd 183f d33d 91ed ad3d
00000110: df30 f5bd 214a d4bd 9451 2d3e aec9 dbbc
00000120: ca57 f9bd f736 16be 62f4 e4bd d985 1ebe
00000130: 926a 0ebe 0499 09be df2b 14be 6c10 37be
00000140: 881d 34be c272 1c3e f5ea 1a3e 5158 d43d
00000150: b7c1 233e f0de 0e3e 2536 d7bd 0257 af3d
00000160: 8849 0abe e784 6ebc 039a 45be 00b3 aebd
00000170: d98a a1bd 801d a1bc 616e 1d3e 8cf2 d0bd
00000180: 466a 1ebe fbf2 063d 9e1e 06bd 4af6 9fbd
00000190: 53fa 99bb d236 0e3d dba2 23bd 264f 603b
000001a0: 67c3 e63c 58ba 573d c6d9 1d3d ab24 ac3d
000001b0: 96b3 083e 5440 20bc e0fd 51bd 1e7a 583d
000001c0: 76c7 28be 3d97 18be 8e1c 243d 0538 52bd
000001d0: bb14 3bbe 319e 88bd 4d68 6d3d ba87 08bd
000001e0: 4ee1 a5bd 8a7d 193b 3884 83bc 0395 88bd
000001f0: d44c d7bd 1550 88bd bbe4 273e 07da 31be
00000200: 0f79 2c3d d01f a5bd ff01 0cbe 5ee1 a0bd
00000210: dca2 a83b 0bfd b1bd 87cd 2e3d 08c6 393e
00000220: 97a8 0a3d cc4f fcbd 016d eabd bf4e 173e
00000230: 297f 35bd 2b4c a63d 73b1 99bd 1df1 a13c
00000240: ec9c d1bd e61b 0e3e e472 1a3e 6e99 94bb
00000250: 6bcc 173e 688b 08be 3393 b4bb f222 dabd
00000260: a077 a7bc d297 8fbc dc7b 8d3c 1772 2d3e
00000270: f2f9 e63c 41b1 00be a617 27be 9f89 babd
00000280: 7353 823c 5d6a ad3d db56 f53d fb9a 2e3e
00000290: c2f9 633d 2286 efbd 741d 1cbe 6b00 fabd
000002a0: 4e21 e1bd e5ba f7bc 0ae3 18be f1c0 3a3e
000002b0: 9cda 333e 137f bdbd 36a3 32be 911b 5d3d
000002c0: 903f 86bd 0d49 db3d 903e 7a3d 513e 8c3d
000002d0: 960d 503d c6a1 f03d 7cfa 12bd b3de cd3d
000002e0: b13b 023e 2a53 60bd 4324 003e f486 abbd
000002f0: 63b4 dabc de15 b2bc ec3d 72bd 4689 663d
00000300: c57d 1b3e 3c93 f3bd c82d 913d 5f80 2bbd
00000310: 9a8a 423e 0336 1a3e e058 95bd a5a4 a2bd
00000320: 548d 553c 20c4 283e c70d 2fbe f4aa 493e
00000330: b415 ed3d 6ff5 913d 8c5d 443e 7cdc 2d3e
00000340: 052c 453d a339 24be ce96 29be 1a80 e13d
00000350: 3986 b13d a790 d0bd 8610 05be b9ad 8bbc
00000360: 9d86 a53d 7342 fdbd 8cbd bb3c 9d93 013e
00000370: aad3 123e 167b f73d 8e1f 403d b903 b9bd
00000380: 0b29 b23b ad78 94bd 1669 f6bd 7154 3cbd
00000390: c540 e13d 10ca 87bd a38e 25bd b262 aabc
000003a0: 2c2c 29bd e9e9 673d 80d3 b2bc 15c2 8dbd
000003b0: 29c9 0dbe 963f bcbd ebaa 0c3e 4468 cfbc
000003c0: efcc 1f3e aa0b 08be 9fe4 8bbd 27c0 013d
000003d0: 6e4f b83d ae4d 183e 0da6 d13d c7e6 f9bc
000003e0: 2856 163e c400 f73c d471 ce3d d146 83bd
000003f0: 4f3c f6bd ea1e 14bd ff4a e63d bf9b 283e

tcn.0.bias f4 [64]
-0.14031292 -0.020625522 0.018491328 0.080905065 0.13077663 0.17123973 0.1747663 0.1318962
0.006996196 -0.02733851 0.016726645 -0.13817155 -0.0031887623 -0.06270044 -0.12135912 -0.17085889
-0.099848576 -0.033344816 -0.09701173 0.16043733 0.0055406503 0.15677898 -0.075135276 -0.0045312634
0.15940921 -0.014507945 -0.00027364833 0.028570686 -0.12202015 -0.16740449 0.031087203 -0.008813005
0.001151552 0.0770665 0.028236875 0.109792694 0.086274564 0.012470055 -0.17517205 -0.17937914
-0.15338196 0.009241518 0.11610729 0.036683958 0.012257389 0.1442865 0.020871196 0.08708284
0.10842981 -0.16024125 -0.011994902 0.1418975 -0.05667813 0.0044774907 -0.033836145 0.18947533
0.14586712 -0.15147603 0.16370213 0.020471286 -0.17838827 0.15537237 0.043360103 0.028925436
00000000: 31ae 0fbe dbf6 a8bc 207b 973c 8eb1 a53d
00000010: 4fea 053e 7859 2f3e f0f5 323e cc0f 073e
00000020: 5940 e53b 03f5 dfbc 5106 893c d87c 0dbe
00000030: 8efa 50bb 1769 80bd 218b f8bd a2f5 2ebe
00000040: 697d ccbd 9394 08bd 16ae c6bd af49 243e
00000050: 588e b53b ab8a 203e 86e0 99bd fe7a 94bb
00000060: 2b3c 233e bbb2 6dbc 7578 8fb9 120d ea3c
00000070: b3e5 f9bd 156c 2bbe 97aa fe3c 6c64 10bc
00000080: acef 963a 0bd5 9d3d 0551 e73c feda e03d
00000090: b8b0 b03d 344f 4c3c 4d60 33be 2aaf 37be
000000a0: 2910 1dbe bc69 173c a9c9 ed3d eb41 163d
000000b0: 37d3 483c d7bf 133e 12fa aa3c 7d58 b23d
000000c0: 7310 de3d 4816 24be 4486 44bc 944d 113e
000000d0: 5427 68bd eab7 923b c597 0abd d205 423e
000000e0: 315e 153e 881c 1bbe 88a1 273e 66b3 a73c
000000f0: 6aab 36be ef19 1f3e 5d9a 313d 09f5 ec3c

tcn.2.weight f4 [64]
1.0220642 1.0102488 0.9831702 1.0154281 1.0066104 0.9790394 0.9846039 1.008347
1.0167015 1.0065323 0.99483675 0.9943084 1.0078847 1.0119045 0.9753837 0.97541255
1.0008852 0.98498774 0.9823511 1.001597 1.0001433 0.97900206 1.0293146 0.98288286
0.9949043 0.9953958 0.9992114 0.9841125 0.98749894 0.98887575 0.99532896 1.0067962
0.9826444 0.9953103 1.0278664 0.99874127 0.98324835 0.9899701 0.9596514 0.9930597
1.0075674 0.99287117 0.983288 0.9945611 0.9905386 0.9957716 0.9712426 1.0564482
0.9956753 0.9880282 1.0122306 1.0010092 1.0231129 0.98489827 0.9873566 1.0188375
0.99006414 0.98816717 0.9855635 0.9730592 0.9972561 1.0153333 0.9766973 1.0066987
00000000: 00d3 823f d54f 813f 0bb1 7b3f 8cf9 813f
00000010: 9cd8 803f 53a2 7a3f 000f 7c3f 8411 813f
00000020: 4623 823f 0dd6 803f 9fad 7e3f ff8a 7e3f
00000030: 5e02 813f 1686 813f bfb2 793f a3b4 793f
00000040: 021d 803f 2828 7c3f 5d7b 7b3f 5534 803f
00000050: b204 803f e19f 7a3f 95c0 833f 369e 7b3f
00000060: 0cb2 7e3f 42d2 7e3f 51cc 7f3f ccee 7b3f
00000070: bbcc 7c3f f626 7d3f e1cd 7e3f b3de 803f
00000080: 958e 7b3f a8cc 7e3f 2091 833f 82ad 7f3f
00000090: 2ab6 7b3f ae6e 7d3f b7ab 753f 2939 7e3f
000000a0: f8f7 803f ce2c 7e3f c3b8 7b3f 8e9b 7e3f
000000b0: f093 7d3f e3ea 7e3f 5ba3 783f b239 873f
000000c0: 94e4 7e3f 6bef 7c3f c690 813f 1221 803f
000000d0: 5df5 823f 4b22 7c3f 67c3 7c3f 4469 823f
000000e0: d874 7d3f 86f8 7c3f e44d 7c3f 681a 793f
000000f0: 2d4c 7f3f 71f6 813f d608 7a3f 81db 803f

tcn.2.bias f4 [64]
0.0042641424 0.024626372 0.015558079 0.017708937 -0.006111551 -0.01677125 0.001850384 0.011694383
-0.012596891 0.013357203 0.005136837 0.0036799426 -0.0083632795 0.006210484 0.023639414 0.0031136905
-0.0006175905 0.018743007 -0.0043550916 0.015978904 0.004517884 0.010160347 0.003914435 0.0015278367
-0.00057256524 -0.002164214 0.0076046702 -0.0053956397 0.0049554207 -0.009182438 0.0058988337 -0.010601692
0.0018647162 0.008920067 0.0045497715 0.013401966 -0.0043536713 0.0131715415 0.0053038443 0.0054837805
0.016893039 0.0021867484 -0.01674988 0.011910089 -0.006928673 -0.0048356336 0.022474116 0.011339663
-0.0014044401 0.013542208 -0.014146176 -0.002540057 0.0034645936 0.023395402 0.00037995912 -0.017382544
-0.0035086812 0.010393734 0.004114596 0.008655487 0.0037136702 0.00086593395 -0.0031997159 -0.0033155927
00000000: 38ba 8b3b 3fbd c93c 50e7 7e3c 5512 913c
00000010: 6843 c8bb dc63 89bc 9688 f23a cc99 3f3c
00000020: 3163 4ebc 2cd8 5a3c e952 a83b 312b 713b
00000030: 2306 09bc 5181 cb3b 72a7 c13c 0f0f 4c3b
00000040: cce5 21ba ef8a 993c 28b5 8ebb 31e6 823c
00000050: c20a 943b 9677 263c a944 803b b141 c83a
00000060: 3418 16ba 7cd5 0dbb 9930 f93b e8cd b0bb
00000070: 1561 a23b f071 16bc 014b c13b b8b2 2dbc
00000080: 7e69 f43a 7925 123c 4016 953b eb93 5b3c
00000090: 3ea9 8ebb 73cd 573c dfcb ad3b 49b1 b33b
000000a0: 4563 8a3c 8d4f 0f3b 0b37 89bc 8922 433c
000000b0: ec09 e3bb 3c74 9ebb a31b b83c fec9 393c
000000c0: 3115 b8ba 23e0 5d3c 5dc5 67bc 1677 26bb
000000d0: 3c0e 633b b7a7 bf3c 4035 c739 d665 8ebc
000000e0: e7f1 65bb 7b4a 2a3c bcd3 863b becf 0d3c
000000f0: 0c61 733b d8ff 623a 53b2 51bb 6a4a 59bb

tcn.2.running_mean f4 [64]
0.0017211781 0.0021960065 0.015696844 0.038621224 0.07582753 0.12786117 0.23261836 0.114504494
0.09304296 0.059618898 0.07287992 0.0077078263 0.031945862 0.0049433117 0.01226955 0.00046053226
0.0010668316 0.040448245 0.003062281 0.18736674 0.020876063 0.22297694 0.0033273003 0.050220262
0.09363484 0.042358182 0.079050645 0.112279676 0.013738409 0.0007245601 0.02900555 0.012067573
0.022302672 0.0470912 0.032501914 0.15586823 0.07979815 0.011950681 0.0028675606 0.007366795
0.0017170359 0.07033345 0.07989229 0.045844052 0.116091765 0.26880935 0.051418122 0.023722934
0.12945294 0.008522585 0.06707195 0.16198497 0.004397829 0.0758785 0.023081897 0.25355157
0.16877697 0.004390775 0.16561215 0.0421009 7.586699e-05 0.16108516 0.038623143 0.044666365
00000000: 2799 e13a e0ea 0f3b ab96 803c 4a31 1e3d
00000010: 774b 9b3d 0aee 023e 8233 6e3e 5581 ea3d
00000020: 4f8d be3d f232 743d 1142 953d ef91 fc3b
00000030: aad9 023d 81fb a13b 3906 493c 9873 f139
00000040: eed4 8b3a 0fad 253d 8db0 483b 11dd 3f3e
00000050: 4704 ab3c 1154 643e d60e 5a3b c3b3 4d3d
00000060: 9fc3 bf3d c67f 2d3d 4ee5 a13d e3f2 e53d
00000070: 1017 613c 68f0 3d3a 0c9d ed3c 12b7 453c
00000080: 18b4 b63c b4e2 403d ba20 053d ec9b 1f3e
00000090: 366d a33d cacc 433c afed 3b3b 2865 f13b
000000a0: 2a0e e13a fc0a 903d 929e a33d f9c6 3b3d
000000b0: 85c1 ed3d 61a1 893e cf9b 523d 9956 c23c
000000c0: 508f 043e 50a2 0b3c 055d 893d 63df 253e
000000d0: aa1b 903b 3066 9b3d 3f16 bd3c 83d1 813e
000000e0: dfd3 2c3e 7ee0 8f3b 3b96 293e fe71 2c3d
000000f0: c81a 9f38 82f3 243e 4d33 1e3d 14f4 363d

tcn.2.running_var f4 [64]
0.0002296874 0.00028614234 0.0022143978 0.0029973516 0.004492391 0.009167636 0.010052374 0.004464148
0.0053496584 0.0053062127 0.0073154494 0.0009357252 0.0025038093 0.00048171406 0.0030720308 4.3425516e-05
8.238637e-05 0.0045409403 0.00039975133 0.0063549425 0.001736047 0.009586958 0.0003898164 0.0042732246
0.008039649 0.0042397496 0.005984934 0.011650436 0.0027479357 8.387128e-05 0.0020706598 0.0010961257
0.0016625269 0.003003681 0.0026138066 0.008877426 0.005860642 0.0013297538 0.00046798986 0.0012963495
0.00020239537 0.00881382 0.00494214 0.0029734862 0.011033475 0.009919379 0.0051932177 0.0016616444
0.009228056 0.0011278694 0.0054792394 0.010180325 0.00038655198 0.006091784 0.003142002 0.0082414495
0.012031138 0.0006180307 0.008764394 0.0039142594 3.0110036e-06 0.0076016495 0.0030411575 0.004254851
00000000: 3ed8 7039 6005 9639 6e1f 113b 376f 443b
00000010: e834 933b da33 163c b6b2 243c fd47 923b
00000020: 304c af3b bddf ad3b 70b6 ef3b 754b 753a
00000030: f316 243b 918e fc39 2054 493b cb23 3638
00000040: d8c6 ac38 2bcc 943b b795 d139 1f3d d03b
00000050: 128c e33a 9e12 1d3c 4660 cc39 6806 8c3b
00000060: bbb8 033c 99ed 8a3b 441d c43b 78e1 3e3c
00000070: b616 343b 0de4 af38 e8b3 073b e0ab 8f3a
00000080: 25e9 d93a 68d9 443b 664c 2b3b a072 113c
00000090: a10a c03b 224b ae3a 895c f539 45ea a93a
000000a0: 183a 5439 d767 103c adf1 a13b d2de 423b
000000b0: c0c5 343c e484 223c de2b aa3b 89cb d93a
000000c0: 4631 173c 04d5 933a 318b b33b 61cb 263c
000000d0: 21aa ca39 979d c73b 0cea 4d3b 2507 073c
000000e0: 401e 453c 5703 223a 8898 0f3c 3043 803b
000000f0: a610 4a36 4217 f93b 284e 473b 476c 8b3b

tcn.4.weight f4 [64, 64, 5]
-0.04554661 -0.040116612 -0.009059456 0.031171381 0.019679308 -0.010797798 -0.040781766 0.007859693
0.023257563 -0.03476592 0.020066997 0.057335105 0.021003291 0.04919744 -0.02225189 0.023729995
-0.029048095 -0.034835156 -0.039105713 -0.002379233 -0.029766291 -0.048393734 -0.026171857 -0.024224821
-0.055597022 -0.0060435478 -0.013836899 -0.025634851 0.058096476 0.0103905555 -0.013534695 -0.02716357
-0.035471495 -0.00821234 0.049119703 0.03869915 -0.030287258 -0.046471123 0.03755615 -0.0425333
-0.027287358 -0.02472542 0.07484701 -0.016811492 -0.05217759 0.034234513 -0.043310508 -0.014146193
0.04488105 -0.0066599306 0.025554905 -0.008224718 -0.009261967 0.011719295 0.017743947 -0.0037610813
-0.01919644 0.014737956 0.018754527 -0.04112821 -0.018299919 0.038357593 -0.015295841 -0.049547546
0.013671127 -0.055170737 -0.018261168 0.055760182 -0.0153566105 0.055365928 0.0012819632 0.01918425
-0.037238695 0.0312035 0.010029524 0.038541563 0.039623745 0.029698305 -0.020868575 0.0046770154
-0.037816312 0.05718553 0.03989431 -0.00026696973 -0.034381926 0.015142848 0.01847889 0.027568897
0.017356033 -0.0434227 -0.06277969 0.053922772 -0.040602304 -0.05410288 -0.014441271 -0.0131535055
-0.02394503 -0.020425266 -0.04497708 -0.014641954 -0.027690785 -0.05917889 -0.019480618 -0.03621876
-0.005904963 0.029657926 -0.015788952 0.017166767 0.06860051 -0.024007458 -0.037947297 -0.044439565
0.026608823 -0.030331815 -0.00030296535 -0.045570236 0.054313682 -0.03756122 -0.035195045 -0.01482971
0.041298896 -0.00686929 -5.120995e-05 0.031922907 0.013316006 -0.055166192 -0.028812692 -0.02202828
-0.0136432145 -0.020517992 0.006695984 -0.008615839 0.033787876 0.020668168 -0.046411455 0.009274375
-0.020858113 0.023351561 -0.037991166 0.01999515 -0.056032393 0.023363754 -0.012127312 -0.00939173
-0.05911808 -0.0047310838 0.005263224 0.02153862 0.029087441 -0.012402008 0.010413121 0.011076811
0.00095834746 0.0047226204 -0.036036853 -0.019944753 0.024400633 -0.029701797 -0.037475195 0.020223346
-0.02984598 0.022970613 -0.016004335 -0.019496564 -0.054243226 0.035124626 -0.06993956 -0.02319886
0.048955135 -0.039281704 0.0037405433 0.025584638 -0.044691626 -0.0063480097 0.027351467 0.033898897
-0.013094762 -0.054567493 -0.049164943 0.03227568 0.049080558 -0.034856085 0.06385431 0.037297234
0.011148747 0.0049305568 -0.018765861 0.046159673 0.05225004 0.048536677 -0.062232923 -0.035202958
-0.032217063 -0.038153112 -0.015835647 0.015180131 0.02238185 -0.033417135 -0.0268186 -0.003179961
-0.043437272 -0.013809995 -0.015174524 -0.062107243 0.043819338 -0.058906943 -0.010071645 -0.020923173
-0.017190654 -0.022145303 0.044958327 0.041148007 0.009740502 -0.0038461958 -0.022425655 -0.010545138
0.010035372 0.039983146 0.018772041 0.05079667 -0.05661679 -0.006080574 0.017322103 -0.024393126
-0.05379172 -0.023888832 -0.0061900862 -0.036887985 -0.045643363 -0.03511388 0.022619046 -0.020397987
0.005197699 -0.04132145 0.021784382 0.06776893 -0.03325288 0.021452105 -0.059485253 -0.03408235
-0.044564236 0.02847131 0.0075590634 -0.014160643 -0.027065907 -0.043133795 -0.022336168 -0.017162083
0.01505831 0.053301796 -0.06923699 0.033961203 -0.0032603464 -0.012041826 -0.0042973785 -0.013849079
00000000: 158f 3abd 5151 24bd 1d6e 14bc 205b ff3c
00000010: 8036 a13c 3fe9 30bc c80a 27bd f1c5 003c
00000020: a586 be3c b666 0ebd 8b63 a43c 37d8 6a3d
00000030: 180f ac3c 4183 493d 9849 b6bc 6865 c23c
00000040: 45f6 edbc 4faf 0ebd 502d 20bd e8ec 1bbb
00000050: 70d8 f3bc 8238 46bd 5d66 d6bc 2273 c6bc
00000060: b4b9 63bd f408 c6bb 29b4 62bc 2e00 d2bc
00000070: 92f6 6d3d 263d 2a3c a0c0 5dbc 2386 debc
00000080: 8f4a 11bd 0d8d 06bc be31 493d 0083 1e3d
00000090: fc1c f8bc 8158 3ebd 7ad4 193d 6637 2ebd
000000a0: bd89 dfbc f78c cabc 6449 993d 41b8 89bc
000000b0: 2bb8 55bd 7d39 0c3d 5c66 31bd 6fc5 67bc
000000c0: 31d5 373d 8c3b dabb 8558 d13c f8c0 06bc
000000d0: 81bf 17bc 4902 403c c15b 913c 797c 76bb
000000e0: da41 9dbc 7877 713c 18a3 993c 0e76 28bd
000000f0: b6e9 95bc da1c 1d3d 689b 7abc 5ef2 4abd
00000100: ddfc 5f3c b6fa 61bd 7298 95bc ca64 643d
00000110: 4b9a 7bbc 62c7 623d 8c07 a83a 4a28 9d3c
00000120: 9a87 18bd 7c9e ff3c df52 243c c2dd 1d3d
00000130: 824c 223d dc49 f33c 93f4 aabc a641 993b
00000140: 47e5 1abd 603b 6a3d 3768 233d 12f8 8bb9
00000150: 10d4 0cbd b519 783c 0b61 973c 2bd8 e13c
00000160: 3d2e 8e3c 00dc 31bd a392 80bd 20de 5c3d
00000170: 9a4e 26bd fb9a 5dbd 159b 6cbc cd81 57bc
00000180: 5e28 c4bc e352 a7bc e339 38bd cee4 6fbc
00000190: c9d7 e2bc 9065 72bd d195 9fbc 1f5a 14bd
000001a0: 6b7e c1bb 2ef5 f23c d557 81bc 52a1 8c3c
000001b0: 6d7e 8c3d 4aab c4bc a06e 1bbd 4306 36bd
000001c0: bffa d93c 6d7a f8bc 52d7 9eb9 dba7 3abd
000001d0: 0678 5e3d cbd9 19bd ae28 10bd 50f8 72bc
000001e0: 0829 293d c817 e1bb 44ca 56b8 98c1 023d
000001f0: 612b 5a3c f2f5 61bd 9808 ecbc a774 b4bc
00000200: ca87 5fbc 5915 a8bc fc69 db3b 7329 0dbc
00000210: 2865 0a3d 4a50 a93c f019 3ebd 8cf3 173c
00000220: a2de aabc c64b bf3c a09c 1bbd decc a33c
00000230: 3982 65bd 5865 bf3c a2b1 46bc c5df 19bc
00000240: cd25 72bd 3507 9bbb 1f77 ac3b c371 b03c
00000250: c948 ee3c cb31 4bbc cc9b 2a3c 837b 353c
00000260: 9c39 7b3a 36c0 9a3b 619b 13bd 2e63 a3bc
00000270: d6e3 c73c 2f51 f3bc 977f 19bd 6eab a53c
00000280: 8f7f f4bc de2c bc3c 861b 83bc 42b7 9fbc
00000290: 252e 5ebd d7de 0f3d 793c 8fbd 890b bebc
000002a0: 2e85 483d dae5 20bd e723 753b e096 d13c
000002b0: 910e 37bd f702 d0bb 2f10 e03c 92d9 0a3d
000002c0: 6a8b 56bc 2a82 5fbd 2e61 49bd 8133 043d
000002d0: b208 493d 41c5 0ebd 0cc6 823d fcc4 183d
000002e0: 3ca9 363c 8290 a13b ddba 99bc ed11 3d3d
000002f0: 2304 563d 65ce 463d f3e7 7ebd fa30 10bd
00000300: 0af6 03bd 7046 1cbd c2b9 81bc 16b6 783c
00000310: 245a b73c 68e0 08bd aeb2 dbbc e466 50bb
00000320: 48eb 31bd 5143 62bc 919e 78bc 2a64 7ebd
00000330: e87b 333d 6848 71bd 8a03 25bc 1367 abbc
00000340: 6ad3 8cbc 116a b5bc 3926 383d d08a 283d
00000350: a096 1f3c 7510 7cbb 02b6 b7bc 84c5 2cbc
00000360: 676b 243c 5ec5 233d d3c7 993c 2b10 503d
00000370: 02e7 67bd 8d3f c7bb 15e7 8d3c 18d4 c7bc
00000380: b554 5cbd 83b2 c3bc 35d6 cabb db17 17bd
00000390: 89f4 3abd 92d3 0fbd 944b b93c ae19 a7bc
000003a0: 7651 aa3b ae40 29bd 2975 b23c 70ca 8a3d
000003b0: 2c34 08bd 53bc af3c cfa6 73bd ef99 0bbd
000003c0: fd88 36bd aa3c e93c 05b2 f73b 0b02 68bc
000003d0: 52b9 ddbc 10ad 30bd 57fa b6bc 7f97 8cbc
000003e0: 21b7 763c fc52 5a3d 1fcc 8dbd e71a 0b3d
000003f0: 89ab 55bb 144b 45bc 06d1 8cbb 3fe7 62bc

tcn.4.bias f4 [64]
0.032132857 0.020524705 -0.006213206 0.0344459 -0.013346484 0.008353479 -0.044070944 0.0060445056
-0.040455524 0.029923832 -0.04880957 0.0031223744 -0.027981844 -0.022996798 -0.006465053 -0.013734108
0.026468214 0.02917706 -0.040665727 0.023983441 -0.043900024 -0.048745353 -0.038677257 0.032828633
0.006661075 0.036556 0.009351693 0.060139548 0.03188312 -0.037536297 -0.004329152 -0.034546394
-0.017370777 -0.055719297 -0.038686354 0.041388128 0.052055612 0.042508766 -0.027033735 -0.05145072
0.004740243 -0.034496803 -0.05685727 0.031157564 -0.044692118 -0.06664513 -0.046269182 -0.04557633
0.023159642 -0.02104471 0.04408184 -0.026543722 -0.00611181 -0.015379626 0.042033896 0.02498137
-0.042592824 -0.045448888 0.017507559 0.009280526 0.039992403 0.0002293743 -0.008012737 0.039843865
00000000: be9d 033d 6d23 a83c 2698 cbbb 2517 0d3d
00000010: 36ab 5abc 08dd 083c bc83 34bd fd10 c63b
00000020: b1b4 25bd d322 f53c 8bec 47bd c0a0 4c3b
00000030: 2e3a e5bc c863 bcbc ccd8 d3bb 0605 61bc
00000040: ded3 d83c bb04 ef3c 1b91 26bd ec78 c43c
00000050: 83d0 33bd 35a9 47bd 0b6c 1ebd 5177 063d
00000060: 2645 da3b bfbb 153d d837 193c e354 763d
00000070: e097 023d a9bf 19bd 8fdb 8dbb 8580 0dbd
00000080: 294d 8ebc eb39 64bd 9575 1ebd 9986 293d
00000090: 4438 553d ac1d 2e3d da75 ddbc fdbd 52bd
000000a0: 0a54 9b3b 854c 0dbd 2be3 68bd 263e ff3c
000000b0: 150f 37bd 3e7d 88bd c184 3dbd 3fae 3abd
000000c0: 4ab9 bd3c f565 acbc 298f 343d 3872 d9bc
000000d0: 9445 c8bb d4fa 7bbc bc2b 2c3d bba5 cc3c
000000e0: d075 2ebd 9d28 3abd 036c 8f3c 590d 183c
000000f0: 13cf 233d 3284 7039 db47 03bc 5233 233d

tcn.6.weight f4 [64]
1.0187994 0.998825 0.9984262 1.0018636 1.001533 0.9791709 0.9765558 0.98582107
1.0195211 0.98228306 0.97996485 0.9905908 0.98563796 1.0174621 1.0021828 0.99705863
0.9873354 0.9864879 1.0239694 1.0024137 0.9942651 0.9802869 0.99208224 1.0053207
0.9840336 1.0042406 0.99990374 1.0136235 0.9859649 1.0244555 0.9732281 0.989145
1.0095615 1.0174776 1.0036904 1.0135212 1.0068809 0.9854935 0.9955186 0.9913354
0.9815565 0.99736804 0.9879874 1.0088013 0.991056 0.9788846 0.99897575 0.9863106
1.0299433 1.0128623 0.9788634 0.9912092 0.99884933 0.9916965 0.98674655 1.0197247
0.9761328 0.9953477 0.9836081 0.97832936 1.0049069 1.0151424 1.0016688 1.0141879
00000000: 0568 823f ffb2 7f3f dc98 7f3f 113d 803f
00000010: 3c32 803f f2aa 7a3f 90ff 793f c55e 7c3f
00000020: ab7f 823f e776 7b3f fade 7a3f 5c97 7d3f
00000030: c552 7c3f 333c 823f 8747 803f 3c3f 7f3f
00000040: 03c2 7c3f 798a 7c3f 6e11 833f 184f 803f
00000050: 2888 7e3f 15f4 7a3f 1af9 7d3f 59ae 803f
00000060: a0e9 7b3f f58a 803f b1f9 7f3f 6abe 813f
00000070: 3268 7c3f 5c21 833f 7a25 793f 9b38 7d3f
00000080: 5039 813f b53c 823f ed78 803f 10bb 813f
00000090: 79e1 803f 4d49 7c3f 4fda 7e3f 28c8 7d3f
000000a0: 4947 7b3f 8353 7f3f beec 7c3f 6720 813f
000000b0: d9b5 7d3f 2e98 7a3f e0bc 7f3f da7e 7c3f
000000c0: 2fd5 833f 79a5 813f cb96 7a3f e3bf 7d3f
000000d0: 97b4 7f3f d2df 7d3f 6c9b 7c3f 5786 823f
000000e0: d7e3 793f 1bcf 7e3f becd 7b3f cb73 7a3f
000000f0: caa0 803f 30f0 813f af36 803f e9d0 813f

tcn.6.bias f4 [64]
0.009698505 0.013817397 -0.007821029 -0.0149860885 -0.01142143 -0.0013715411 0.0035172831 -0.0067108804
-0.004765383 0.01808497 -0.0057046697 -0.007845108 0.019521829 -0.003423965 -0.019001275 0.005807026
0.019583324 -0.018198457 0.013013842 0.0152461175 0.009191734 0.023969091 -0.009533475 -0.015191253
0.0009822883 0.01313307 -0.0069414275 0.018710082 -0.00030157345 -0.0107043 0.012557221 0.0054382076
-0.015233686 0.0067020254 -0.012038462 -0.011953035 -0.012210672 -0.0028656742 0.013537821 -0.0032112093
0.021308672 0.005225194 0.0032572816 -0.011034731 -0.0038903872 0.010418177 0.014726751 0.0062004915
-0.02977868 -0.0012393504 0.019251755 -0.002058846 -0.015779369 -0.009318888 0.008099006 -0.013612419
0.0066934302 -0.0053089517 -0.0010367703 0.004114898 -0.010699771 0.015986064 -0.021572271 0.0072851167
00000000: 7ae6 1e3c 5d62 623c c623 00bc 3688 75bc
00000010: f320 3bbc 48c5 b3ba 3882 663b f2e6 dbbb
00000020: ee26 9cbb ee26 943c 3dee babb c588 00bc
00000030: 3eec 9f3c 9a64 60bb 90a8 9bbc dd48 be3b
00000040: 356d a03c ee14 95bc 0238 553c daca 793c
00000050: ed98 163c d45a c43c 4b32 1cbc bce4 78bc
00000060: 20c0 803a 172c 573c ea74 e3bb e345 993c
00000070: 811c 9eb9 1761 2fbc cdbc 4d3c fe32 b23b
00000080: b696 79bc aa9c db3b f83c 45bc aad6 43bc
00000090: 450f 48bc 09ce 3bbb bdcd 5d3c 2773 52bb
000000a0: 868f ae3c 1b38 ab3b 1e78 553b 04cb 34bc
000000b0: def5 7ebb 00b1 2a3c 7848 713c 7e2d cb3b
000000c0: 6bf2 f3bc b371 a2ba dbb5 9d3c b4ed 06bb
000000d0: bc43 81bc 40ae 18bc b1b1 043c a006 5fbc
000000e0: 9054 db3b b7f6 adbb 3de4 87ba 44d6 863b
000000f0: 184e 2fbc 35f5 823c 55b8 b0bc fdb7 ee3b

tcn.6.running_mean f4 [64]
0.19098414 0.14553349 0.16621809 0.18422648 0.15579939 0.23290095 0.13910991 0.19866258
0.16750692 0.18652631 0.18920009 0.18511963 0.17640917 0.15179594 0.24937056 0.26583835
0.19900683 0.24338268 0.14072451 0.25463936 0.113277934 0.13313216 0.15020253 0.17074364
0.2058568 0.20203409 0.23729722 0.17572008 0.2521426 0.10433842 0.19324818 0.14868732
0.21415377 0.12027199 0.23049359 0.18107848 0.30043137 0.21420623 0.1494242 0.12840988
0.14493278 0.107391305 0.17958865 0.16931349 0.14800194 0.14808632 0.17792358 0.1271505
0.17421423 0.19024986 0.17478758 0.14062646 0.12889346 0.17156199 0.20568368 0.19790761
0.15218504 0.19189432 0.16754256 0.20777099 0.25369883 0.12747774 0.12621056 0.16886719
00000000: 5991 433e bb06 153e 1335 2a3e dea5 3c3e
00000010: e089 1f3e 967d 6e3e d472 0e3e 346e 4b3e
00000020: ef86 2b3e c100 3f3e abbd 413e 0090 3d3e
00000030: 9ba4 343e 6570 1b3e ff5a 7f3e f71b 883e
00000040: 72c8 4b3e 4f39 793e 161a 103e 1760 823e
00000050: 43fe e73d cc53 083e b1ce 193e 6cd7 2e3e
00000060: 20cc 523e 06e2 4e3e 0bfe 723e f7ef 333e
00000070: d618 813e 62af d53d dae2 453e 7d41 183e
00000080: 204b 5b3e 2951 f63d 8306 6c3e a36c 393e
00000090: 24d2 993e e158 5b3e a802 193e e17d 033e
000000a0: 4269 143e f9ef db3d 16e6 373e 8460 2d3e
000000b0: d28d 173e f1a3 173e 9931 363e be33 023e
000000c0: 3765 323e dcd0 423e 84fb 323e 6200 103e
000000d0: a6fc 033e f2ad 2f3e be9e 523e 4ba8 4a3e
000000e0: 65d6 1b3e f27f 443e 4790 2b3e ebc1 543e
000000f0: d0e4 813e 8689 023e 573d 013e 85eb 2c3e

tcn.6.running_var f4 [64]
0.06970146 0.05672177 0.06337674 0.0869846 0.0675999 0.18041542 0.099489555 0.14954546
0.051103096 0.09851703 0.12383471 0.10246198 0.12493503 0.054597452 0.16109182 0.24992464
0.1659488 0.23756504 0.08419616 0.2597396 0.06660143 0.1105993 0.08740002 0.07414187
0.1570671 0.0725883 0.15638563 0.072914384 0.102006815 0.044161715 0.17118156 0.13015589
0.090681136 0.03900208 0.113036156 0.055716213 0.13024896 0.13564938 0.06919637 0.052500725
0.101199605 0.047782477 0.12001399 0.06144063 0.116529495 0.18432908 0.146131 0.09928011
0.0469052 0.06666273 0.07863926 0.08326143 0.06593521 0.14891838 0.11083498 0.047248844
0.17255929 0.1217501 0.14143746 0.15017013 0.12705283 0.06718663 0.046543896 0.054223187
00000000: a4bf 8e3d 1655 683d aacb 813d fb24 b23d
00000010: d171 8a3d d2be 383e 2ec1 cb3d 7222 193e
00000020: 7b51 513d 4cc3 c93d 0d9d fd3d 96d7 d13d
00000030: f0dd ff3d 94a1 5f3d 41f5 243e 3fec 7f3e
00000040: 7bee 293e 4044 733e 096f ac3d 97fc 843e
00000050: 5566 883d e381 e23d c8fe b23d b1d7 973d
00000060: 33d6 203e 2da9 943d 8e23 203e 2354 953d
00000070: f3e8 d03d eae2 343d 384a 2f3e 9647 053e
00000080: 08b7 b93d a5c0 1f3d 807f e73d af36 643d
00000090: fc5f 053e ace7 0a3e d4b6 8d3d 000b 573d
000000a0: bd41 cf3d 8fb7 433d e5c9 f53d 2ca9 7b3d
000000b0: 04a7 ee3d c3c0 3c3e 5da3 153e 5f53 cb3d
000000c0: ab1f 403d 7886 883d 9f0d a13d f884 aa3d
000000d0: 0a09 873d 0f7e 183e 73fd e23d 0188 413d
000000e0: 62b3 303e 1e58 f93d fbd4 103e 33c6 193e
000000f0: 231a 023e 2599 893d d0a4 3e3d 2219 5e3d

tcn.8.weight f4 [32, 64, 5]
0.015488246 -0.03355489 -0.017174756 -0.019878028 0.00847948 0.037917424 -0.036357902 0.031625636
-0.03692188 0.022759981 0.0020789742 -0.045307104 0.03781535 0.010604598 -0.021804111 0.020453328
0.01645281 -0.011422131 0.032189563 0.026753115 -0.02404683 -0.043829862 -0.0035077597 -0.008591532
-0.015847009 -0.049963195 0.005123554 -0.02250792 0.0384701 -0.010257699 -0.008411656 -0.04557847
-0.029541738 0.014961413 -0.042499494 0.030974349 0.0063561834 -0.036396205 -0.005651971 0.028914114
-0.055630345 -0.023038507 0.024248127 -0.019962322 0.038794134 0.0044405293 -0.03207527 -0.0026584594
-0.007157168 -0.0012902098 -0.003978947 -0.012990211 -0.0460275 0.014441349 -0.02463952 -0.013995117
-0.004271477 0.033784743 0.045585595 0.013535068 0.028834157 0.0025339539 -0.020938726 -0.022154178
0.03570782 -0.028582206 0.025521347 -0.048026696 0.0248622 0.03190591 0.015131192 -0.034676675
0.003995862 0.03534193 0.015978543 -0.048455406 0.0032776343 0.06061677 -0.0025995085 -0.0025848194
-0.053323254 -0.049450014 -0.005873696 0.034216523 -0.017708467 0.041112076 0.03687714 -0.02488954
-0.019213706 0.0046471804 0.07037247 -0.026160453 -0.036667332 -0.03720045 0.034300353 -0.039052654
0.036646247 -0.0011141573 -0.06371575 -0.044374917 0.064014345 -0.014380837 0.0008925669 -0.011329493
0.031845607 0.025902538 -0.02944941 0.015423028 -0.008044586 0.012223595 0.0005750377 -0.010140297
-0.0023550768 0.030676626 0.043147728 -0.025566027 0.011822429 -0.015425578 0.044532113 0.021606093
-0.0018966328 0.018738046 0.027515033 0.01803479 -0.0043589207 0.009444305 -0.0331967 -0.047011737
-0.048787493 0.016983746 0.027350936 -0.007838079 0.007269632 0.060448743 0.016925389 0.042685453
-0.046025857 -0.033018295 -0.0008783557 0.010002369 0.03547764 -0.04134184 0.017175583 -0.034623645
-0.009308214 0.0015893881 -0.006067662 0.0119480025 -0.020934869 -0.030806301 0.011706519 0.031211708
0.007616868 -0.005587255 -0.017576823 -0.010807399 0.02669446 0.023255097 0.009818132 -0.0131592555
-0.027035367 0.01715916 0.021279328 -0.011049661 -0.013655449 0.07283164 -0.046511527 0.009394521
0.034956153 -0.031116026 -0.06528364 -0.0101324245 -0.006485342 -0.01661927 -0.029780768 0.04842466
-0.010672852 0.00739045 0.020929867 -0.030997718 -0.054598365 -0.041364882 0.030701308 0.03493105
-0.0096783275 -0.024376633 -0.008276309 0.01268652 0.020201266 -0.011691835 0.04345732 -0.035626177
-0.028535163 -0.020249607 0.011618908 0.02796586 0.008188855 -0.0078047384 -0.00088742736 -0.04019806
0.04034203 0.02964263 -0.0148272095 -0.015155728 0.02872408 -0.0043348027 -0.01595091 -0.029298851
0.036848523 0.012395827 -0.028705537 0.0050217216 -0.01753985 -0.010427745 -0.022582086 0.004640012
0.01206073 -0.023798317 0.023924248 -0.017936502 0.022312809 -0.0065030367 0.020728603 -0.0070314375
-0.03849483 -0.05170717 0.015462687 0.02170501 0.0035596362 -0.026131118 -0.04219461 0.015522168
0.043090988 -0.043817174 -0.014712569 -0.044388156 -0.0017674278 0.04917872 0.0020000434 -0.010048497
0.017553374 -0.00665233 -0.03399858 -0.0151823135 0.00018024062 -0.06971402 0.009321194 0.010802899
0.048606582 0.00034408105 0.051668383 0.031084348 -0.015158597 -0.025616076 -0.010474406 0.04720886
00000000: 6ac2 7d3c da70 09bd 13b2 8cbc 3fd7 a2bc
00000010: 84ed 0a3c 4d4f 1b3d 06ec 14bd e289 013d
00000020: 663b 17bd 2473 ba3c 663f 083b f193 39bd
00000030: 45e4 1a3d e8be 2d3c 899e b2bc bd8d a73c
00000040: 0bc8 863c e423 3bbc 34d9 033d 5929 db3c
00000050: dcfd c4bc f186 33bd 71e2 65bb 7fc3 0cbc
00000060: 96d1 81bc 35a6 4cbd 7ce3 a73b 8862 b8bc
00000070: d392 1d3d e80f 28bc 0bd1 09bc 7db0 3abd
00000080: 8401 f2bc b720 753c f313 2ebd ebbd fd3c
00000090: 8847 d03b 3014 15bd 2b34 b9bb 4bdd ec3c
000000a0: a5dc 63bd 40bb bcbc 02a4 c63c 0688 a3bc
000000b0: 99e6 1e3d dc81 913b 5c61 03bd 8c39 2ebb
000000c0: ad86 eabb 421c a9ba d461 82bb e5d4 54bc
000000d0: 5587 3cbd 689b 6c3c d2d8 c9bc c64b 65bc
000000e0: bff7 8bbb df61 0a3d f6b7 3a3d 31c2 5d3c
000000f0: 9c35 ec3c b110 263b b187 abbc ae7c b5bc
00000100: 5d42 123d 3b25 eabc 2512 d13c a4b7 44bd
00000110: d0ab cb3c c5af 023d d2e8 773c 2109 0ebd
00000120: b8ef 823b b3c2 103d 6fe5 823c 2d79 46bd
00000130: 94cd 563b 4a49 783d 845c 2abb 1366 29bb
00000140: 7c69 5abd 198c 4abd 2278 c0bb a026 0c3d
00000150: 5911 91bc 2365 283d 7c0c 173d 26e5 cbbc
00000160: 1066 9dbc 6047 983b 711f 903d 724e d6bc
00000170: 7c30 16bd 805f 18bd 877e 0c3d adf5 1fbd
00000180: 601a 163d ea08 92ba 677d 82bd 79c2 35bd
00000190: f419 833d 9a9d 6bbc 27fb 693a 569f 39bc
000001a0: 8a70 023d 8f31 d43c e43f f1bc deb0 7c3c
000001b0: 70cd 03bc 7945 483c 20be 163a 7d23 26bc
000001c0: a257 1abb 8c4d fb3c acbb 303d d86f d1bc
000001d0: dcb2 413c 90bb 7cbc 4e67 363d 43ff b03c
000001e0: 7098 f8ba 8880 993c 3567 e13c b2bd 933c
000001f0: 47d5 8ebb 49bc 1a3c 43f9 07bd 618f 40bd
00000200: 65d5 47bd 7f21 8b3c 120f e03c 496b 00bc
00000210: 1836 ee3b 1a99 773d 1da7 8a3c f1d6 2e3d
00000220: 9c85 3cbd 313e 07bd 7441 66ba fae0 233c
00000230: 0051 113d 1056 29bd cfb3 8c3c 86d1 0dbd
00000240: 7b81 18bc 0453 d03a 3dd3 c6bb 8ec1 433c
00000250: 9a7f abbc 7f5d fcbc b3cc 3f3c b2af ff3c
00000260: eb96 f93b 4b15 b7bb 45fd 8fbc 8411 31bc
00000270: 57ae da3c 7981 be3c 3bdc 203c eb99 57bc
00000280: 4679 ddbc 5e91 8c3c fc51 ae3c a309 35bc
00000290: 1bbb 5fbc c128 953d df82 3ebd 7aeb 193c
000002a0: 2f2e 0f3d 09e7 febc 6eb3 85bd 7802 26bc
000002b0: fe82 d4bb 2325 88bc ccf6 f3bc f058 463d
000002c0: 30dd 2ebc 972b f23b 1d75 ab3c edee fdbc
000002d0: 89a2 5fbd 396e 29bd 4f81 fb3c dc13 0f3d
000002e0: d991 1ebc 81b1 c7bc 5b99 07bc 1fdb 4f3c
000002f0: 207d a53c 1c8f 3fbc 4e00 323d c1ec 11bd
00000300: 93c2 e9bc 81e2 a5bc 3b5d 3e3c a918 e53c
00000310: 8c2a 063c e4be ffbb 3ea2 68ba b9a6 24bd
00000320: af3d 253d 1ad5 f23c d3ed 72bc bb4f 78bc
00000330: c34e eb3c f60a 8ebb 7cab 82bc 2504 f0bc
00000340: 7aee 163d de17 4b3c e027 ebbc 418d a43b
00000350: bbaf 8fbc 22d9 2abc 11fe b8bc 3e0b 983b
00000360: 5e9a 453c b0f4 c2bc c9fc c33c 92ef 92bc
00000370: 5ac9 b63c 6d17 d5bb 08cf a93c f967 e6bb
00000380: c1ac 1dbd e6ca 53bd 3657 7d3c b5ce b13c
00000390: c948 693b ed10 d6bc 41d4 2cbd b150 7e3c
000003a0: 2d80 303d a379 33bd fd0c 71bc 5bd0 35bd
000003b0: 09a9 e7ba a06f 493d 2913 033b 73a2 24bc
000003c0: 18cc 8f3c cafb d9bb 1842 0bbd 3dbf 78bc
000003d0: f9fe 3c39 39c6 8ebd ecb7 183c a4fe 303c
000003e0: b217 473d c765 b439 3aa2 533d 9aa4 fe3c
000003f0: c45b 78bc ced8 d1bc d89c 2bbc 145e 413d

tcn.8.bias f4 [32]
0.03292179 -0.028803984 -0.04216632 0.048711378 -0.01130391 -0.009745002 0.01263697 0.033993296
-0.016892333 -0.007457073 -0.052815262 0.04953193 -0.05845658 0.01148505 0.049607225 0.045974016
0.026684036 -0.03078452 0.013738911 0.0472562 -0.05040919 0.019881342 0.026191505 0.0053179846
0.042596817 -0.0003477871 -0.03679147 -0.038835388 -0.014750316 0.060184352 -0.026642026 0.061330914
00000000: 00d9 063d 55f6 ebbc 97b6 2cbd 9585 473d
00000010: 0934 39bc 80a9 1fbc 4b0b 4f3c 8e3c 0b3d
00000020: ca61 8abc 765a f4bb d154 58bd fee1 4a3d
00000030: 2b70 6fbd cb2b 3c3c f230 4b3d 404f 3c3d
00000040: 7b98 da3c d12f fcbc 2b19 613c b88f 413d
00000050: de79 4ebd 32de a23c 918f d63c 7d42 ae3b
00000060: 007a 2e3d 3257 b6b9 a7b2 16bd db11 1fbd
00000070: 4fab 71bc de83 763d 6140 dabc 2036 7b3d

tcn.10.weight f4 [32]
1.0077349 1.0251132 0.99509585 1.008835 1.0028449 1.0179904 0.98754513 1.0081593
1.0070149 1.0088512 1.0041957 1.0268741 0.9972284 1.0094931 1.0061483 1.0048053
1.0084598 1.0020528 0.9996472 1.014926 0.9976968 0.9854764 1.0035276 1.0106827
1.0004302 1.0099232 0.99159175 1.0155097 1.0096688 0.9877586 0.99694765 1.0032645
00000000: 75fd 803f e936 833f 9abe 7e3f 8121 813f
00000010: 395d 803f 824d 823f c2cf 7c3f 5d0b 813f
00000020: dde5 803f 0922 813f 7c89 803f 9c70 833f
00000030: 5c4a 7f3f 1237 813f 78c9 803f 769d 803f
00000040: 3615 813f 4443 803f e1e8 7f3f 18e9 813f
00000050: 0f69 7f3f 2e48 7c3f 9873 803f 0d5e 813f
00000060: 190e 803f 2a45 813f f5d8 7d3f 39fc 813f
00000070: d43c 813f bfdd 7c3f f637 7f3f f96a 803f

tcn.10.bias f4 [32]
0.014363815 -0.023082262 0.012433551 -0.014120757 0.013307818 0.014639633 0.012987608 0.02179408
-0.0145482505 -0.012443349 0.016907811 0.021368647 0.001456728 -0.016565122 -0.010324471 -0.013118179
-0.009319398 -0.012764994 0.015445272 -0.019273004 0.01057706 0.0100774 0.008720871 -0.014480773
-0.011282907 -0.014365915 0.014779668 -0.016522167 0.009222587 0.012621858 -0.011123663 0.012346686
00000000: 3556 6b3c 0317 bdbc 18b6 4b3c bf5a 67bc
00000010: 0909 5a3c 12db 6f3c fac9 543c 8089 b23c
00000020: c95b 6ebc 30df 4bbc 4082 8a3c 4d0d af3c
00000030: aeef be3a 94b3 87bc f827 29bc a1ed 56bc
00000040: 63b0 18bc 4424 51bc 2b0e 7d3c 6be2 9dbc
00000050: 684b 2d3c ae1b 253c fce1 0e3c c440 6dbc
00000060: f1db 38bc 045f 6bbc 6c26 723c 7f59 87bc
00000070: 551a 173c e9cb 4e3c 0640 36bc c149 4a3c

tcn.10.running_mean f4 [32]
0.1567319 0.23467948 0.116719946 0.25760102 0.12875637 0.12811835 0.1762822 0.1558583
0.19119847 0.22202612 0.0915354 0.15811259 0.18672353 0.28329417 0.25280693 0.26928926
0.20445223 0.17542818 0.15497983 0.24478668 0.14401418 0.22320858 0.18355075 0.21350734
0.28891382 0.23509943 0.14582708 0.25350037 0.14973211 0.18464445 0.18940163 0.21338022
00000000: 547e 203e d14f 703e de0a ef3d 48e4 833e
00000010: b6d8 033e 7531 033e 5283 343e 5199 1f3e
00000020: 88c9 433e d15a 633e e976 bb3d 44e8 213e
00000030: 7434 3f3e ef0b 913e e96f 813e 48e0 893e
00000040: ed5b 513e 72a3 333e 08b3 1e3e 5ca9 7a3e
00000050: 7478 133e ca90 643e baf4 3b3e aba1 5a3e
00000060: 83ec 933e e8bd 703e b253 153e cdca 813e
00000070: 6053 193e 6f13 3d3e 80f2 413e 5880 5a3e

tcn.10.running_var f4 [32]
0.0745531 0.07372312 0.05314225 0.14961779 0.05346443 0.051703192 0.14238867 0.054216556
0.079672396 0.082878254 0.043550212 0.055251695 0.21259828 0.11270552 0.11994535 0.12438634
0.08245239 0.16990185 0.058465127 0.15982896 0.06240405 0.2766342 0.08608019 0.088958375
0.12284346 0.10672151 0.07254477 0.098018505 0.05455914 0.10471257 0.12626879 0.1486572
00000000: 4caf 983d 26fc 963d b0ab 593d 6835 193e
00000010: 85fd 5a3d bac6 533d 56ce 113e 2e12 5e3d
00000020: 482b a33d 13bc a93d b561 323d 9a4f 623d
00000030: 5db3 593e 27d2 e63d e8a5 f53d 44be fe3d
00000040: ccdc a83d c0fa 2d3e 2179 6f3d 34aa 233e
00000050: 649b 7f3d ffa2 8d3e d04a b03d cf2f b63d
00000060: 5a95 fb3d cf90 da3d 5a92 943d edbd c83d
00000070: 6879 5f3d 8b73 d63d 9b4c 013e 9839 183e

fc.weight f4 [1, 32]
-0.13201256 0.058428388 -0.12595911 0.101854175 -0.04359833 -0.18063416 -0.008619016 -0.12534118
0.077342615 0.18325695 -0.1472106 -0.115988694 0.010740336 0.039438255 0.07002106 0.06887002
0.016928185 0.10658791 -0.03462482 0.13140887 -0.09505974 -0.05365554 -0.10148567 0.18690638
0.018393213 0.02449679 -0.15505375 0.15508297 -0.12355805 -0.12862587 0.0040014056 -0.15679678
00000000: 4d2e 07be 9b52 6f3d 6dfb 00be ec98 d03d
00000010: 2a94 32bd 29f8 38be c636 0dbc 7059 00be
00000020: ce65 9e3d b6a7 3b3e 60be 16be 7b8b edbd
00000030: 3cf8 2f3c 028a 213d 3467 8f3d ba0b 8d3d
00000040: faac 8a3c c34a da3d c1d2 0dbd 0c90 063e
00000050: aeae c2bd e9c5 5bbd b8d7 cfbd 6364 3f3e
00000060: 5dad 963c 7ead c83c 69c6 1ebe 12ce 1e3e
00000070: 010c fdbd 80b6 03be 391e 833b 568f 20be
