MixedData/tcn_model.pth (torch, 422806 bytes, 21 tensors)

layers.0.0.weight f4 [128, 6, 3]
0.19241703 0.19007486 -0.031578947 0.3492472 -0.056031384 0.06761155 -0.08476727 0.15200567
0.18804207 -0.05452632 0.16832949 0.05554302 0.13116586 0.091110855 0.10217077 -0.04570175
0.1622877 0.04276803 -0.0647355 0.09445666 -0.07172789 -0.03534815 -0.0745621 0.14923008
-0.21599667 -0.09804383 -0.05649979 -0.10122329 -0.0089573655 -0.18801425 0.25935838 -0.18934129
0.15039904 0.11775773 -0.10702724 0.18309848 0.04285795 0.15177841 -0.0014312575 -0.05087554
0.039602477 -0.06642067 0.06459997 0.24365512 0.20987846 -0.12886037 0.13603187 -0.022446008
0.2544752 -0.08125382 -0.17253278 -0.09787645 -0.13845299 0.16780044 0.05131589 0.06673244
0.041381292 -0.028904272 0.15729098 -0.19013543 0.04039958 -0.11970375 0.10941433 -0.062626526
0.0331933 -0.04858455 0.28233984 -0.11962252 -0.08154154 -0.16730127 0.2081806 0.076170236
0.28788707 -0.12815525 -0.16221508 -0.22917657 -0.08309226 0.1850712 0.065082386 0.21576643
-0.04912636 -0.12347173 0.16961268 -0.12165762 0.02783887 -0.03848695 0.21801977 -0.2157557
-0.09816191 0.12519859 0.07250054 0.008685124 0.2046995 0.07412269 -0.077653155 -0.008308221
0.18547456 -0.11463957 -0.10232733 -0.30340788 -0.14981444 -0.0008635719 -0.06424342 -0.18981354
-0.015228764 -0.16939902 -0.21155898 -0.1462363 -0.22359589 -0.11460009 0.25154257 0.035293575
0.09141088 -0.19249643 -0.17608073 -0.07692365 0.052057497 -0.22372463 -0.08134573 -0.0734154
-0.051108375 -0.077129476 0.040747058 -0.15806389 -0.1498806 -0.094440594 -0.02978886 -0.1969964
0.18050684 0.024625428 0.17780142 0.04528874 -0.23540875 0.19056393 -0.017542776 -0.13966672
-0.16800046 -0.2198551 -0.002189067 -0.015422798 0.116759874 -0.22962287 0.21782206 -0.17136826
-0.008195253 0.083500884 0.15915583 0.11256695 0.24142183 -0.14611694 0.12652133 -0.08241106
0.0102727795 -0.22851804 0.1908604 -0.10763477 0.12661883 0.09072226 0.08097059 -0.085345745
0.19936742 0.12750973 0.032982536 -0.16757558 0.11145468 -0.0048153605 -0.08071618 0.20805989
0.057948127 -0.08861858 -0.12436233 0.006787513 0.09476322 -0.038698055 -0.21800819 -0.044777967
-0.17415284 0.12698044 0.15513194 -0.21069323 0.015273399 0.08856322 0.0013487973 -0.0016904884
0.08721706 0.07684402 0.17133938 -0.03914505 -0.03844839 0.062101647 -0.030709898 0.0066979392
0.20941758 0.2126076 0.0019614478 -0.08839003 0.021388164 0.06743857 0.07826398 0.060514845
-0.22425976 -0.03424861 0.18775006 0.07810085 0.070460126 -0.16360559 -0.102713846 -0.24704614
-0.0646318 0.068224415 0.15701696 0.034022205 -0.18060009 -0.14687487 -0.01691229 0.21782154
-0.047801375 -0.048299894 0.10449258 -0.021264916 -0.12506986 0.18508634 -0.04673223 -0.047589242
-0.22950229 0.14643303 0.16414057 0.0455082 -0.18570024 -0.24209721 -0.18959342 0.24570958
0.10961314 0.15710527 0.12814909 0.093086936 0.03303743 -0.17419922 -0.21902667 -0.23158623
0.07631084 -0.13096605 -0.08929659 -0.1204895 -0.017330712 -0.24797033 -0.11688162 0.06912779
-0.12532377 0.1743975 -0.05270642 -0.2652474 -0.14872457 -0.07782601 -0.046113648 -0.29129684
00000000: f808 453e fca2 423e ed58 01bd 87d0 b23e
00000010: 2a81 65bd ed77 8a3d 769a adbd 60a7 1b3e
00000020: 1a8e 403e fe56 5fbd 915e 2c3e 1481 633d
00000030: 5850 063e 5498 ba3d e93e d13d c231 3bbd
00000040: bf2e 263e 882d 2f3d 0c94 84bd 7e72 c13d
00000050: 12e6 92bd 39c9 10bd 04b4 98bd c5cf 183e
00000060: 3b2e 5dbe 34cb c8bd 536c 67bd 284e cfbd
00000070: eac1 12bc cf86 40be 9fca 843e afe2 41be
00000080: 3502 1a3e f72a f13d 1931 dbbd 2b7e 3b3e
00000090: d18b 2f3d cd6b 1b3e 0899 bbba df62 50bd
000000a0: 3536 223d 8f07 88bd fd4c 843d ba80 793e
000000b0: 61ea 563e f9f3 03be f04b 0b3e b1e0 b7bc
000000c0: 934a 823e 6768 a6bd 6fac 30be 7373 c8bd
000000d0: 9fc6 0dbe e1d3 2b3e 9c30 523d 04ab 883d
000000e0: 6e7f 293d a7c8 ecbc e310 213e ddb2 42be
000000f0: 087a 253d 3d27 f5bd 9f14 e03d 5642 80bd
00000100: b3f5 073d 9800 47bd d98e 903e a7fc f4bd
00000110: 40ff a6bd 0651 2bbe 4c2d 553e 24ff 9b3d
00000120: ef65 933e 213b 03be b61b 26be 43ad 6abe
00000130: 462c aabd 4e83 3d3e ea49 853d e0f1 5c3e
00000140: b938 49bd bfde fcbd f2ae 2d3e a127 f9bd
00000150: 580e e43c 7ea4 1dbd 9340 5f3e 10ef 5cbe
00000160: 1d09 c9bd 0f34 003e 2a7b 943d 0d4c 0e3c
00000170: bf9c 513e a3cd 973d 9e08 9fbd 341f 08bc
00000180: 0bed 3d3e 27c8 eabd fe90 d1bd 4758 9bbe
00000190: f568 19be 5461 62ba 0e92 83bd 7b5e 42be
000001a0: 1182 79bc f076 2dbe eba2 58be f8be 15be
000001b0: 52f6 64be 74b3 eabd 30ca 803e ff8f 103d
000001c0: a135 bb3d c91d 45be 824e 34be 268a 9dbd
000001d0: 3e3a 553d 1218 65be 9798 a6bd d05a 96bd
000001e0: 0457 51bd 0ff6 9dbd 63e6 263d 80db 21be
000001f0: 4d7a 19be 126a c1bd c407 f4bc 6db9 49be
00000200: c9d6 383e 44bb c93c 9311 363e b080 393d
00000210: fe0e 71be 3123 433e deb5 8fbc cb04 0fbe
00000220: 5008 2cbe b221 61be 7376 0fbb e7af 7cbc
00000230: cd1f ef3d 4222 6bbe bf0c 5f3e 297b 2fbe
00000240: 6245 06bc 8302 ab3d bff9 223e 8089 e63d
00000250: 4937 773e ae9f 15be cf8e 013e 21c7 a8bd
00000260: 294f 283c a200 6abe e970 433e 9e6f dcbd
00000270: 5ea8 013e 98cc b93d e9d3 a53d c0c9 aebd
00000280: f926 4c3e e991 023e b218 073d ef98 2bbe
00000290: 5a42 e43d 2cca 9dbb 864e a5bd a70d 553e
000002a0: 045b 6d3d a87d b5bd adb1 febd c969 de3b
000002b0: 3813 c23d da81 1ebd 8a3d 5fbe 1a69 37bd
000002c0: 1f55 32be 2907 023e e8da 1e3e f7bf 57be
000002d0: 473d 7a3c a260 b53d 21ca b03a 6193 ddba
000002e0: dc9e b23d 6660 9d3d 9773 2f3e 8f56 20bd
000002f0: 0f7c 1dbd 4c5e 7e3d 5393 fbbc 637a db3b
00000300: 9071 563e cfb5 593e a28b 003b d505 b5bd
00000310: 3b36 af3c 3c1d 8a3d de48 a03d 6ade 773d
00000320: 5aa4 65be 4548 0cbd 8d41 403e 57f3 9f3d
00000330: 664d 903d 3988 27be a35b d2bd aaf9 7cbe
00000340: ad5d 84bd 3eb9 8b3d 0ec9 203e de5a 0b3d
00000350: 3bef 38be 5e66 16be a58b 8abc 9c0c 5f3e
00000360: 60cb 43bd 1cd6 45bd 3500 d63d c333 aebc
00000370: 5012 00be 4687 3d3e 4b6a 3fbd f0ec 42bd
00000380: a602 6bbe 8af2 153e 7714 283e ce66 3a3d
00000390: 3428 3ebe 55e8 77be c724 42be 4b9b 7b3e
000003a0: db7c e03d 34e0 203e 8439 033e 5da4 be3d
000003b0: 4252 073d 4861 32be 8748 60be f124 6dbe
000003c0: dc48 9c3d f71b 06be 21e1 b6bd 33c3 f6bd
000003d0: 23f9 8dbc efeb 7dbe a15f efbd df92 8d3d
000003e0: e054 00be 4295 323e b0e2 57bd 82ce 87be
000003f0: 414b 18be 3e63 9fbd aae1 3cbd dc24 95be

layers.0.0.bias f4 [128]
0.025594912 -0.21018018 -0.22258067 -0.21429193 -0.058037616 0.20994456 0.09182412 -0.025710486
0.055716097 0.08050846 -0.015095432 -0.21649814 -0.14647835 -0.16146107 -0.019058295 -0.20758963
-0.039837096 -0.079648614 0.22700775 0.19815351 0.1331091 0.009313526 -0.081148356 0.062180735
-0.16521634 -0.09601514 -0.04488578 -0.05342404 -0.23129699 0.093228 0.17561142 -0.12977481
0.05639851 -0.030643634 0.012596293 0.019156767 0.20641993 0.03128208 -0.1487134 -0.09095024
0.113523 0.08679765 0.01546884 -0.023927875 -0.0863407 -0.081284896 -0.12615904 0.050936997
0.062028363 0.21424511 -0.057281394 0.019833347 0.15547793 0.099485815 0.027258983 0.065427214
0.019382868 -0.18952015 0.014359923 -0.05293484 0.2122072 0.2033239 0.050525527 0.20335981
-0.14264776 0.22774233 0.20108835 -0.024273615 -0.1829605 -0.06322899 -0.062678985 -0.0030457855
-0.2140661 0.05222549 -0.10506973 -0.07980426 -0.12401725 -0.051462434 -0.22511044 -0.13522959
0.01986902 0.14027779 0.18187569 -0.18912786 0.11155986 -0.12967226 -0.15765873 -0.010178756
-0.12744711 -0.20127194 -0.22965398 -0.1549301 0.17997235 0.12700032 -0.09289275 -0.15643898
-0.18510471 -0.13904881 -0.09048467 0.13760692 0.073151305 -0.06762202 0.1706208 -0.1536713
-0.17950872 0.049666613 -0.1305407 0.061799284 0.19570483 -0.105646655 -0.15437979 0.09172407
-0.20824344 0.21615024 -0.108179435 0.1302498 -0.19120668 -0.15694246 0.015958145 0.092241764
0.1960307 0.2091496 -0.01732753 -0.032522064 0.032139923 -0.046104286 0.0067247474 -0.2254656
00000000: 6cac d13c 7939 57be 30ec 63be 586f 5bbe
00000010: dab8 6dbd b5fb 563e 490e bc3d cc9e d2bc
00000020: 9036 643d 9fe1 a43d d552 77bc b0b1 5dbe
00000030: 6cfe 15be 0d56 25be 2420 9cbc 6092 54be
00000040: 392c 23bd d01e a3bd b874 683e c1e8 4a3e
00000050: c04d 083e c297 183c 1c31 a6bd 3ab1 7e3d
00000060: 792e 29be 96a3 c4bd 27da 37bd 2bd3 5abd
00000070: 1ed9 6cbe 52ee be3d 7bd3 333e b0e3 04be
00000080: 2002 673d 5c08 fbbc af60 4e3c a7ee 9c3c
00000090: bf5f 533e a321 003d 5348 18be 1f44 babd
000000a0: bf7e e83d f7c2 b13d 0471 7d3c 6404 c4bc
000000b0: 65d3 b0bd b278 a6bd d62f 01be 50a3 503d
000000c0: 7411 7e3d 1263 5b3e e59f 6abd 8b79 a23c
000000d0: 9b35 1f3e 38bf cb3d 3b4e df3c b4fe 853d
000000e0: d2c8 9e3c 9211 42be e245 6b3c 34d2 58bd
000000f0: d84c 593e 2434 503e dbf3 4e3d 8e3d 503e
00000100: 4112 12be 4935 693e 1bea 4d3e 76d9 c6bc
00000110: ff59 3bbe 337e 81bd d75d 80bd cd9b 47bb
00000120: 2534 5bbe 65ea 553d cc2e d7bd 6a70 a3bd
00000130: c2fc fdbd 46ca 52bd 5a83 66be a079 0abe
00000140: 5bc4 a23c fba4 0f3e 9f3d 3a3e bcaa 41be
00000150: 7f79 e43d cec8 04be 4a71 21be ccc4 26bc
00000160: 7f81 02be 3b1a 4ebe 6a2a 6bbe ffa5 1ebe
00000170: ac4a 383e 5f0c 023e 8e3e bebd 8a31 20be
00000180: 178c 3dbe d062 0ebe 0750 b9bd d4e8 0c3e
00000190: 5ad0 953d 6a7d 8abd 38b7 2e3e 025c 1dbe
000001a0: 22d1 37be 386f 4b3d 76ac 05be 3f21 7d3d
000001b0: d966 483e 465d d8bd bc15 1ebe d4d9 bb3d
000001c0: c53d 55be 7d56 5d3e 2e8d ddbd 3460 053e
000001d0: afcb 43be 86b5 20be a8ba 823c 40e9 bc3d
000001e0: 46bc 483e 502b 563e 77f2 8dbc db35 05bd
000001f0: 27a5 033d d9d7 3cbd 455b dc3b 74e0 66be

layers.0.1.weight f4 [128]
1.0150528 1.0251184 1.0424302 1.0453771 0.9099684 0.98342085 0.98735076 0.9833895
1.0339919 1.0107251 1.0546403 0.9967782 0.9877727 0.9174326 1.0271608 0.9717252
0.95711744 1.0527494 0.8722643 0.9742903 0.9436076 1.0539896 1.0228463 0.87667555
0.9647911 0.90956855 0.98814756 1.0161059 1.0138184 0.9020233 1.0516946 0.9927783
1.0603882 1.0307435 1.2326789 0.9743646 0.9653641 1.0383657 0.9534354 0.9987707
0.9910767 1.0182393 0.96672815 1.0133361 0.9835059 1.0569452 0.89429826 1.0300155
1.0332004 1.1111915 1.0231036 0.97616214 1.058988 1.0285853 1.0371519 1.0506778
1.0301963 0.9804435 0.9763638 0.9215481 1.0057778 0.96843475 0.9643456 0.85641325
1.0262837 1.0793631 0.9979335 1.0469708 1.0784683 1.0155296 0.9410076 0.9659767
0.9067767 0.9774999 1.0081049 1.0265762 0.9523465 1.0013984 0.9384209 0.96465427
0.94099617 0.89521235 1.0166028 0.9348325 1.0093257 0.95096135 1.0120777 0.82106775
1.0052085 0.9508444 0.9992012 0.9188977 0.98864496 1.0153115 1.0387535 0.95410067
0.9119505 0.81806546 1.030768 0.9860061 0.9880974 1.0009493 1.0070088 1.0043201
0.9183321 0.9401295 1.0378983 0.90262645 1.0057584 1.0540926 1.0432407 1.0822649
0.9639531 1.0273856 0.95657605 1.0339849 1.0439608 1.0081601 1.080653 1.0071313
1.0740299 1.0240055 1.1161906 0.9324347 1.0491021 1.090287 0.95990115 0.9571494
00000000: 40ed 813f 1437 833f 5a6e 853f ebce 853f
00000010: b0f3 683f 78c1 7b3f 05c3 7c3f 6abf 7b3f
00000020: d959 843f 715f 813f 74fe 863f db2c 7f3f
00000030: acde 7c3f dddc 6a3f 017a 833f fcc2 783f
00000040: a605 753f 7ec0 863f b74c 5f3f 176b 793f
00000050: 4590 713f 22e9 863f a1ec 823f cf6d 603f
00000060: 8dfc 763f 7cd9 683f 3df7 7c3f c20f 823f
00000070: cdc4 813f 00eb 663f ee9d 863f b826 7e3f
00000080: cdba 873f 67ef 833f 6cc8 9d3f f56f 793f
00000090: 1a22 773f 2be9 843f 5814 743f 70af 7f3f
000000a0: 34b7 7d3f aa55 823f 7f7b 773f ffb4 813f
000000b0: 0bc7 7b3f fb49 873f bbf0 643f 8cd7 833f
000000c0: e93f 843f 863b 8e3f 0ff5 823f c3e5 793f
000000d0: eb8c 873f afa8 833f 65c1 843f 9c7c 863f
000000e0: 79dd 833f 58fe 7a3f faf2 793f 94ea 6b3f
000000f0: 54bd 803f 57eb 773f 5adf 763f e63d 5b3f
00000100: 445d 833f 9228 8a3f 9278 7f3f 2403 863f
00000110: 400b 8a3f e0fc 813f e0e5 703f 404a 773f
00000120: 8522 683f 6f3d 7a3f 9509 813f d966 833f
00000130: fbcc 733f d32d 803f 5a3c 703f 95f3 763f
00000140: 20e5 703f a32c 653f 0a20 823f 2f51 6f3f
00000150: 9631 813f 3472 733f c38b 813f 7f31 523f
00000160: acaa 803f 8a6a 733f a6cb 7f3f e13c 6b3f
00000170: d617 7d3f baf5 813f e0f5 843f f13f 743f
00000180: 9775 693f bd6c 513f 35f0 833f e56a 7c3f
00000190: f4f3 7c3f 1b1f 803f aae5 803f 908d 803f
000001a0: d017 6b3f 54ac 703f dad9 843f 8712 673f
000001b0: b1bc 803f 82ec 863f e988 853f a887 8a3f
000001c0: a1c5 763f 5f81 833f 2be2 743f 9e59 843f
000001d0: 82a0 853f 640b 813f d652 8a3f aee9 803f
000001e0: d079 893f 9d12 833f 55df 8e3f 0ab4 6e3f
000001f0: fa48 863f 868e 8b3f 15bc 753f be07 753f

layers.0.1.bias f4 [128]
-0.11668947 -0.06936638 -0.024325153 -0.0028041282 -0.14710732 -0.11488253 -0.09014267 -0.046934612
-0.09744618 -0.059392434 -0.056894943 -0.014674472 -0.0559881 -0.08602959 -0.031938918 -0.068915874
-0.14247115 0.0078748735 -0.0869541 -0.037848603 -0.07073873 -0.06614149 -0.07360737 -0.1332479
-0.06931658 -0.115277186 -0.06463871 -0.06422521 -0.049483143 -0.14745326 -0.064161874 -0.06821308
-0.039632916 -0.031812422 -0.0033831757 -0.107305005 -0.14587271 -0.119877614 -0.12457967 -0.10786582
-0.055171825 -0.049730994 -0.15933637 -0.08776196 -0.06896448 -0.06425957 -0.11014707 -0.115931615
-0.01930222 -0.11725708 -0.00058332516 -0.093228325 -0.07516606 -0.08032591 -0.020353042 -0.07094415
-0.07211262 -0.08304014 -0.123082735 -0.032209218 -0.09251299 -0.07730295 -0.0742071 -0.13071465
-0.027782878 -0.035342533 -0.040306304 -0.09212255 -0.11197675 -0.07595557 -0.112022586 -0.0989588
-0.13919964 -0.09835811 -0.1307007 -0.044144128 -0.12819424 -0.024337478 -0.08013449 -0.077725865
-0.084393755 -0.11272767 -0.0014624808 -0.07333785 -0.11817001 -0.078094736 -0.076419696 -0.21754396
-0.019890368 -0.097008936 -0.039222475 -0.11179676 -0.09415276 -0.095263846 -0.051735766 -0.091526926
-0.079252884 -0.20228851 -0.08686545 -0.049983196 -0.07583765 -0.1314974 -0.060490943 -0.09306877
-0.11609886 -0.081093565 -0.059991516 -0.13454527 -0.07429741 0.011046757 -0.11627828 -0.0010128487
-0.095025204 -0.023454037 -0.12204763 -0.09873165 -0.12239038 -0.07626188 -0.08916959 -0.10241321
-0.041082732 -0.1456734 -0.10539263 -0.064272515 -0.011173015 -0.0019531369 -0.06273083 -0.07376586
00000000: e4fa eebd f60f 8ebd 8b45 c7bc 77c5 37bb
00000010: 4da3 16be 8847 ebbd b89c b8bd 823e 40bd
00000020: dd91 c7bd 7b45 73bd ac0a 69bd 326d 70bc
00000030: c753 65bd 4830 b0bd 62d2 02bd c423 8dbd
00000040: f5e3 11be 9d05 013c fe14 b2bd 2307 1bbd
00000050: 78df 90bd 3175 87bd 76bf 96bd 2372 08be
00000060: daf5 8dbd 7216 ecbd 4d61 84bd 8288 83bd
00000070: d6ae 4abd fdfd 16be 4d67 83bd 4db3 8bbd
00000080: 2056 22bd be4d 02bd 45b8 5dbb bac2 dbbd
00000090: a85f 15be 6582 f5bd a023 ffbd c1e8 dcbd
000000a0: dafb 61bd bab2 4bbd 1329 23be 8bbc b3bd
000000b0: 403d 8dbd 859a 83bd c994 e1bd 8e6d edbd
000000c0: b01f 9ebc 7b24 f0bd 4aea 18ba 7eee bebd
000000d0: aaf0 99bd e981 a4bd 6cbb a6bc 2b4b 91bd
000000e0: c8af 93bd f310 aabd cd12 fcbd d0ed 03bd
000000f0: 7377 bdbd 0251 9ebd e4f9 97bd 10da 05be
00000100: eb98 e3bc 55c3 10bd 3918 25bd bfaa bcbd
00000110: 1154 e5bd 988e 9bbd 196c e5bd e9aa cabd
00000120: 5a8a 0ebe fa6f c9bd 68d6 05be 79d0 34bd
00000130: 5a45 03be 645f c7bc 8d1d a4bd bd2e 9fbd
00000140: a2d6 acbd c4dd e6bd b6b0 bfba 2832 96bd
00000150: 1e03 f2bd 22f0 9fbd ee81 9cbd d8c3 5ebe
00000160: 20f1 a2bc 9fac c6bd bfa7 20bd b3f5 e4bd
00000170: 2ad3 c0bd b119 c3bd e2e8 53bd 7872 bbbd
00000180: 564f a2bd b824 4fbe 83e6 b1bd 2ebb 4cbd
00000190: c550 9bbd 41a7 06be 5ac5 77bd d79a bebd
000001a0: 3dc5 edbd 6214 a6bd aab9 75bd 3cc6 09be
000001b0: 3e29 98bd 75fd 343c 4f23 eebd 90c1 84ba
000001c0: 939c c2bd ae22 c0bc 1cf4 f9bd d233 cabd
000001d0: cfa7 fabd 302f 9cbd 8c9e b6bd 04be d1bd
000001e0: 5e46 28bd 682b 15be 17d8 d7bd 4fa1 83bd
000001f0: 060f 37bc 3300 00bb 0579 80bd 8e12 97bd

layers.0.1.running_mean f4 [128]
0.27918085 -0.21129714 -0.1788552 -0.17738578 -0.103322886 0.31272957 0.040049147 0.0499707
0.21658918 0.115030296 0.08371724 -0.16112138 -0.13231651 -0.29579985 -0.22158603 -0.10824138
-0.0060512237 -0.08504419 -0.11048611 0.050729632 0.046084214 0.08653372 -0.061015062 0.066249266
-0.1471469 -0.1672392 0.17816414 0.16093372 -0.21989828 0.16752297 0.2790689 0.07230653
0.0655486 -0.08548833 -0.11016817 0.064077206 0.30169648 0.13255146 -0.17431265 -0.10233021
0.14715433 0.33215255 0.13654386 0.0041987686 -0.15290597 -0.038119722 -0.1451477 0.19980495
0.09752575 0.4145546 0.09678963 0.016401418 0.12419972 0.097243465 0.038921945 0.09035006
-0.017145263 -0.18429291 0.061672766 0.035398934 0.20788619 0.29067135 0.09476905 0.25362825
-0.043805104 0.29530138 0.28490192 0.13669279 -0.010499265 -0.03962009 0.010715104 -0.03246078
-0.26149064 0.1344912 0.16722855 -0.074680775 0.075467564 -0.15592688 -0.3730946 -0.17807959
-0.20483212 0.15032664 0.16593973 -0.1748318 0.28901857 -0.09537043 -0.107170664 0.074149035
-0.07357551 -0.17476797 -0.20539398 -0.059379134 0.21173619 0.20469905 -0.040575422 -0.084685266
-0.1296147 0.12975559 0.03509288 0.17323028 0.04121428 0.08598547 0.25177622 -0.09284779
-0.15650418 0.089028 -0.29663947 0.16589552 0.2072537 -0.30992916 -0.012052497 -0.09865565
-0.115468875 0.080776654 -0.074121326 0.18722479 -0.06486393 -0.07989373 0.09904253 0.26882723
0.24279809 0.21766445 0.19334182 -0.18223399 0.02990169 -0.3367912 0.24457933 -0.13210684
00000000: cbf0 8e3e 475e 58be d125 37be 9ea4 35be
00000010: f39a d3bd 171e a03e 930a 243d 14ae 4c3d
00000020: 8ec9 5d3e 0195 eb3d f273 ab3d 01fd 24be
00000030: fb7d 07be 1473 97be 73e7 62be a8ad ddbd
00000040: 5849 c6bb a62b aebd 8b46 e2bd e0c9 4f3d
00000050: cdc2 3c3d 9738 b13d eeea 79bd b2ad 873d
00000060: adad 16be c140 2bbe a970 363e cfcb 243e
00000070: 042d 61be 248b 2b3e 1ee2 8e3e 7215 943d
00000080: 583e 863d 8114 afbd d99f e1bd e93a 833d
00000090: f677 9a3e 92bb 073e 047f 32be 8092 d1bd
000000a0: a0af 163e e60f aa3e 27d2 0b3e d395 893b
000000b0: 6293 1cbe 6d23 1cbd 99a1 14be ab99 4c3e
000000c0: 95bb c73d 8040 d43e a439 c63d 445c 863c
000000d0: 6c5c fe3d 9527 c73d 9e6c 1f3d 7409 b93d
000000e0: 3974 8cbc 48b7 3cbe 959c 7c3d 79fe 103d
000000f0: 1ee0 543e e0d2 943e 4716 c23d 90db 813e
00000100: fb6c 33bd be31 973e aade 913e 32f9 0b3e
00000110: 1c05 2cbc ad48 22bd 678e 2f3c 98f5 04bd
00000120: 1ae2 85be 10b8 093e f63d 2b3e 3cf2 98bd
00000130: bd8e 9a3d 4cab 1fbe 4106 bfbe 7f5a 36be
00000140: 83bf 51be 3aef 193e 1bec 293e 1b07 33be
00000150: 3efa 933e 9251 c3bd 4b7c dbbd 73db 973d
00000160: c2ae 96bd 60f6 32be cd52 52be 8937 73bd
00000170: 5fd1 583e a19c 513e 6a32 26bd 786f adbd
00000180: b7b9 04be a6de 043e 8dbd 0f3d 4763 313e
00000190: 4ed0 283d 2619 b03d d0e8 803e fb26 bebd
000001a0: a242 20be 5054 b63d 21e1 97be 84e0 293e
000001b0: 503a 543e 09af 9ebe d677 45bc f90b cabd
000001c0: f27a ecbd 3b6e a53d eccc 97bd dbb7 3f3e
000001d0: 61d7 84bd 539f a3bd cfd6 ca3d b9a3 893e
000001e0: 10a0 783e 6ee3 5e3e 66fb 453e 8c9b 3abe
000001f0: 64f4 f43c e56f acbe 0173 7a3e 0447 07be

layers.0.1.running_var f4 [128]
0.034323666 0.007276302 0.008954537 0.0108293 0.015346506 0.016658382 0.0137242405 0.01881406
0.019172087 0.015298226 0.007823011 0.015321975 0.019279135 0.027577318 0.01981236 0.015513898
0.020889368 0.00804029 0.051653787 0.02520679 0.013505933 0.0140189985 0.00949432 0.024960078
0.011873218 0.019180896 0.028733877 0.01818006 0.013599332 0.020599078 0.012057957 0.043337554
0.011047341 0.014364704 0.01405712 0.013995652 0.015777849 0.013104311 0.018985646 0.017142171
0.0100929625 0.024927016 0.016830683 0.0068710684 0.019374587 0.005615388 0.020395951 0.0143121425
0.01160436 0.020427797 0.014708443 0.009359695 0.008543465 0.0074062725 0.014183733 0.008088952
0.010840118 0.01029727 0.0096699605 0.016097482 0.009364358 0.009923941 0.016901422 0.037803564
0.018555889 0.008331396 0.025074719 0.018840749 0.015834445 0.009664846 0.018383864 0.012476524
0.020365963 0.013156149 0.04440992 0.008960494 0.04051278 0.010861573 0.014541705 0.016826084
0.031038895 0.021547385 0.006166468 0.027888125 0.014178877 0.012772634 0.011636556 0.0072772386
0.007127272 0.012157569 0.009537843 0.017704787 0.009911317 0.018228337 0.011998875 0.018804152
0.018779434 0.048174288 0.020916225 0.012986363 0.013243683 0.019308487 0.014830413 0.01626672
0.010523382 0.02247115 0.012474522 0.022023614 0.014692858 0.027998365 0.012076933 0.014320472
0.015533126 0.021444177 0.010335258 0.012601777 0.010197722 0.008464747 0.020846782 0.025469918
0.010185666 0.008192887 0.022253677 0.020227969 0.011198264 0.042589895 0.03978395 0.0208426
00000000: f996 0c3d 0c6e ee3b 0db6 123c 606d 313c
00000010: e96f 7b3c 2977 883c a3db 603c f21f 9a3c
00000020: c80e 9d3c 69a5 7a3c 162c 003c 0509 7b3c
00000030: 47ef 9d3c d4e9 e13c 884d a23c 012e 7e3c
00000040: 2e20 ab3c 6cbb 033c ec92 533d 787e ce3c
00000050: fd47 5d3c f1af 653c 108e 1b3c 1479 cc3c
00000060: e387 423c 4121 9d3c 4f63 eb3c 59ee 943c
00000070: bccf 5e3c 66bf a83c bd8e 453c b882 313d
00000080: e8ff 343c ef59 6b3c d64f 663c 054e 653c
00000090: 8c40 813c 77b3 563c c987 9b3c bd6d 8c3c
000000a0: f45c 253c be33 cc3c 80e0 893c b326 e13b
000000b0: 74b7 9e3c 4a01 b83b 6915 a73c 7a7d 6a3c
000000c0: 3720 3e3c 3258 a73c aefb 703c 6859 193c
000000d0: e4f9 0b3c 51b0 f23b e362 683c 8687 043c
000000e0: c09a 313c e1b5 283c c16e 1e3c dede 833c
000000f0: f76c 193c 0798 223c da74 8a3c e9d7 1a3d
00000100: 8502 983c 6880 083c 7f69 cd3c ea57 9a3c
00000110: 3db7 813c 4d59 1e3c c299 963c 566a 4c3c
00000120: 85d6 a63c e38c 573c 2de7 353d 09cf 123c
00000130: bbf0 253d bdf4 313c 5540 6e3c dbd6 893c
00000140: 4845 fe3c 2484 b03c 1510 ca3b a375 e43c
00000150: 854e 683c 4f44 513c 41a7 3e3c e775 ee3b
00000160: e48b e93b 8a30 473c 9d44 1c3c a109 913c
00000170: 1463 223c 9853 953c ee96 443c 2a0b 9a3c
00000180: 54d7 993c 6752 453d 8158 ab3c c1c4 543c
00000190: 08fc 583c d52c 9e3c 43fb 723c c941 853c
000001a0: 436a 2c3c 6b15 b83c f061 4c3c de6a b43c
000001b0: 50ba 703c d45c e53c 54de 453c 6aa0 6a3c
000001c0: a77e 7e3c b3ab af3c 3755 293c af77 4e3c
000001d0: 5914 273c b9af 0a3c dfc6 aa3c 4aa6 d03c
000001e0: c8e1 263c 753b 063c 584d b63c 20b5 a53c
000001f0: ec78 373c be72 2e3d 7ff4 223d 1abe aa3c

layers.1.0.weight f4 [128, 128, 3]
0.07410625 -0.008220802 0.037693977 -0.056147166 0.010734173 0.046412036 -0.0065325284 0.056702174
0.034378186 -0.01824758 -0.0006690806 0.04504397 -0.026688376 -0.007999966 0.06828646 0.018350992
0.0015417162 0.05402205 -0.022188077 -0.028412683 0.0019167663 0.004232482 0.06434387 0.0053664935
0.05141061 0.054331496 -0.039006863 0.014696144 0.0057983086 -0.02138038 0.08441092 0.005605598
-0.005486766 -0.031405244 0.055096917 0.044167053 -0.053714097 0.08211885 0.024951283 -0.035641417
0.019566592 0.0625652 0.0049852533 -0.03411078 -0.0054098577 -0.00052158994 0.05608991 0.024712894
-0.03649194 0.056723617 0.07680505 -0.0070359022 -0.008690184 -0.0029756643 -0.017255014 0.030203553
0.011241036 -0.028490566 -0.009339589 0.022970032 -0.043433554 -0.04466292 -0.004210246 0.010035791
0.032321762 -0.016829975 0.016407825 -0.001604908 0.029699784 -0.005961241 0.016779972 0.08518974
-0.022583252 -0.026372818 0.027337264 -0.044212542 0.03973163 0.037416097 0.026775608 0.041118376
-0.00026722453 -0.007317599 -0.0036713746 0.027807456 -0.051297802 -0.053987734 0.040215403 0.038916938
0.030037198 -0.012027117 0.0028667492 -0.011356181 0.04332675 0.06170288 0.07785117 -0.0011293074
0.030274786 -0.047282316 0.05447001 -0.041611996 0.045615166 -0.012270628 0.02352807 -0.04234265
0.057967786 0.01770114 0.086810775 -0.024744274 0.06334214 -0.012703573 -0.043387983 0.03383567
0.006170292 -0.02532537 -0.035822727 -0.02180294 0.027120857 0.045636922 0.039457586 0.015047254
-0.0030192246 0.0066914298 0.02523347 0.003667615 0.017796522 -0.05492581 -0.023068834 0.03652598
0.010648455 0.0118203545 0.028105972 0.034636762 -0.047932353 -0.017527249 0.08060433 0.05051898
0.021785835 -0.064696796 -0.052742466 0.017751386 0.0034986113 0.05124321 0.095483504 0.00382414
-0.012966921 0.009287479 0.035111427 0.043686748 0.010842255 -0.0014088893 -0.008199574 0.014675211
0.02039523 -0.014730345 0.047588494 -0.027861902 0.019470435 0.061124276 0.07895244 0.011373683
-0.014433175 0.023310963 -0.040549353 -0.03079178 0.040476736 -0.0045515206 0.010421328 -0.0027055894
-0.013442502 -0.01824084 -0.017335318 -0.00015339156 -0.027313916 0.03107243 -0.02962797 0.08446588
-0.04105988 0.017896723 0.027106345 -0.036978405 0.008181612 0.043888055 -0.00025963428 0.010350105
0.04386815 0.07052604 0.044524137 -0.050061334 -0.033164497 -0.02333783 -0.019113738 0.044607244
-0.0011230401 0.03798499 -0.017714918 -0.0114973765 -0.038101494 -0.026201267 0.0619227 0.034714434
0.015973682 0.0059517496 0.01901838 -0.047781598 0.04196507 0.07478784 0.02885794 -0.0063274647
-0.03475019 0.024607902 0.06936344 -0.018618396 0.008575663 -6.425782e-05 0.038671456 0.06307954
-0.034810815 -0.0530762 0.008074048 -0.03192982 0.02379811 0.044750456 0.03446402 0.024598375
-0.033768207 -0.022696076 -0.03669332 0.05780914 -0.028345035 0.009308684 -0.018126756 -0.061415978
0.020216325 0.076785274 -0.002221855 0.045730863 0.008538309 -0.054855347 -0.056395773 0.07928129
0.0045537706 0.037082464 0.00012206234 -0.029558124 0.05528604 0.00881541 -0.016625755 0.031377446
0.01897411 -0.016101204 0.01687252 0.032756224 0.023756176 -0.010136999 0.0032533843 0.049297947
00000000: 05c5 973d 8bb0 06bc 0065 1a3d 92fa 65bd
00000010: 62de 2f3c 8c1a 3e3d d20e d6bb 8a40 683d
00000020: 24d0 0c3d f37b 95bc 3d65 2fba 0780 383d
00000030: 95a1 dabc 4a12 03bc c6d9 8b3d d254 963c
00000040: 6913 ca3a 3a46 5d3d c5c3 b5bc b7c1 e8bc
00000050: 013c fb3a a2b0 8a3b b8c6 833d 69d9 af3b
00000060: ef93 523d b48a 5e3d a9c5 1fbd 18c8 703c
00000070: bdff bd3b e825 afbc a2df ac3d 2aaf b73b
00000080: 54ca b3bb c9a2 00bd 4ead 613d 83e8 343d
00000090: 5003 5cbd ed2d a83d a266 cc3c bcfc 11bd
000000a0: 1e4a a03c 2f22 803d 565b a33b bfb7 0bbd
000000b0: 2d45 b1bb 4fbb 08ba 89be 653d b272 ca3c
000000c0: 9378 15bd 0657 683d f74b 9d3d 6d8d e6bb
000000d0: 4661 0ebc 5d03 43bb 635a 8dbc 716d f73c
000000e0: 522c 383c 0c65 e9bc 1305 19bc a62b bc3c
000000f0: 62e7 31bd 77f0 36bd 1af6 89bb 296d 243c
00000100: d363 043d 04df 89bc b469 863c c75b d2ba
00000110: f64c f33c 8456 c3bb 2776 893c f577 ae3d
00000120: 8300 b9bc cf0b d8bc 66f2 df3c 3618 35bd
00000130: a2bd 223d 9f41 193d 8558 db3c be6b 283d
00000140: 451a 8cb9 78c8 efbb 729b 70bb 76cc e33c
00000150: a51d 52bd 3e22 5dbd e8b8 243d 5e67 1f3d
00000160: 9210 f63c 630d 45bc 12e0 3b3b 470f 3abc
00000170: 6477 313d 29bc 7c3d 6f70 9f3d 4505 94ba
00000180: d402 f83c 1aab 41bd f21b 5f3d 5771 2abd
00000190: f8d6 3a3d be0a 49bc f0bd c03c 7d6f 2dbd
000001a0: a16f 6d3d fb01 913c d9c9 b13d 81b4 cabc
000001b0: 86b9 813d a622 50bc 99b7 31bd 4697 0a3d
000001c0: 2930 ca3b 2677 cfbc daba 12bd 149c b2bc
000001d0: 8f2c de3c c8ed 3a3d 479e 213d c288 763c
000001e0: 2fde 45bb c843 db3b 6cb6 ce3c 5e5c 703b
000001f0: 03ca 913c e3f9 60bd dafa bcbc 449c 153d
00000200: db76 2e3c 29aa 413c 7f3e e63c 47df 0d3d
00000210: b754 44bd 4e95 8fbc e213 a53d fdec 4e3d
00000220: 3578 b23c c17f 84bd 7c08 58bd 5b6b 913c
00000230: f548 653b 66e4 513d db8c c33d 6c9e 7a3b
00000240: 3573 54bc 832a 183c 00d1 0f3d e0f0 323d
00000250: b7a3 313c 7baa b8ba 8257 06bc 4c70 703c
00000260: e613 a73c 8c57 71bc 27ec 423d a53e e4bc
00000270: 7680 9f3c 735d 7a3d d1b1 a13d af58 3a3c
00000280: 2079 6cbc a2f6 be3c 1417 26bd 0b3f fcbc
00000290: efca 253d ec24 95bb 38be 2a3c 4250 31bb
000002a0: f13d 5cbc d06d 95bc cc02 8ebc bcd7 20b9
000002b0: 6fc1 dfbc 9c8b fe3c 5bb6 f2bc 73fc ac3d
000002c0: 682e 28bd 269c 923c 200e de3c ab76 17bd
000002d0: 2b0c 063c f6c3 333d 861f 88b9 7d93 293c
000002e0: 17af 333d f56f 903d f15e 363d 1d0d 4dbd
000002f0: 7fd7 07bd fa2e bfbc 6a94 9cbc 16b6 363d
00000300: f932 93ba 2696 1b3d e01e 91bc 7e5f 3cbc
00000310: 5010 1cbd 0aa4 d6bc a8a2 7d3d b930 0e3d
00000320: 3ddb 823c e506 c33b 6fcc 9b3c a3b6 43bd
00000330: 91e3 2b3d 5e2a 993d 7d67 ec3c 9f56 cfbb
00000340: 3756 0ebd 8396 c93c 6b0e 8e3d 9b85 98bc
00000350: f080 0c3c 28c2 86b8 f665 1e3d d92f 813d
00000360: c995 0ebd 6e66 59bd 0349 043c d8c8 02bd
00000370: 41f4 c23c 414c 373d 252a 0d3d 8882 c93c
00000380: 8850 0abd 1fed b9bc bc4b 16bd 47c9 6c3d
00000390: d933 e8bc 7383 183c 907e 94bc 528f 7bbd
000003a0: b59c a53c 9941 9d3d 8b9c 11bb 4950 3b3d
000003b0: 43e4 0b3c 00b0 60bd 41ff 66bd 3b5e a23d
000003c0: cc37 953b c8e3 173d b8fb ff38 e123 f2bc
000003d0: 9d73 623d 826e 103c bc32 88bc a385 003d
000003e0: 986f 9b3c ace6 83bc 3d38 8a3c 642b 063d
000003f0: 509c c23c a815 26bc bb36 553b a5ec 493d

layers.1.0.bias f4 [128]
0.022926457 0.047695264 -0.034819167 0.01144755 0.025035134 -0.006302066 -0.007312459 0.032002375
0.013000076 -0.049224768 -0.036808264 0.011345028 -0.021485433 0.035433922 -0.05181345 -0.0018797036
0.011596578 -0.036814258 -0.03234301 0.02357827 0.024062188 -0.021830399 -0.00802065 0.0113407215
-0.04574502 0.021936703 0.021209031 -0.016325772 -0.008732533 -0.034417097 0.04978702 -0.0022450571
-0.05531661 -0.013029457 -0.015508759 -0.03556358 0.02530013 -0.033043128 -0.0012346657 0.025837604
0.019124372 0.045912664 -0.046358094 -0.005702008 -0.019567274 0.021770682 -0.046561576 0.039435428
0.0041405596 -0.024016136 -0.022143157 -0.018170187 0.011710843 -0.026410308 0.041925564 0.04462614
-0.008028456 -0.0011829258 0.0051443647 -0.019477278 0.011595986 -0.046024732 -0.029907705 -0.011269781
0.011188182 -0.010770018 -0.025745656 -0.04724621 0.028022464 0.05038394 -0.01603947 0.0063391286
0.029215742 -0.042872295 0.047436807 0.012680851 0.044827484 0.010174652 0.0462014 -0.046360206
-0.0017331232 -0.026563406 -0.0075043878 0.038507957 -0.010154374 -0.019294849 0.048010696 -0.028591078
0.031969152 -0.042225823 -0.03881752 -0.0018725761 -0.04566225 0.045482785 -0.035706624 0.033459347
-0.004797782 0.0142643675 -0.038272988 -0.032083627 -0.029958908 -0.021930207 0.03584658 -0.020367263
-0.0007290154 0.035899714 -0.031066937 -0.020201478 -0.04724357 -0.010646363 0.023757564 -0.043506946
-0.039159402 0.056271993 0.047962766 0.04116959 0.009037471 -0.00086349313 -0.028613208 0.03903157
-0.0272516 0.04578023 -0.033968717 -0.04840428 0.047213033 0.017698433 -0.016951527 -0.045246147
00000000: 44d0 bb3c 1c5c 433d 8b9e 0ebd 818e 3b3c
00000010: 7b16 cd3c 9081 cebb 5a9d efbb ec14 033d
00000020: 45fe 543c e99f 49bd 43c4 16bd 7fe0 393c
00000030: 3802 b0bc 2923 113d 573a 54bd 6360 f6ba
00000040: 93ff 3d3c 8cca 16bd 1b7a 04bd 3727 c13c
00000050: 111e c53c aad5 b2bc 0b69 03bc 6fce 393c
00000060: 215f 3bbd 9ab4 b33c 90be ad3c a0bd 85bc
00000070: e612 0fbc f1f8 0cbd 79ed 4b3d cf21 13bb
00000080: ab93 62bd 8179 55bc 7318 7ebc 1eab 11bd
00000090: 3842 cf3c 3b58 07bd 82d4 a1ba 62a9 d33c
000000a0: b7aa 9c3c eb0e 3c3d fce1 3dbd e9d7 babb
000000b0: 8c4b a0bc 6e58 b23c 5ab7 3ebd 0b87 213d
000000c0: 88ad 873b 7dbd c4bc 9165 b5bc a5d9 94bc
000000d0: d6de 3f3c 6e5a d8bc 24ba 2b3d e6c9 363d
000000e0: c989 03bc 670c 9bba 0f92 a83b d08e 9fbc
000000f0: 17fd 3d3c 6e84 3cbd 0101 f5bc e3a4 38bc
00000100: a34e 373c bb74 30bc 8ee8 d2bc 3e85 41bd
00000110: 5e8f e53c 645f 4e3d 3565 83bc 77b8 cf3b
00000120: da55 ef3c dc9a 2fbd 194d 423d 58c3 4f3c
00000130: 069d 373d 95b3 263c ae3d 3d3d 33e4 3dbd
00000140: f729 e3ba 809b d9bc 5ee7 f5bb 85ba 1d3d
00000150: 885e 26bc 3b10 9ebc dda6 443d d637 eabc
00000160: 16f2 023d fcf4 2cbd 1fff 1ebd 3a71 f5ba
00000170: 5708 3bbd 284c 3a3d 1c41 12bd ab0c 093d
00000180: b636 9dbb 18b5 693c 23c4 1cbd 1f6a 03bd
00000190: 626c f5bc faa6 b3bc ddd3 123d 3fd9 a6bc
000001a0: 651b 3fba 940b 133d 1780 febc 927d a5bc
000001b0: 7982 41bd 156e 2ebc 399f c23c 5734 32bd
000001c0: 9c65 20bd 767d 663d 9b74 443d 72a1 283d
000001d0: e711 143c 0b5c 62ba 3f66 eabc 91df 1f3d
000001e0: bf3e dfbc 0d84 3b3d c822 0bbd 9143 46bd
000001f0: 7462 413d 4efc 903c eedd 8abc 0654 39bd

layers.1.1.weight f4 [128]
0.9570949 0.98695374 0.96736246 0.93628025 0.9731522 0.9455445 0.93679255 0.97429
1.0354387 0.97305095 1.0112201 0.98595864 1.0356938 1.0069706 0.98539096 0.98671573
1.0700891 1.0225357 0.945872 0.95083433 0.9962313 1.0362786 0.96550864 0.9683536
0.95293844 0.9683242 1.0148135 0.96819896 0.97223663 1.0121475 1.0398158 0.9425168
1.0340487 1.0035038 0.99187654 0.97796625 0.9705997 0.956076 1.0623533 1.0320996
1.016465 0.9566039 0.99205875 0.96601194 1.0020869 1.0114402 1.0191176 0.98947406
0.976092 0.9614332 0.9601266 0.98020506 0.94186014 0.98270583 1.0327765 0.99723715
0.96230274 0.9930823 0.9960113 0.9936426 1.0423408 0.9612699 0.9534456 1.0388917
0.97335696 0.92182827 1.040787 1.0361462 0.94175434 0.91488075 0.9835332 1.009956
0.9480705 0.99380076 1.0012994 1.0277774 1.0406102 0.9482891 0.97112584 0.9854749
1.0200588 1.0179973 1.0175809 1.0235512 0.99750674 1.0112859 1.0242201 0.9408318
0.99360555 0.96123874 0.97978574 1.0400004 0.95855695 1.0032197 1.0218195 1.0410521
0.934174 0.91183954 1.0197703 0.9770175 0.98617417 0.9936506 0.9746616 0.96142775
1.0121415 0.95641965 1.0647999 0.9794755 1.050512 1.0132214 1.0260475 1.0351413
1.0399479 1.0504347 1.0241224 0.94066757 0.9521821 0.9991991 1.0440546 1.020663
1.0165956 0.99957997 0.9346969 0.9663726 0.9135307 0.9698246 0.9781349 0.98798275
00000000: 2c04 753f 00a9 7c3f 11a5 773f 10b0 6f3f
00000010: 8120 793f 340f 723f a3d1 6f3f 126b 793f
00000020: 4189 843f de19 793f a96f 813f c967 7c3f
00000030: 9d91 843f 6ae4 803f 9542 7c3f 6799 7c3f
00000040: aef8 883f 73e2 823f ab24 723f e169 733f
00000050: 0409 7f3f c7a4 843f 932b 773f 06e6 773f
00000060: c6f3 733f 18e4 773f 69e5 813f e3db 773f
00000070: 80e4 783f 0d8e 813f af18 853f c848 713f
00000080: b55b 843f d072 803f 9feb 7d3f ff5b 7a3f
00000090: 3979 783f 66c1 743f 31fb 873f d71b 843f
000000a0: 861b 823f fee3 743f 90f7 7d3f 8f4c 773f
000000b0: 6244 803f df76 813f 7272 823f 2c4e 7d3f
000000c0: 2ae1 793f 7c20 763f dbca 753f b8ee 7a3f
000000d0: bf1d 713f 9c92 7b3f 0532 843f ef4a 7f3f
000000e0: 7959 763f a43a 7e3f 99fa 7e3f 5d5f 7e3f
000000f0: 6c6b 853f c915 763f 0315 743f 67fa 843f
00000100: ec2d 793f f0fc 6b3f 8238 853f 70a0 843f
00000110: d016 713f a035 6a3f d5c8 7b3f 3d46 813f
00000120: c0b4 723f ba69 7e3f 942a 803f 368e 833f
00000130: b732 853f 13c3 723f b49b 783f 1548 7c3f
00000140: 4991 823f bc4d 823f 1740 823f ba03 833f
00000150: 9a5c 7f3f d171 813f a519 833f 5ada 703f
00000160: ef5c 7e3f be13 763f 3dd3 7a3f bc1e 853f
00000170: fd63 753f 8169 803f fbca 823f 3241 853f
00000180: 0726 6f3f 516e 693f d587 823f d21d 7a3f
00000190: e975 7c3f e35f 7e3f 6c83 793f 2120 763f
000001a0: da8d 813f ebd7 743f 5d4b 883f e8be 7a3f
000001b0: 2d77 863f 3db1 813f 8655 833f 837f 843f
000001c0: 031d 853f a574 863f 7116 833f 97cf 703f
000001d0: 35c2 733f 83cb 7f3f 95a3 853f 16a5 823f
000001e0: ce1f 823f 79e4 7f3f 4c48 6f3f 3264 773f
000001f0: 26dd 693f 6d46 783f 0c67 7a3f 70ec 7c3f

layers.1.1.bias f4 [128]
-0.072337426 -0.04563102 -0.042498443 -0.076163396 -0.06558953 -0.07605816 -0.068395995 -0.05134731
-0.018693676 -0.04924977 -0.03280821 -0.019718833 -0.008375325 -0.007318467 -0.039580666 -0.020508861
-0.019127453 -0.026024515 -0.07592919 -0.08610449 -0.04270019 -0.02705063 -0.052083988 -0.08455052
-0.094774485 -0.038782716 -0.012178943 -0.07312463 -0.041714802 -0.031488944 -0.026177712 -0.077434845
-0.0052051377 -0.009473648 -0.02978783 -0.08132235 -0.091524355 -0.063233115 -0.0016333344 -0.028740058
-0.04373622 -0.06260265 -0.037185967 -0.057521995 -0.02789042 -0.0032642393 -0.031782206 -0.04178172
-0.064423025 -0.04656158 -0.06294767 -0.08220058 -0.08287863 -0.06650257 -0.009826975 -0.05192201
-0.06550482 -0.08351786 -0.039450087 -0.01838846 -0.03600204 -0.096142955 -0.07050506 -0.017230814
-0.0758766 -0.07697578 -0.031193221 -0.044118766 -0.105407305 -0.09007393 -0.036246993 -0.032936595
-0.06962718 -0.0301373 -0.026480127 -0.0346863 -0.015887702 -0.09867338 -0.036665384 -0.04250919
-0.05524617 -0.039149445 -0.010183687 -0.0210311 -0.05282002 -0.041024115 -0.038407296 -0.090400845
-0.02364657 -0.069379166 -0.017749608 2.3793178e-05 -0.07070761 -0.02295437 -0.011007742 -0.021293892
-0.10481287 -0.08679935 -0.027488282 -0.037042554 -0.053445704 -0.040697485 -0.03860604 -0.078234
-0.00961916 -0.0923533 -0.0053003207 -0.085382834 -0.030270875 0.0035274082 -0.005227083 -0.042366315
-0.007231207 -0.022428596 -0.024428083 -0.062908255 -0.08447332 -0.032531034 -0.011634075 -0.026181556
-0.044661406 -0.07734635 -0.09251613 -0.056512345 -0.08407823 -0.07814962 -0.06562205 -0.028219787
00000000: a525 94bd 98e7 3abd d912 2ebd 8efb 9bbd
00000010: ce53 86bd 61c4 9bbd 3313 8cbd 8f51 52bd
00000020: 7b23 99bc 20ba 49bd e761 06bd 6489 a1bc
00000030: a938 09bc c0cf efbb 561f 22bd 3302 a8bc
00000040: 2db1 9cbc 5d31 d5bc c380 9bbd 8d57 b0bd
00000050: 65e6 2ebd 4899 ddbc 0556 55bd d328 adbd
00000060: 2019 c2bd a0da 1ebd 308a 47bc 5ec2 95bd
00000070: 24dd 2abd 8dfa 00bd a472 d6bc 2996 9ebd
00000080: dc8f aabb 5c37 1bbc 9b05 f4bc 558c a6bd
00000090: 1f71 bbbd 5d80 81bd 9c15 d6ba 4570 ebbc
000000a0: c024 33bd d135 80bd 5050 18bd 2f9c 6bbd
000000b0: 737a e4bc d9ec 55bb 0f2e 02bd 4f23 2bbd
000000c0: 38f0 83bd 5bb7 3ebd b5ea 80bd c758 a8bd
000000d0: 45bc a9bd 8032 88bd 5201 21bc 2cac 54bd
000000e0: 6427 86bd 690b abbd 6a96 21bd 65a3 96bc
000000f0: e076 13bd 99e6 c4bd f564 90bd a327 8dbc
00000100: 3165 9bbd 7aa5 9dbd ed88 ffbc e1b5 34bd
00000110: c9df d7bd ae78 b8bd ba77 14bd 86e8 06bd
00000120: b298 8ebd 80e2 f6bc daec d8bc 3913 0ebd
00000130: ed26 82bc 4515 cabd 712e 16bd 1e1e 2ebd
00000140: cf49 62bd 2b5b 20bd 7bd9 26bc 6a49 acbc
00000150: ce59 58bd e708 28bd f850 1dbd 1424 b9bd
00000160: 74b6 c1bc aa16 8ebd a067 91bc 7697 c737
00000170: 27cf 90bd ce0a bcbc d159 34bc 8770 aebc
00000180: 21a8 d6bd dcc3 b1bd 1b2f e1bc efb9 17bd
00000190: e2e9 5abd 68b2 26bd 5e21 1ebd 2639 a0bd
000001a0: ae99 1dbc ba23 bdbd 50ae adbb 32dd aebd
000001b0: a0fa f7bc 172c 673b f347 abbb 4d88 2dbd
000001c0: c3f3 ecbb 2dbc b7bc 671d c8bc 0bd6 80bd
000001d0: 5900 adbd 433f 05bd d99c 3ebc b47a d6bc
000001e0: e1ee 36bd c367 9ebd 1979 bdbd 7d79 67bd
000001f0: 3531 acbd e80c a0bd da64 86bd 2f2d e7bc

layers.1.1.running_mean f4 [128]
0.8749507 0.67793316 0.98021287 0.2934607 1.128798 1.0385988 0.5544866 0.7043936
0.4026218 0.26072797 1.0999297 -0.5546829 0.43879622 0.25863495 0.520968 -1.1254392
0.74992645 0.2599291 0.6298522 -0.39069152 0.9659847 1.3813801 0.8233341 1.2948241
0.62706786 0.9594836 -0.54721415 0.47216475 -0.22335136 0.4241684 0.538718 0.5318945
-0.7139557 0.7753342 -0.3957297 0.8939123 0.83318454 0.85580945 0.443927 0.4610501
-0.33184245 0.7474337 -0.5256688 1.047467 0.3614511 -0.34538272 0.6666072 1.0793579
1.0609096 -0.3992559 0.67052877 0.4435052 0.7887129 0.7976827 0.5949289 1.1222874
0.82163227 1.5242435 1.0477116 0.669221 0.5684313 1.1572554 0.23927604 0.7737253
0.9885955 -0.25837207 0.7301822 0.3883202 0.8115215 0.91700256 -0.3172912 -1.2136993
1.1560683 0.16402085 1.067171 1.1684401 -1.0141355 0.6610651 0.63170105 1.1179426
0.6519383 1.8439081 -1.088197 0.7787425 0.25032434 1.4069022 -0.02916067 0.99808127
0.34395042 -1.9552071 0.93115824 0.6364357 0.7630247 0.35556924 0.30770198 1.1223623
0.6608549 -0.8256347 0.43842718 0.22419515 1.0557996 0.725423 0.9992296 0.7067725
-0.7630485 0.73139787 1.2128742 0.92125183 1.0130159 -0.79849684 -0.8382723 -0.00985493
-0.61153656 0.5823701 0.057235062 0.22836258 0.7370196 -0.12395645 0.3408532 0.909625
0.77309936 1.3062109 1.3129743 1.6962825 0.34156156 0.98213184 0.6439913 -0.9474536
00000000: c5fc 5f3f 078d 2d3f 3bef 7a3f 7b40 963e
00000010: 747c 903f cef0 843f d5f2 0d3f 2453 343f
00000020: 7224 ce3e 237e 853e 7fca 8c3f b3ff 0dbf
00000030: e6a9 e03e cd6b 843e 295e 053f 640e 90bf
00000040: 2efb 3f3f 6d15 853e fe3d 213f b808 c8be
00000050: c64a 773f 10d1 b03f 06c6 523f ccbc a53f
00000060: 8587 203f b8a0 753f 3a16 0cbf 94bf f13e
00000070: 38b6 64be 9a2c d93e 6ce9 093f 3d2a 083f
00000080: cdc5 36bf 4d7c 463f 159d cabe 70d7 643f
00000090: 954b 553f 5416 5b3f 664a e33e c20e ec3e
000000a0: 41e7 a9be d157 3f3f 3b92 06bf 6613 863f
000000b0: 1e10 b93e 01d6 b0be c5a6 2a3f 6628 8a3f
000000c0: e3cb 873f 456b ccbe c6a7 2b3f 1d13 e33e
000000d0: 17e9 493f ef34 4c3f 434d 183f 1da7 8f3f
000000e0: 7e56 523f 691a c33f 6a1b 863f 1152 2b3f
000000f0: b784 113f f220 943f c704 753e dc12 463f
00000100: 9814 7d3f 5849 84be 38ed 3a3f e8d1 c63e
00000110: dfbf 4f3f aec0 6a3f fe73 a2be 805a 9bbf
00000120: 0cfa 933f 15f5 273e 0f99 883f 728f 953f
00000130: 31cf 81bf 903b 293f 29b7 213f be18 8f3f
00000140: 6ee5 263f 2e05 ec3f 0a4a 8bbf ab5b 473f
00000150: 832a 803e 5f15 b43f 5be2 eebc 4182 7f3f
00000160: 451a b03e 3a44 fabf 6360 6e3f 73ed 223f
00000170: 9655 433f 2c0d b63e 1d8b 9d3e 91a9 8f3f
00000180: c92d 293f cc5c 53bf 8779 e03e 6a93 653e
00000190: 7124 873f 52b5 393f 83cd 7f3f 0bef 343f
000001a0: 2657 43bf e43c 3b3f 763f 9b3f 29d7 6b3f
000001b0: 81aa 813f 4a6a 4cbf 0399 56bf 9376 21bc
000001c0: a98d 1cbf 3516 153f 506f 6a3d e1d7 693e
000001d0: 51ad 3c3f e1dc fdbd 5084 ae3e 2fdd 683f
000001e0: d7e9 453f eb31 a73f 8b0f a83f c91f d93f
000001f0: 28e1 ae3e fe6c 7b3f 9ddc 243f 528c 72bf

layers.1.1.running_var f4 [128]
1.0678174 0.39930543 0.72729677 1.3998972 1.4239962 0.749929 0.44484678 0.7955837
0.6264327 0.48580247 0.4151949 0.47710344 0.50303954 0.374328 0.6777176 1.1174986
0.2719122 0.26234663 0.7014691 1.2098074 0.74743044 0.5611957 0.80593723 1.054199
0.45337933 0.570244 0.24801643 1.2204431 0.48634383 0.5413791 0.49001914 0.9106506
0.20432915 0.7113814 0.49920297 1.1553664 0.8136435 0.7390966 0.38285065 0.2998641
0.8908706 0.4982399 1.2502148 0.41130617 0.50323576 1.1464106 0.46453807 1.2005091
0.5386466 1.6795437 0.52670556 0.39806777 0.31957647 0.6484516 0.45252502 1.0216516
0.9521097 1.7245473 0.7714603 0.6443961 0.2363404 1.0892841 0.35660437 0.31015843
1.3580686 1.2166332 0.29739013 0.3521908 0.7262181 0.80191714 0.62747896 0.5393854
0.9164385 0.7917311 0.41779143 0.47420105 0.35477445 0.7185457 0.3948925 0.68663406
0.35098866 0.95901895 0.63590074 0.2619738 0.21103252 0.76368695 0.27291346 1.1346447
0.48940983 3.0370772 1.2617825 1.2287251 0.49736002 0.6784774 0.55102146 0.59532636
0.43814996 0.9113407 0.28282604 0.28765106 0.41320404 0.45303234 1.1927118 0.83687824
0.388617 0.5179615 0.5545634 1.2474016 0.4303739 0.90128845 0.38889304 0.2631566
0.25215396 0.22491355 0.28409755 0.3615522 0.76217884 0.58857274 0.5225158 0.25624818
0.2939971 1.4589231 0.83164865 2.04466 0.38559487 0.86439335 1.0079162 0.60741717
00000000: 3eae 883f c371 cc3e 1f30 3a3f d52f b33f
00000010: 8245 b63f 59fb 3f3f f5c2 e33e 60ab 4b3f
00000020: e55d 203f 1abb f83e 6d94 d43e e746 f43e
00000030: 33c7 003f eba7 bf3e e77e 2d3f 320a 8f3f
00000040: 1338 8b3e 4c52 863e 7b93 333f f8da 9a3f
00000050: 9a57 3f3f 85aa 0f3f e751 4e3f feef 863f
00000060: 5621 e83e 83fb 113f 05f8 7d3e 7b37 9c3f
00000070: 0f02 f93e d297 0a3f cae3 fa3e 6620 693f
00000080: a93b 513e 171d 363f 8897 ff3e 0ce3 933f
00000090: f14a 503f 6f35 3d3f 0005 c43e ca87 993e
000000a0: 1810 643f 4d19 ff3e 0a07 a03f b996 d23e
000000b0: 0fd4 003f 95bd 923f efd7 ed3e 48aa 993f
000000c0: bee4 093f 4afb d63f 2dd6 063f 8acf cb3e
000000d0: 879f a33e ed00 263f 5cb1 e73e 7bc5 823f
000000e0: 76bd 733f f7bd dc3f 6c7e 453f 25f7 243f
000000f0: 3803 723e a96d 8b3f d994 b63e 16cd 9e3e
00000100: 31d5 ad3f a3ba 9b3f 8543 983e 5a52 b43e
00000110: 6ee9 393f 714a 4d3f 76a2 203f 2915 0a3f
00000120: b79b 6a3f e4ae 4a3f c2e8 d53e 7bca f23e
00000130: ffa4 b53e 9cf2 373f 5a2f ca3e 40c7 2f3f
00000140: c9b4 b33e 4482 753f 64ca 223f 6e21 863e
00000150: e918 583e fd80 433f 50bb 8b3e 0a3c 913f
00000160: ed93 fa3e 795f 4240 1782 a13f dd46 9d3f
00000170: f9a5 fe3e b2b0 2d3f be0f 0d3f 4f67 183f
00000180: 3155 e03e a04d 693f 93ce 903e 0047 933e
00000190: 7b8f d33e dbf3 e73e c8aa 983f a73d 563f
000001a0: cff8 c63e 2099 043f def7 0d3f dbaa 9f3f
000001b0: f859 dc3e d7ba 663f fd1c c73e 76bc 863e
000001c0: 531a 813e bd4f 663e 3c75 913e 5f1d b93e
000001d0: 271e 433f b4ac 163f 98c3 053f f632 833e
000001e0: ca86 963e febd ba3f ede6 543f b6db 0240
000001f0: b16c c53e e248 5d3f 6603 813f b17f 1b3f

layers.2.0.weight f4 [128, 128, 3]
-0.027799712 0.021056723 -0.03340602 -0.018492626 0.02235902 -0.01572466 -0.052169368 -0.015496437
-0.01770703 0.019020516 0.05633009 0.014839012 -0.0106263785 -0.033450656 -0.028070707 0.02816042
-0.033792675 0.043535225 0.022719571 -0.02888306 -0.027340725 0.05079168 0.0033287122 0.045973606
-0.0026152818 0.051484138 -0.014255388 0.005495823 0.007374321 0.045671653 -0.035605256 -0.029094905
0.05056919 -0.0104558505 0.050169483 0.06446203 -0.0016864673 -0.02203185 0.018691855 0.0072062006
0.0013568827 0.030155035 0.034174375 -0.013691185 0.045991093 -0.035156585 0.015017609 0.037831932
-0.042274933 0.051869195 0.051246025 -0.028099978 -0.015895922 0.019649716 0.019530278 0.010096019
0.01702386 0.024685767 0.04726615 0.0249246 -0.012894218 0.006401449 -0.03013142 -0.016730541
0.061539035 -0.025060842 -0.02147392 0.041855913 0.015739111 -0.017079202 -0.025409887 -0.014177468
0.012192046 0.045554012 0.028473344 0.02612126 -0.018395886 0.046875656 -0.0222132 0.048452444
-0.00590285 0.052647866 -0.016132064 -0.028096957 -0.048605457 0.054350078 0.006568593 -0.0032185744
0.0025934267 0.0038248273 -0.03393006 -0.02135564 0.06261524 -0.023646113 0.009043766 0.041333757
0.04396085 0.034871023 0.036716785 -0.049881008 0.01733212 0.04702006 0.0013671747 -0.01419031
0.048242606 0.0057598534 0.020663837 0.030839168 -0.042235475 0.061204012 0.008513311 0.058128875
-0.005616215 0.057965644 0.01579544 -0.028839402 -0.035357323 0.038165655 0.0029922538 0.03617793
-0.001014119 0.033601437 0.033790067 -0.04071482 0.021462776 0.03232687 -0.011797776 -0.026122427
0.020548986 -0.043186255 -0.011633675 0.027795961 -0.03432938 -0.0021162457 0.007024018 -0.025886413
0.043084707 -0.016013961 0.006891161 0.0020813185 -0.034303695 -0.019896293 0.04160683 0.050021123
-0.031682678 0.05260372 -0.027599134 -0.018970452 0.03262641 -0.005316505 0.039852355 0.020751975
0.01242118 -0.022316823 0.035027552 0.03966097 -0.015915392 -0.019576525 0.054457515 0.04437354
0.028201597 0.027602874 0.01978812 0.018959118 0.055470213 0.026752293 -0.00016007114 0.046636075
0.04389833 0.020809045 0.019470762 0.05037431 -0.0048275176 0.010462073 -0.0014715146 0.04181287
-0.004734937 0.020282008 0.0055576516 0.06131801 0.031747684 0.017480107 0.025827223 -0.036576048
0.045955554 0.011530779 -0.014241874 0.036760643 -0.006569552 -0.01475743 0.06465631 0.03690549
-0.03184077 0.01791962 0.009451334 -0.053824257 0.021718647 0.050455187 -0.024412947 0.030142121
0.022990033 -0.014024878 -0.0028439427 0.053580157 -0.0426366 -0.019193271 0.066322125 0.04210272
0.061064288 -0.0068977717 0.008529731 0.039550863 -0.02963579 0.015744083 0.053125486 0.016117517
0.029730188 0.012128144 0.026229454 0.00067842094 -0.01985641 0.02061037 0.040350806 0.037508436
0.04735218 0.0032518066 -0.021487366 0.0144778 -0.061398134 0.059028313 -0.029451022 0.018864397
0.048602883 0.05857153 0.0057434966 0.024127426 -0.0034691973 0.04857036 0.038986273 0.0629224
0.009089263 -0.017718863 0.043061074 -0.03409168 -0.026889728 0.043630175 -0.018902978 0.046489477
0.054958016 0.019716473 0.023427745 0.004177021 0.012028245 0.050732777 -0.029604739 0.014867111
00000000: 39bc e3bc 267f ac3c c0d4 08bd d97d 97bc
00000010: 432a b73c 01d1 80bc 8caf 55bd c5e4 7dbc
00000020: 550e 91bc ead0 9b3c 61ba 663d 541f 733c
00000030: 431a 2ebc 8e03 09bd 8af4 e5bc aeb0 e63c
00000040: 306a 0abd fe51 323d 651e ba3c 2b9c ecbc
00000050: a8f9 dfbc f00a 503d 8626 5a3b d24e 3c3d
00000060: 2665 2bbb 08e1 523d 6e8f 69bc 4e16 b43b
00000070: 4aa4 f13b 3312 3b3d d1d6 11bd 7058 eebc
00000080: a421 4f3d 044f 2bbc 847e 4d3d ab04 843d
00000090: 740c ddba 237c b4bc a91f 993c fe21 ec3b
000000a0: 6ed9 b13a b107 f73c 6efa 0b3d fe50 60bc
000000b0: 2861 3c3d 5a00 10bd 6b0c 763c a8f5 1a3d
000000c0: 7b28 2dbd cb74 543d 5ae7 513d ed31 e6bc
000000d0: 2a38 82bc 71f8 a03c f6fd 9f3c c669 253c
000000e0: 9f75 8b3c ce39 ca3c 279a 413d ad2e cc3c
000000f0: 4542 53bc 3fc3 d13b 2bd6 f6bc 7d0e 89bc
00000100: 5b10 7c3d 654c cdbc 13ea afbc 1b71 2b3d
00000110: 4fef 803c afe9 8bbc 6528 d0bc 9c48 68bc
00000120: 26c1 473c d896 3a3d ee40 e93c 41fc d53c
00000130: f8b2 96bc b000 403d 75f8 b5bc 1276 463d
00000140: b26c c1bb 4aa5 573d 6427 84bc 972b e6bc
00000150: 8416 47bd 309e 5e3d 5a3d d73b b8ee 52bb
00000160: 7bf6 293b f4a9 7a3b 3ffa 0abd 06f2 aebc
00000170: 6b3c 803d 7eb5 c1bc 4e2c 143c 964d 293d
00000180: 4b10 343d ebd4 0e3d 5764 163d 0750 4cbd
00000190: 17fc 8d3c 1b98 403d c532 b33a 797e 68bc
000001a0: 0a9a 453d 27bd bc3b 3547 a93c 6ca2 fc3c
000001b0: 1bff 2cbd 0fb1 7a3d 6a7b 0b3c 8b18 6e3d
000001c0: 3a08 b8bb 626d 6d3d 7065 813c 9c40 ecbc
000001d0: d7d2 10bd 9753 1c3d b019 443b 4f2f 143d
000001e0: 30ec 84ba a9a1 093d 7467 0a3d 95c4 26bd
000001f0: b4d2 af3c 2e69 043d 764b 41bc b3fe d5bc
00000200: 5956 a83c 12e4 30bd 2b9b 3ebc 5bb4 e33c
00000210: f79c 0cbd b6b0 0abb bc29 e63b be0f d4bc
00000220: 9779 303d b62f 83bc 40cf e13b bb66 083b
00000230: 0882 0cbd 8dfd a2bc ec6b 2a3d f3e2 4c3d
00000240: b2c5 01bd 0077 573d 9417 e2bc ec67 9bbc
00000250: 45a3 053d 1436 aebb 393c 233d 0c00 aa3c
00000260: 3482 4b3c c5d1 b6bc 0d79 0f3d 8b73 223d
00000270: ff60 82bc f35e a0bc d80e 5f3d 07c1 353d
00000280: 0907 e73c 6c1f e23c b21a a23c 2750 9b3c
00000290: bc34 633d a027 db3c c5d8 27b9 7805 3f3d
000002a0: bcce 333d bb77 aa3c 2681 9f3c 4b55 4e3d
000002b0: 2730 9ebb 1d69 2b3c d6df c0ba f943 2b3d
000002c0: 8827 9bbb 7426 a63c f61c b63b 9828 7b3d
000002d0: dc09 023d 7132 8f3c 9d93 d33c c4d0 15bd
000002e0: e43b 3c3d 98eb 3c3c c056 69bc 5492 163d
000002f0: 6545 d7bb 26c9 71bc 876a 843d 362a 173d
00000300: 786b 02bd 2bcc 923c c5d9 1a3c d376 5cbd
00000310: 4eeb b13c 19aa 4e3d a9fd c7bc 9cec f63c
00000320: 9855 bc3c 9ac8 65bc 7161 3abb de76 5b3d
00000330: b7a3 2ebd 353b 9dbc e5d3 873d e773 2c3d
00000340: 8c1e 7a3d b406 e2bb 49c0 0b3c 1600 223d
00000350: c2c6 f2bc bcf9 803c 1c9a 593d e208 843c
00000360: b98c f33c 1fb5 463c 27df d63c 0fd8 313a
00000370: e9a9 a2bc 14d7 a83c e346 253d 72a2 193d
00000380: 5cf4 413d 431c 553b 4606 b0bc 4b34 6d3c
00000390: 9c7c 7bbd acc7 713d 4543 f1bc 8289 9a3c
000003a0: d113 473d b3e8 6f3d f133 bc3b e1a6 c53c
000003b0: 795b 63bb b7f1 463d 12b0 1f3d 76dd 803d
000003c0: 22eb 143c 2627 91bc cf60 303d b8a3 0bbd
000003d0: d947 dcbc 8eb5 323d 6bda 9abc c06b 3e3d
000003e0: a81b 613d 7184 a13c 8beb bf3c 64df 883b
000003f0: 1e12 453c 2ccd 4f3d a385 f2bc 2f95 733c
