MixedData/tcn_model_best.pth (torch, 422961 bytes, 21 tensors)

layers.0.0.weight f4 [128, 6, 3]
00000000: 4156 243e 52b0 6a3e c8ce 9cbc 2219 4a3e
00000010: 8609 94bc 8965 a93d 019d 90bd 1aa6 fe3d
00000020: 5ac5 533e bbab 2bbe 5f6b 583e aa3e bc3c
00000030: 5a27 403e 8536 763c 2363 cb3d fc3b 9fbc
00000040: b121 453e 1328 903c 2fb2 60bd 68a4 763d
00000050: 87a9 e6bd 34e8 87bc f3f3 d0bd b7e1 0e3e
00000060: 1ed0 4cbe ed5f d2bd 9aa0 97bd e2e4 02be
00000070: 4013 b73c 86d7 72be 6533 763e 7bd3 44be
00000080: 5b43 2e3e b50a 963d 0deb e6bd 739e 313e
00000090: 3a72 073d 6aa2 1b3e 086f 0bbb 17a1 9cbb
000000a0: 2cbe 053d 8180 adbd 7dd8 fc3d 9ea5 543e
000000b0: 8bf7 013e e788 0ebe 3dff e33d e5df 263c
000000c0: b5a9 373e 5530 e9bd b08e 5ebe 699f d2bd
000000d0: e251 23be db4f 303e dca4 223d a7dc 903d
000000e0: 7803 613d 9e5b 35bc 6238 243e 9165 35be
000000f0: d3d5 9a3d 40dd e0bd 67b4 aa3d 292f 9fbd
00000100: 9238 313d 5edc 13bd a434 863e 85c6 e0bd
00000110: 3faa e4bd b34c 0cbe 0011 463e 1363 8b3d
00000120: d4f6 683e 584e 3fbe fef6 74be b481 44be
00000130: 6af9 1fbe 85c8 de3d 719e 9c3d 10f0 553e
00000140: 4897 c9bd 17b5 04be 60f4 243e f09c 99bd
00000150: 6934 df3d 1f7b 1ebd ce8b 2c3e 4211 60be
00000160: f09e b0bd f3a5 de3d a1db 253d 223b a8bc
00000170: bc9e 343e e9d8 0e3e 8366 ddbd d398 57bd
00000180: 0057 683e 7cf7 bdbd d092 bbbd 7335 81be
00000190: abc2 0fbe d4c4 603d 8171 2abd 9684 37be
000001a0: 9fe0 cc3a d2f5 29be 79a4 56be 811c 1abe
000001b0: b891 36be 462d 12be 1986 763e c2d5 353d
000001c0: b6ba 993d f9fe 5dbe 753b 26be 89e0 c0bd
000001d0: 46f1 713d 1be6 6ebe 9f00 c8bd c0c3 fabd
000001e0: 039f 1ebc 7be0 a8bd 62f0 303c 157b 34be
000001f0: b079 2abe fd6b fabd 1ff1 61bc da6c 66be
00000200: 122f 213e 1d43 f73b 237f 253e c629 f93c
00000210: 72c6 84be e75a 2a3e 30df 12bd 04a6 f3bd
00000220: 567a 30be ccf7 4fbe ea5c de3c 9abe dfbc
00000230: 795a c33d a709 5fbe cec3 443e 8fd8 26be
00000240: f445 a7bc f4f6 813d cbd1 0d3e f8ee 1d3e
00000250: a490 683e 517e 2bbe a02e c23d 6418 d5bd
00000260: 461c bdbc 1175 3cbe 756f 523e f76f 2dbe
00000270: 20da 0a3e 6a23 833d 7039 6b3d c350 00be
00000280: b3a9 4c3e 5f95 7c3d 0483 d73c 1615 44be
00000290: 7951 d13d b76c 3abc abf6 c7bd 6377 503e
000002a0: 62c3 283d 0ba1 e0bd 48ed 0cbe bbe8 f43b
000002b0: fde4 0f3e ff70 64bd ff36 22be bda1 98bd
000002c0: d090 4abe 0670 d23d dbb8 433e 1b44 6cbe
000002d0: f4bc d23c 5f99 a23d c337 febb c6af 1dbd
000002e0: 335e aa3d 1d04 943d 5940 1a3e 8ab1 7bbd
000002f0: 94ef 63bd fa10 983d fd7f 6ebd da5c 26bd
00000300: 8872 543e 8e6e 4f3e cfa4 9ebc 9bfd 00bd
00000310: 0edb aebb 1e22 fcbb 3535 7a3d 6e37 783d
00000320: b4b7 56be a289 28bd e2a7 413e 17ee ad3d
00000330: 4dcf 4e3d cb14 11be 9383 fabd ca76 6abe
00000340: 92ad 86bd 6e49 7a3d a765 313e aebb 9e3d
00000350: 7e31 45be 2a5b 1bbe 7e3d babc 1782 463e
00000360: 92e6 b63b 518e 50bd ca02 ca3d 1664 57bd
00000370: 9d7b 05be f2aa 323e 589f f1bd 11e6 3bbd
00000380: 7c2b 66be 08cd 333e ee37 2f3e 0bab 9b3d
00000390: 7686 20be b69a 6cbe d3fc 43be 995a 523e
000003a0: f17f db3d 60cf 3a3e d461 f73d 0860 8c3d
000003b0: 20a2 063b 36cf 1abe 0e69 5cbe 8aca 72be
000003c0: 599e e63d f52d 05be 39e3 94bd 6cbd 08be
000003d0: 5961 f8bc 1bb3 2bbe 0b4a 16be e795 963d
000003e0: 49aa c3bd c822 1d3e e2be 7bbd 5e52 37be
000003f0: d4eb 77bd 9cf2 d4bd 97a1 53bd 0346 6abe
0.16048528 0.22918823 -0.01914157 0.1973615 -0.018070947 0.082713194 -0.07061196 0.12434025
0.20680752 -0.16764729 0.21134709 0.0229791 0.18765011 0.015027647 0.09931018 -0.019437782
0.19251134 0.017597234 -0.05485743 0.060215384 -0.112628035 -0.016590215 -0.102027796 0.13953291
-0.20001265 -0.10272203 -0.07403679 -0.12782624 0.022348046 -0.23715028 0.24043043 -0.19221298
0.17017882 0.07326261 -0.11275301 0.173456 0.03306792 0.15198675 -0.0021275897 -0.0047799456
0.032652065 -0.08471776 0.12345979 0.20766303 0.12692086 -0.13919412 0.11132667 0.010185217
0.17935832 -0.11386172 -0.21734118 -0.10284311 -0.15949205 0.17217962 0.039708003 0.07073336
0.05493495 -0.0110692065 0.16037133 -0.17714526 0.07560315 -0.109797 0.0833519 -0.07772667
0.04326684 -0.03609883 0.26212037 -0.109753646 -0.11165284 -0.13701133 0.19342422 0.06806006
0.22750407 -0.1868223 -0.23922345 -0.19190103 -0.15622488 0.1087809 0.07647408 0.20892358
-0.09843308 -0.12959705 0.16108847 -0.075006366 0.10898668 -0.038691636 0.16850206 -0.21881583
-0.08624065 0.10871496 0.040492658 -0.02053601 0.17638677 0.13949932 -0.10810568 -0.05263598
0.22689438 -0.092757195 -0.09158862 -0.2523609 -0.14039104 0.05487521 -0.041612152 -0.17921671
0.0015630907 -0.1659768 -0.20961179 -0.15049936 -0.17829025 -0.14275083 0.24074592 0.04439331
0.075063154 -0.21679296 -0.16233619 -0.09417827 0.059067987 -0.23329966 -0.097657435 -0.122443676
-0.009681466 -0.08245941 0.010799499 -0.17625077 -0.16647983 -0.122276284 -0.013790398 -0.22502461
0.15740612 0.0075458423 0.1616178 0.030415427 -0.25932652 0.16636239 -0.03585738 -0.11896899
-0.17234167 -0.20309371 0.027143914 -0.027312566 0.09538741 -0.21781026 0.19215319 -0.16293548
-0.020419098 0.06345931 0.13849561 0.1542319 0.22711426 -0.16747405 0.09481549 -0.10405043
-0.02308477 -0.18404032 0.2055033 -0.16937242 0.1355977 0.06403239 0.057427824 -0.12530808
0.1998661 0.06166589 0.02630759 -0.19148669 0.10220618 -0.011378459 -0.09763845 0.20358042
0.041201957 -0.109682165 -0.1376239 0.0074740327 0.14052196 -0.055771824 -0.15841292 -0.07452724
-0.19781804 0.10275273 0.19113486 -0.23072855 0.025724865 0.079394095 -0.007758112 -0.03849771
0.08318748 0.07227347 0.15063609 -0.06144861 -0.0556484 0.07425113 -0.058227528 -0.040615894
0.20746815 0.20257017 -0.019365696 -0.031491857 -0.005336172 -0.007694497 0.0610859 0.060599737
-0.20968515 -0.041146882 0.18911698 0.08492678 0.050490666 -0.14168088 -0.12232127 -0.22896877
-0.06576075 0.061105184 0.17323934 0.07750641 -0.19257161 -0.15171495 -0.0227344 0.19385563
0.0055816853 -0.050916974 0.09863813 -0.052585684 -0.13035436 0.17448023 -0.117979705 -0.045873705
-0.22477525 0.17558682 0.17111179 0.07600983 -0.15676293 -0.23105893 -0.19139414 0.20542373
0.10717762 0.1824317 0.12079206 0.06854254 0.0020543411 -0.15118107 -0.2152445 -0.23710075
0.11260671 -0.13005812 -0.07269902 -0.13353509 -0.030319856 -0.16767542 -0.14676683 0.0735281
-0.09553964 0.15345299 -0.061461337 -0.17902514 -0.060527638 -0.103978366 -0.051667776 -0.2287827

layers.0.0.bias f4 [128]
00000000: 7ca6 c13c b85f 45be 9b05 3ebe a469 4bbe
00000010: bc58 84bd 1807 5c3e 1907 b13d 8108 75bc
00000020: 68c2 5e3d 68d5 b23d 417e 6fbb 12a4 4dbe
00000030: a66f 0ebe 579c 22be 1761 83bb 8b88 63be
00000040: 8878 34bd 7014 acbd b11e 6d3e acba 483e
00000050: 7f26 0b3e db21 3b3c 0bf9 9cbd 55bd 7c3d
00000060: a131 22be c698 c9bd 33cf 49bd ed9a 62bd
00000070: f883 6dbe 5d8e bf3d 8cce 373e 0672 03be
00000080: ad07 873d 5112 07bd 0b53 8bbc 342e 7f3c
00000090: 71a4 513e 1aed ea3c bde2 18be b333 afbd
000000a0: a6e6 eb3d 6bcc 993d cf9a 963b aca1 d8bc
000000b0: a934 bbbd d4f4 c7bd e65c f5bd a570 1b3d
000000c0: 99ab 8e3d d041 413e 0946 72bd c601 103c
000000d0: 0d74 1f3e 46c3 ca3d d58b 033d 24ad 883d
000000e0: ba8c 803c d22e 53be deb6 0b3c 55a3 4fbd
000000f0: 0f64 603e 5ae9 583e cef3 373d 7244 563e
00000100: f00b 00be b378 553e fa84 4f3e a4ed a8bc
00000110: 13bd 47be 7fdb 94bd ad61 7ebd 0aa9 f53a
00000120: dab8 5abe 6076 383d b6ff c6bd 758a 9dbd
00000130: a50f f9bd 5ea7 54bd 5d33 61be 52ad 04be
00000140: 1e6c 943c ce4d 193e c7cd 5a3e ac4f 3abe
00000150: bb72 c93d f224 08be e20c 3ebe 7f68 24bc
00000160: 89b5 06be 8579 50be a39f 65be 533a 20be
00000170: 8758 3d3e 17f0 033e 8d37 c2bd aa9c 24be
00000180: 2f97 38be 0955 0ebe a3a7 cabd 5c8c 0e3e
00000190: a725 963d 548f a0bd 54f1 233e 9b9e 14be
000001a0: d2f9 3abe e382 643d fc43 ffbd 4579 7e3d
000001b0: 2cfc 403e 21e8 e2bd 7b5e 24be f2a4 ac3d
000001c0: 1747 5bbe f141 543e 9104 dbbd 0947 e83d
000001d0: fef8 41be 7cd3 24be 0b50 f93c bf57 a63d
000001e0: 5222 4d3e 14c4 493e 6ece 87bc 04fb 08bd
000001f0: fbb4 233d 3401 68bd 0fa4 d23b f989 60be
0.023638956 -0.19274795 -0.18556826 -0.19864517 -0.06462237 0.21487081 0.08643932 -0.014955641
0.05438462 0.0873211 -0.003654376 -0.20082119 -0.13909778 -0.15879951 -0.0040093767 -0.22220056
-0.04406026 -0.08402336 0.23156239 0.1960246 0.13588904 0.011421646 -0.07664689 0.061704
-0.15839244 -0.09843592 -0.049269866 -0.05532353 -0.23194873 0.093533255 0.17949885 -0.12836465
0.06593261 -0.032976452 -0.017007371 0.0155749805 0.20472886 0.028677512 -0.14930244 -0.08554783
0.11518602 0.07509693 0.0045960913 -0.026444279 -0.091409035 -0.09763494 -0.119806096 0.037949223
0.069663234 0.18872762 -0.059148822 0.008789485 0.15571614 0.09900527 0.032115776 0.06673649
0.015692104 -0.2062333 0.008527486 -0.050692875 0.2191317 0.21182767 0.044910245 0.20924547
-0.12504554 0.20846824 0.2026557 -0.020621128 -0.1950572 -0.07268428 -0.06210487 0.0018742394
-0.21359578 0.045034766 -0.09716742 -0.07692424 -0.12161187 -0.051917426 -0.2199225 -0.12956741
0.01811796 0.14971086 0.2136756 -0.18194455 0.09836336 -0.13295344 -0.18559602 -0.010034679
-0.13155188 -0.20358856 -0.22424178 -0.15647249 0.18490802 0.12884556 -0.09483252 -0.16075388
-0.18026422 -0.13899626 -0.098952554 0.1392073 0.073314 -0.07839838 0.16010028 -0.14513628
-0.18259361 0.055788886 -0.12464139 0.06212737 0.18846196 -0.11079431 -0.16051666 0.08429898
-0.21413837 0.2072828 -0.1069423 0.11341674 -0.18942639 -0.160963 0.030433675 0.08122205
0.20032623 0.19703704 -0.016577926 -0.033442512 0.03996752 -0.056641772 0.0064282487 -0.21927632

layers.0.1.weight f4 [128]
00000000: d249 733f 5de1 803f d9b3 823f 61ac 853f
00000010: 41f1 763f 05ba 7e3f acd9 7d3f 41e7 813f
00000020: f005 813f 4065 7f3f 16b7 843f a05a 833f
00000030: 7b65 813f 965a 7b3f c018 7b3f 9052 803f
00000040: 6319 783f d8fa 853f 6dd3 753f 038b 7b3f
00000050: c3b8 7b3f 52e1 793f 76be 793f 2892 7a3f
00000060: 0cb5 7f3f c236 7b3f 5451 803f 37af 823f
00000070: 4ff5 813f 4158 763f 90af 823f 33d6 7d3f
00000080: 0454 863f 65e7 833f 59be 813f 9ab1 803f
00000090: 7fe2 783f 31ec 843f 42f9 773f 5ec8 803f
000000a0: 8be5 773f a440 803f 0baa 7c3f 1232 823f
000000b0: 084f 7e3f 9c19 853f 569e 7b3f ce83 7e3f
000000c0: ad72 803f b0d2 833f 2f03 813f 08da 803f
000000d0: eab7 813f b1dd 7f3f 6d67 843f b417 833f
000000e0: a6a1 803f 1c59 813f 62ed 7e3f 706b 7f3f
000000f0: 453e 7b3f 0f20 823f 0601 843f 4d1e 763f
00000100: 5d4a 843f d3c7 873f 152e 803f 7a5c 883f
00000110: 2bac 7d3f 675f 803f 9fb9 7c3f ceb6 7b3f
00000120: 5a95 7b3f ab0e 7c3f 3911 773f 24aa 833f
00000130: 3108 7c3f 76c2 7f3f 34f7 783f 958d 803f
00000140: d8d8 793f 8749 7b3f 098a 823f 515b 7c3f
00000150: 24b9 773f 0d2d 803f ddbc 813f 4ddd 7a3f
00000160: b709 813f 4a50 803f ffea 813f c4dd 793f
00000170: 0b84 7e3f 6cc1 823f 60af 813f ac9d 7c3f
00000180: f2b3 7a3f b3df 733f f651 833f 1470 803f
00000190: 8952 803f bc6e 813f 2f99 7c3f a7f1 813f
000001a0: 56ab 793f be64 7b3f 34ca 7c3f 43fa 793f
000001b0: 7f0a 7f3f 9d37 733f 01c3 833f ef4c 7e3f
000001c0: 9301 793f 9fd4 7c3f eca1 7d3f 0f84 823f
000001d0: 8220 823f 5183 7a3f d218 813f a71b 7a3f
000001e0: cf8b 863f 48dc 7a3f 5c97 7a3f 7a67 7b3f
000001f0: e3d3 813f 2812 7a3f beaa 7f3f 1c89 7f3f
0.95034516 1.0068775 1.0211135 1.0443231 0.96461874 0.99502593 0.99160266 1.0148698
1.0079937 0.9976387 1.0368373 1.0262032 1.0109094 0.981851 0.9808464 1.0025196
0.9691374 1.0467176 0.96025735 0.9825899 0.983288 0.97609437 0.97556245 0.97879267
0.9988563 0.9813043 1.0024819 1.0209721 1.0152987 0.96228415 1.0209827 0.9915497
1.049439 1.0304991 1.0136214 1.00542 0.97220606 1.038458 0.9686471 1.0061147
0.9683463 1.0019727 0.98696965 1.017153 0.9933934 1.039844 0.98288476 0.9941987
1.0034996 1.0298672 1.0079097 1.0066538 1.0134251 0.9994765 1.0344063 1.0241609
1.0049331 1.0105319 0.9958097 0.9977331 0.9814189 1.0166034 1.0312812 0.96139985
1.0335194 1.0607857 1.0014063 1.0653222 0.9909083 1.0029114 0.98720735 0.9832581
0.9827477 0.9845988 0.96510655 1.0286298 0.9845 0.999061 0.972522 1.0043207
0.975965 0.9815907 1.0198375 0.9857684 0.9676688 1.0013748 1.0135761 0.9799393
1.008109 1.0024502 1.014984 0.9760401 0.9942023 1.0215278 1.0131645 0.9867809
0.97930825 0.9526321 1.0259387 1.0034204 1.0025188 1.0111918 0.9867124 1.0151871
0.9752706 0.98200595 0.9874604 0.97647494 0.9962539 0.95006734 1.0293885 0.9933614
0.9726803 0.98761934 0.990752 1.0196551 1.0166171 0.9785662 1.00857 0.97698444
1.0511416 0.9799237 0.97887206 0.9820477 1.0142788 0.97683954 0.99869907 0.9981859

layers.0.1.bias f4 [128]
00000000: 1606 69bd f4f8 c6ba e4d5 ac3b e488 433c
00000010: be3b 1fbd 5f89 6bbd d520 b8bc c896 a53c
00000020: 3ebc d2bc 8950 a6bc 4a48 133c ce95 923b
00000030: 3a05 abbc 574b 1ebc 52ae d0bc 03ad 62bc
00000040: c711 33bd 92b4 2a3d 4178 0ebd 6519 adbc
00000050: 1e70 02bc 9103 14bd 8a30 e8bc 1e31 cfbc
00000060: 8abb 01bd 4118 dfbc 5e69 e73b 3102 a8bc
00000070: f11f 19bc e0b1 21bd 1385 f4bc d1cd d4bc
00000080: 262e a73a c2eb 7dba 8d40 48bc 0d10 9bbc
00000090: 1783 2fbd 38a4 56bc 27ac 47bd f388 abbc
000000a0: 347b 19bd 3440 253c 9939 c0bc 618f 06bd
000000b0: e4d4 d9bc 7f33 463b f51e a0bc f8a6 1ebd
000000c0: 6651 21b9 c3a6 e7bc 26b9 f03b df21 1ebd
000000d0: 1e81 d5bc 183e 46bd ec77 323c 1f99 1bbc
000000e0: 7928 4cbc 30a1 cabc 2fce 7abd f471 b73c
000000f0: 52ac eabc ee80 603b 0196 8abb 973d d6bc
00000100: c29a 833c 6bad 7c3c c073 a5bc b143 aabb
00000110: a8b1 3cbd 04ba 02bd 7a68 c5bc dae1 4bbd
00000120: 0832 f2bc 033a 04bd 1c19 eebc cd0c c43a
00000130: c6a5 07bd 386d c6bc 67d5 2bbd 3026 8fbc
00000140: b517 0bbd 0631 d8bc 03a5 ec3b 5edb d8bc
00000150: c165 0cbd 50c9 7bbc aa56 d6bc f28b 10bd
00000160: 0b6c 7a3a df28 a0bc 1f99 f0bb 208e d5bc
00000170: 22ab ebbc 7652 e2bc 385b d3bb 349d 25bd
00000180: 290e daba 81f2 64bd 74a6 bebc 5502 c3bb
00000190: b281 19bd 7a75 d0bc 1e34 88bc 5148 30bd
000001a0: 2075 36bd 92f5 5abc c8b4 eebc c443 85bc
000001b0: bc4b b9bc e915 a8bc 4936 d9bc 0ecb 80bb
000001c0: 00f1 d9bc 9188 c3bc 5705 1dbd b969 ecbc
000001d0: 778c 01bd 25dc bcbc cc91 33bc a875 58bd
000001e0: 2376 a03c 8bc8 8ebd 9e4d e2bc ade3 0fbd
000001f0: d4ff 023b 6303 c8bc 861c 5dbc 87b8 88ba
-0.05689057 -0.0015180395 0.005274521 0.011934493 -0.038875334 -0.057504054 -0.022476593 0.0202135
-0.025724526 -0.020302074 0.008989403 0.0044734245 -0.020876516 -0.009661517 -0.025473747 -0.0138351945
-0.043718126 0.04167611 -0.03478265 -0.021130273 -0.007961301 -0.036136214 -0.028343458 -0.025291976
-0.03167299 -0.027233245 0.0070621213 -0.020508857 -0.009345994 -0.039476275 -0.029848611 -0.025977047
0.0012754842 -0.0009686315 -0.012222421 -0.018928552 -0.042849626 -0.013100676 -0.04874816 -0.020939326
-0.03747101 0.010086108 -0.023464965 -0.03285158 -0.026590772 0.0030243096 -0.019546011 -0.038733453
-0.0001538448 -0.02827776 0.00734629 -0.03860652 -0.026062544 -0.04839906 0.010892849 -0.009496956
-0.012460821 -0.024735063 -0.06123179 0.022393204 -0.028646622 0.0034256536 -0.0042293076 -0.026152415
0.016065005 0.015422205 -0.020196795 -0.0051960577 -0.046067864 -0.03191568 -0.02409767 -0.049775936
-0.029564872 -0.032281887 -0.029064707 0.0014957428 -0.03311708 -0.024222001 -0.041951563 -0.017474264
-0.033958156 -0.026390564 0.0072218194 -0.02647179 -0.034276728 -0.015367821 -0.026164372 -0.035289712
0.0009552843 -0.019550739 -0.007342472 -0.026068747 -0.028768126 -0.027627211 -0.006450083 -0.040433124
-0.00166363 -0.055895332 -0.02327273 -0.0059512057 -0.037477203 -0.025446642 -0.016626414 -0.043037716
-0.044545293 -0.013364213 -0.029138938 -0.016267665 -0.02261912 -0.02051826 -0.026515143 -0.003930456
-0.026604176 -0.02386883 -0.03833517 -0.028859006 -0.0316281 -0.023054192 -0.010960054 -0.05284658
0.019587582 -0.06971844 -0.027624901 -0.035129238 0.0019988911 -0.024415677 -0.01349557 -0.001043097

layers.0.1.running_mean f4 [128]
00000000: f8b8 803e f106 66be dda1 0dbe 6b8e 17be
00000010: fa13 67be 6220 8f3e 3c78 cb3c 918f d93c
00000020: 1b45 493e 36c8 d03d f66c 913d 606a 1abe
00000030: 8bd3 f6bd 2d0f 9bbe cad5 29be 8bcc c9bd
00000040: 1683 10be 39f0 a9bd 91b4 e0bd fed4 a03c
00000050: 80ec b83c 9a7e 053e d7d5 d9bd 13fd 55bc
00000060: 73c1 1ebe 4cf3 3fbe c6c2 5b3e d066 333e
00000070: 4b1d 86be 9a81 493e 2b23 803e de41 863d
00000080: d188 423c 7b98 09be b8ed 9dbd e2f8 55bc
00000090: ef1c 933e 52c7 893d a829 89be 1c34 1ebe
000000a0: b43b 6c3e 80ce a53e 9fb0 083c ebbd 5bbd
000000b0: 2906 3dbe 7055 a5bd 5182 33be 1a4a 183e
000000c0: d13f f23d 951f cd3e 2ba3 1a3e b466 35bd
000000d0: a4f0 b03d 3887 bb3d 825f 943d 13ad 933d
000000e0: eddf e1bd 66f3 6ebe e17c 2b3d 865a f43c
000000f0: 43f7 dc3d dce6 903e fa52 503d e75c 663e
00000100: 2e0f c5bc 8136 8f3e fbed a53e 4b15 a03d
00000110: a00a 91bd 60e0 6fbd 08e9 d33d f018 1ebd
00000120: aa31 9fbe 3b56 213d 27ac d63d 5108 4cbd
00000130: 203b b03c d2dd 37be 60f9 b6be b489 63be
00000140: ae95 67be b2b1 f03d 1f90 683e db79 5bbe
00000150: 2962 a63e c271 0bbe 7ac8 5bbe cc51 b13d
00000160: effd ecbc 7e53 5cbe ff17 33be 0cb1 80bd
00000170: c2cf 4c3e 69d4 5d3e cbe2 4fbd 8ebd 99bb
00000180: 8432 3bbe 305f 113e 371f d8bb c9f8 153e
00000190: 74e5 0e3c 8db6 6aba 9731 483e a1c8 14be
000001a0: 34dd 3ebe 59c2 183d 0105 8ebe 0ed0 c93d
000001b0: 502a 1b3e 3176 58be f368 22bd fc3e 93bd
000001c0: 7324 35be 7c5a 093e 572e dbbd 415d 033e
000001d0: d483 8dbd 9d9e b8bd 964f 153e 4291 883e
000001e0: 6ace 733e 0d13 063e 32ed 0a3e 0e7b f0bd
000001f0: 7e3b 4e3d 5710 90be 684d 963e e8b4 fdbd
0.2514112 -0.22463585 -0.13831277 -0.14800422 -0.22566214 0.27954394 0.024837606 0.026557716
0.19655268 0.10194437 0.07100861 -0.15079641 -0.12052067 -0.30285016 -0.1658546 -0.098534666
-0.14112505 -0.08297772 -0.1097194 0.019632813 0.02257371 0.13036576 -0.1063649 -0.013060826
-0.15503483 -0.18745154 0.21461019 0.17519689 -0.26194224 0.19678345 0.2502683 0.06555532
0.01187344 -0.13437073 -0.07711357 -0.013059827 0.28733012 0.067274705 -0.26789594 -0.15449566
0.2306965 0.3238411 0.008342891 -0.053647917 -0.18459381 -0.080729365 -0.1753018 0.14872018
0.11828578 0.40063158 0.15101306 -0.0442874 0.086396486 0.0915665 0.07244779 0.07210746
-0.110290386 -0.23335037 0.04186714 0.029828321 0.10789349 0.28301132 0.050860383 0.22496377
-0.02405509 0.2797127 0.32408127 0.07816561 -0.07082105 -0.05856359 0.103471816 -0.038598
-0.31092578 0.039388876 0.10482054 -0.04981262 0.021512568 -0.17955711 -0.35737133 -0.22220498
-0.22615692 0.11752643 0.22711228 -0.21433203 0.32496765 -0.13617614 -0.21463194 0.0865818
-0.028929679 -0.21516225 -0.17489623 -0.06283769 0.20001128 0.2166306 -0.050753396 -0.004691786
-0.18280989 0.14196467 -0.006595518 0.14645685 0.008721698 -0.0008953594 0.19550167 -0.14529659
-0.1863907 0.03729472 -0.27738193 0.098541364 0.1515286 -0.21138836 -0.03965087 -0.07189748
-0.17689686 0.13413423 -0.10702198 0.12828542 -0.0690991 -0.09014628 0.14581141 0.26673323
0.2380921 0.13093205 0.13567045 -0.11742221 0.050349705 -0.28137466 0.2935593 -0.12388021

layers.0.1.running_var f4 [128]
00000000: 34b0 d83c 6e3b f13b 78df 203c 9627 2d3c
00000010: 9df6 d43c 9b92 683c c06d 623c a1c9 813c
00000020: 403f 9c3c 7511 933c 671d df3b e383 663c
00000030: 7f7c a03c 1708 d03c d11b 8b3c f593 a43c
00000040: 5629 e33c fd0a 113c 09bd 3f3d c185 e23c
00000050: 5eb1 7b3c ddff 983c 550d 943c 8e56 c43c
00000060: 0cc8 173c c245 a83c c638 223d 5b88 a33c
00000070: 7f60 733c 2fdc cd3c 1599 493c 0eaf 2f3d
00000080: 88ec 383c e936 933c fa1e 243c f7ab 423c
00000090: e835 863c 371d 223c aaf3 ae3c 3f47 a03c
000000a0: e6aa 773c 5599 d73c 4ac0 693c d678 e73b
000000b0: 7f44 b03c a1ed 953b 7377 933c 7cd6 363c
000000c0: 5e2a 4b3c 65b9 c53c 8b6d b33c b429 1c3c
000000d0: 22d2 3c3c 8497 0f3c 2e6f 4b3c d9f9 003c
000000e0: a696 973c cadd 063c 1746 133c 0888 643c
000000f0: 63ab 9b3c 1546 123c 2484 5e3c 81b4 043d
00000100: 278e 933c 3c6c 183c 650c f13c 6bb9 5e3c
00000110: 2616 4e3c d1fd 323c e927 d83c d6ba 613c
00000120: 5adb 953c 1395 3c3c 799a 1f3d c60b 1b3c
00000130: 8908 203d 9eba 733c f1f8 543c 1ed6 8c3c
00000140: f674 023d 4a49 be3c 6b52 c03b fa55 fc3c
00000150: f9a2 ab3c 0999 683c 9623 833c c9ef f83b
00000160: 7bdd 1a3c ed32 1e3c 227f 3d3c eca7 873c
00000170: 413f 243c ef7d 913c c30b 393c efd6 f03c
00000180: 93df 9a3c 96d1 393d 1ede 9d3c d9fa 543c
00000190: 1c68 613c 218c 733c 7578 9a3c acdb 9b3c
000001a0: a4a1 223c bdcd b73c 24ee 633c e358 a13c
000001b0: ccd6 823c b8b6 873c 7853 343c f44a 333c
000001c0: 28de 6a3c 58b9 853c 3e02 343c 6745 613c
000001d0: bbd0 183c 9f56 373c ce6e b23c c1f6 ee3c
000001e0: f7f5 0b3c 8572 163c f5b1 a33c 01bd 8e3c
000001f0: 0db6 613c eeb6 093d 3e4e 4b3d f19c b83c
0.026451208 0.007361821 0.009818904 0.01056852 0.0259965 0.01419511 0.013820112 0.015843214
0.019073129 0.01795266 0.006808925 0.01406953 0.019590614 0.025394483 0.016981037 0.020090083
0.027729671 0.0088527175 0.046811137 0.02765167 0.015362112 0.018676693 0.018072763 0.023967054
0.0092640035 0.020541076 0.039604925 0.01996248 0.014854549 0.025129406 0.012304564 0.042891555
0.011286862 0.01797052 0.010017151 0.01188182 0.016383126 0.009894661 0.021356422 0.019565223
0.015116429 0.026318232 0.014267037 0.0070639653 0.021517036 0.0045754467 0.018001294 0.0111595355
0.012400238 0.024136255 0.02190282 0.009531427 0.011524709 0.0087641515 0.012416644 0.007872068
0.018504452 0.00823159 0.008988879 0.013948448 0.019002622 0.008927842 0.0135813095 0.032398704
0.01801212 0.009303149 0.029424855 0.013594012 0.012578523 0.010924772 0.026386218 0.013777455
0.018293072 0.011510151 0.038965676 0.009463256 0.03907064 0.014876036 0.012998805 0.017191943
0.031849824 0.023228306 0.0058692 0.030802716 0.020951735 0.014196643 0.01600818 0.007596944
0.009452219 0.009655696 0.011565955 0.016559564 0.0100248465 0.017760245 0.011294308 0.029399363
0.018905437 0.045365892 0.019270953 0.01299926 0.013757732 0.014864952 0.018856267 0.019025646
0.009926233 0.02243697 0.013911758 0.019695705 0.015971564 0.01656662 0.011006229 0.010943163
0.014335193 0.01632373 0.010986863 0.013749457 0.009327109 0.011190086 0.021781351 0.029170396
0.008542529 0.009182577 0.019982317 0.017424108 0.013776314 0.03362172 0.049635164 0.022535773

layers.1.0.weight f4 [128, 128, 3]
00000000: eccf 8a3d 0224 00bd ce97 173d f167 40bd
00000010: 32bc 3ebc cc5f 63bb 3f0f 56bc afc3 4f3d
00000020: b3d8 a13c 78c0 9cbc 0e41 c03b edb2 8e3c
00000030: 9c17 7bbc 54bf 063c 9fb1 2e3d 97fe 8f3b
00000040: 0e7f 93bc 3c34 de3c 1f84 3fbc 4dfe bebc
00000050: 159c 91bc 0d56 88bb ca58 7a3d c960 253c
00000060: a5f6 333d 9db4 113d 88ae 2bbd 17dc e83c
00000070: 83c5 3ebc 26d8 40bc a0e8 843d 7dad 88bb
00000080: d0fa f83b e2d4 07bd 177c 573d 9a58 ff3c
00000090: b033 12bd c617 323d 92be 983c 93a1 fdbc
000000a0: 81e4 163d b2a4 2a3d d337 7f3c 55a2 02bd
000000b0: 4fc7 6bbc 9c7f 33bc c35b 433d 8dc3 953c
000000c0: 64f7 f1bc 9895 4d3d 5053 553d 5cbe 47bc
000000d0: b723 0b3d ee57 afbc bf91 e33b 5ac4 093d
000000e0: ec2e d5bc 6d67 dcbc 45bc a0b9 787b a93c
000000f0: 6784 fdbc e95e 1dbd b45d 11bc 64fe 0b3c
00000100: e18a 5c3c c148 c13a 374a 903c 4408 89bb
00000110: bfd4 593c 20f4 a7ba 603c 923c 7ab1 5b3d
00000120: 2c87 d0bc 1e26 cabc 0d55 093d d20c 2abd
00000130: 24a7 3d3d 29de 0a3d 1483 e53c e1b3 323c
00000140: 47c1 323b 0b2c 9fbc b49a b7bc 1519 1c3d
00000150: d6e5 44bd ec64 1ebd 5e60 fe39 8283 c43c
00000160: 0ff7 c53c 2e32 a3bc e38e 623b da05 98bb
00000170: ff52 533d 1676 833d aaf8 5f3d 4074 a439
00000180: 5a3c 0f3d 8ee4 15bd db46 313d 2c41 03bd
00000190: 7fb4 1b3d 0480 0dbd 6144 cd3c e895 f7bc
000001a0: 1e9b 093d 5d9a a23c f757 7b3d 98e1 e3bc
000001b0: cf2e 613d af4e fbbc 1be1 d8bc c6a2 e73c
000001c0: 024c aabb 9462 e4bc 8c32 3cbd e482 e9bc
000001d0: 87c7 183d b9b7 2f3d ff62 0b3d 68d1 163c
000001e0: fcf1 f1bb 02d7 b2bc 1053 363d 6218 a4bb
000001f0: 4b5f 0d3c bc47 2ebd 02b5 cdbc 1a68 b13c
00000200: 0c13 d33b d84f 0b3b 2b01 903b c499 f23c
00000210: ac8c cdbc 352f a6bb 8004 423d 2e68 4d3d
00000220: bc6e 493d 3062 4bbd c54a 30bd 1f4f 51ba
00000230: 62aa 483b 90a7 3b3d afee 913d 5e2f 473c
00000240: b5e6 b0bc 0f28 643c 3ba8 fe3c 7a72 243d
00000250: 4dc6 36bc 1076 4e3b cdcd c1bc 4493 2b3a
00000260: 2fb9 fd3c e07c b4bc d1ce e83c cffc 0dbd
00000270: 994c 3d3d 4cbd ed3c 298d 413d 0f02 0c3c
00000280: f6b3 a73c 195e 14bc 767f bfbc 8364 44bd
00000290: f716 1c3d 87a3 26bb 5503 9b3c f371 d0bc
000002a0: 2a6c 883b b372 14bd 8435 ddbc 32e5 413b
000002b0: a70a 13bd c317 8b3c ce40 15bd ce67 423d
000002c0: 0c9f 44bd 8936 853c 0f8f 343d 4168 0dbd
000002d0: 514a 783c 7154 3d3d 72c8 51bc 5df4 4d3c
000002e0: 424f 243d 55e9 573d 4165 3a3d 2594 2fbd
000002f0: 67a4 22bd b379 0fbd 9121 1abc 4af0 a23b
00000300: 7943 11bc b35f 563d 075f c6bc c8e7 d0bc
00000310: 9f1c f9bc 8a87 efbc 5627 883d a5c7 f43c
00000320: 5692 02b9 15cb 5b3b a34b febb 10ee cdbc
00000330: c657 123d e129 4c3d 263f 303d a671 cb3b
00000340: 4016 f3bc 3ea2 01bc 3d4f 823d 3be3 d0bc
00000350: a5e4 703c 3872 66bb e368 693d 09e3 2b3d
00000360: e0ee 8cbc 3a7b 6abd 1e3b a13c 11ae 02bd
00000370: 5b67 2c3c e4cf 153d 622e 1c3d ae4a 143b
00000380: e538 0bbd 000e ffbc ceeb 01bd 2eca 043d
00000390: 22ca 8ebc c487 9b3c bfe0 e8bc ebdf 42bd
000003a0: 31a1 d53c 9c3e 163d 33d8 ab3c 10e6 2d3d
000003b0: 7f45 7ebc 2f0f 28bd 8660 29bd e311 4a3d
000003c0: ad10 a23c 5abf 103d 95be d4bc 4024 e7bc
000003d0: d162 863d 9529 93bc 6af6 a2bc 82ff bb3c
000003e0: 3db7 0cbd bc1f 89bc bff5 8a3c 20b8 313d
000003f0: ca97 843c 1bf0 c5bc 24aa a33c b35d 5f3d
0.06777939 -0.03128434 0.037010007 -0.046974126 -0.011641549 -0.003469455 -0.013065158 0.050723728
0.01975665 -0.019134745 0.00586713 0.017419303 -0.015325453 0.008224327 0.04264986 0.004394363
-0.01800492 0.027124517 -0.011689215 -0.02331462 -0.017774621 -0.0041606487 0.061119832 0.010093876
0.04393639 0.035572637 -0.041914493 0.02842526 -0.01164377 -0.011770284 0.06489682 -0.004171072
0.0075982586 -0.033162005 0.052608576 0.031170178 -0.035693824 0.043479703 0.018645559 -0.030960834
0.036839012 0.041660972 0.015577274 -0.031893093 -0.014390781 -0.010955717 0.047694933 0.018281722
-0.02953691 0.05019149 0.052081406 -0.012191381 0.033969607 -0.021404233 0.0069448645 0.03363452
-0.02602335 -0.026904786 -0.0003065785 0.020688757 -0.030946923 -0.03842059 -0.008872438 0.008544538
0.013460846 0.0014746414 0.017613513 -0.0041818935 0.0132953515 -0.0012813844 0.017851055 0.05363605
-0.02545508 -0.024676379 0.033528376 -0.041516133 0.046301976 0.033903275 0.028016604 0.010907144
0.0027275847 -0.019430181 -0.022412635 0.038109858 -0.04807075 -0.038670465 0.00048518454 0.023988489
0.024165658 -0.019921388 0.003457003 -0.0046393694 0.051592823 0.064190075 0.054680504 0.0003136713
0.034969665 -0.03659492 0.043280464 -0.032044575 0.03801393 -0.034545913 0.02505702 -0.030222848
0.033595197 0.019848997 0.061363187 -0.027817532 0.05497628 -0.030677168 -0.026474526 0.028275859
-0.005197049 -0.027879037 -0.045946643 -0.028504796 0.03729966 0.04289982 0.034029957 0.0092052
-0.007383583 -0.02183104 0.04451281 -0.0050077895 0.008628677 -0.04254888 -0.025110725 0.021656085
0.0064414795 0.0021257307 0.0043946705 0.029614337 -0.025091492 -0.0050715455 0.047367573 0.05014818
0.04917787 -0.049654186 -0.043040056 -0.0007984507 0.0030619134 0.045814097 0.071256034 0.012157289
-0.021594385 0.013925566 0.031086078 0.040148236 -0.011155677 0.0031503476 -0.023657704 0.00065450766
0.030972091 -0.022032201 0.02841893 -0.034664925 0.046215627 0.029020928 0.04725376 0.008545413
0.020471554 -0.009055638 -0.023376208 -0.047947418 0.03810784 -0.002542706 0.018922487 -0.02544496
0.004163285 -0.0362422 -0.027003057 0.0029586074 -0.03589883 0.016979104 -0.036438756 0.047462277
-0.04800324 0.016261356 0.044081744 -0.034523252 0.015154437 0.046223108 -0.012804138 0.012570468
0.04011465 0.052712757 0.04550672 -0.04286589 -0.039707568 -0.03502817 -0.009407417 0.0049724923
-0.008866184 0.05233736 -0.024215234 -0.025501147 -0.030409155 -0.029239435 0.06648128 0.029880354
-0.0001245228 0.0033537794 -0.0077604814 -0.025137931 0.03572824 0.049844626 0.043028973 0.0062086163
-0.029673696 -0.007912217 0.0636277 -0.025498977 0.014702951 -0.0035163295 0.056984793 0.041964564
-0.017203748 -0.057246424 0.01968151 -0.031904284 0.010522689 0.036575213 0.03813017 0.002262752
-0.033989806 -0.031134605 -0.03171902 0.032419376 -0.017430369 0.018985637 -0.02842748 -0.047576826
0.026077839 0.036680803 0.020977115 0.042455733 -0.015519499 -0.041030105 -0.041351818 0.049333464
0.019783342 0.035338737 -0.025969783 -0.028215528 0.065618165 -0.017964164 -0.01989289 0.022948984
-0.034354437 -0.016738765 0.016962884 0.043388486 0.01618566 -0.024162343 0.01997859 0.054532718

layers.1.0.bias f4 [128]
00000000: 8ef5 bb3c 2c83 493d e387 06bd b9f2 383c
00000010: 8fce cd3c 93ef c4bb 57e8 eebb 3028 033d
00000020: 6a46 1f3c 2507 45bd 6619 16bd 019b 2c3c
00000030: 2577 cfbc 8995 1b3d c84d 54bd 98e9 f7b9
00000040: b4f6 ed3b 2f7f 3abd 917c 04bd d640 ba3c
00000050: 21cd c43c b863 9bbc e558 03bc 6bdd 343c
00000060: 8df3 39bd d231 b23c 013d c33c b334 86bc
00000070: 69b2 c3bb 5c77 07bd f32b 363d ad3a 19bb
00000080: c77d 52bd 6530 4dbc e371 6ebc bebb 11bd
00000090: e8ef cd3c f97d 07bd ea5f 2f3b a131 d63c
000000a0: a757 b13c c5e1 3b3d 73fb 39bd d359 bfbb
000000b0: dc01 c8bc a8b4 c53c f133 40bd 0c87 213d
000000c0: d266 843b 192c c6bc 41dc b4bc 0b75 9cbc
000000d0: 27eb 3e3c ce46 d9bc b287 253d 29a8 363d
000000e0: 72cd 03bc 2eb4 8dba e92e c43b ff95 9fbc
000000f0: 61bb 7a3c e743 3cbd 9659 f5bc 0883 32bc
00000100: 65b8 373c c5fa 34bc 0a1a e1bc 2a67 32bd
00000110: 2c44 e53c d06f 4e3d a286 9bbc 3336 043c
00000120: ec27 f03c 1ec5 2bbd 80ef 403d 389a 663c
00000130: 7aa2 2c3d 3806 273c 6d92 393d 7817 3bbd
00000140: 2aa2 d2ba 95ad eabc 0e20 34bc f9c1 1b3d
00000150: f88c 34bc 0190 96bc 9dd8 363d 8439 eabc
00000160: 6050 003d 630c 2cbd df8e 1cbd f5c1 f0ba
00000170: 3829 3bbd 9023 213d 00f2 1abd 4123 0f3d
00000180: e4d4 9ebb a566 5d3c bab8 1ebd 2cd2 05bd
00000190: ac28 00bd 2c0a b2bc ef04 143d cbad a6bc
000001a0: 1e8f baba 797a 133d 1e53 05bd af77 a5bc
000001b0: 44c6 46bd 4b93 47bc 72bf ca3c 3f72 23bd
000001c0: f0c3 3bbd 08f3 5a3d 0834 3d3d efd2 2c3d
000001d0: 73c3 123c 3f0e 16ba c0a0 cebc cdf4 1d3d
000001e0: 1e41 ddbc 2e15 3b3d 88af 0cbd 3c94 43bd
000001f0: d007 413d 7028 913c b8d2 88bc 8de5 41bd
0.022944238 0.04919736 -0.032844435 0.011288338 0.025122909 -0.006010005 -0.0072908807 0.032020748
0.009721378 -0.048102517 -0.036645316 0.010535003 -0.025325367 0.037984405 -0.05183199 -0.00047285552
0.0072620753 -0.045531448 -0.03234536 0.022735994 0.024023594 -0.018968448 -0.0080168 0.011039118
-0.045398284 0.021752272 0.0238328 -0.01638255 -0.005972196 -0.033072814 0.044475507 -0.002338092
-0.051389482 -0.012523745 -0.01455352 -0.035579436 0.02513881 -0.03307912 0.002676005 0.026146712
0.021648241 0.045869607 -0.045405816 -0.0058395653 -0.02441495 0.024133995 -0.046924535 0.03943543
0.0040405774 -0.02419095 -0.022077681 -0.01909878 0.011652744 -0.02652302 0.040412612 0.044593964
-0.008044587 -0.0010811144 0.0059870374 -0.019480703 0.015303464 -0.045963194 -0.029949944 -0.010895498
0.011213397 -0.011046116 -0.027478237 -0.043555416 0.027986608 0.0503996 -0.018985096 0.008069563
0.029315911 -0.041936032 0.047103405 0.014074855 0.042147137 0.010194354 0.045305658 -0.04567668
-0.0016070057 -0.028647223 -0.010993971 0.038026784 -0.011019938 -0.018379213 0.044640172 -0.028591879
0.03132665 -0.042004 -0.03822219 -0.001836835 -0.045693606 0.039340556 -0.037828445 0.03494573
-0.004847156 0.013513242 -0.038750388 -0.03267114 -0.031288788 -0.021733366 0.036137518 -0.020346543
-0.0014233326 0.03600547 -0.03254997 -0.020198671 -0.048528925 -0.0121811135 0.024749491 -0.039903875
-0.045841157 0.05345443 0.0461922 0.04219335 0.008957732 -0.0005724169 -0.025223136 0.03856354
-0.02700859 0.045674495 -0.034347087 -0.04774879 0.04712659 0.017719477 -0.016702041 -0.047338057

layers.1.1.weight f4 [128]
00000000: 6862 7d3f 6537 843f 7d80 7d3f 92bf 773f
00000010: 3944 813f b374 783f 0dbc 7c3f 043a 803f
00000020: e110 813f dc48 7a3f 6939 803f d60c 7c3f
00000030: 54f1 833f 1773 813f d566 803f 7b01 7e3f
00000040: 5feb 843f 1981 803f 003b 7f3f ec2a 7e3f
00000050: 8dc9 813f 4fbb 813f 215a 7d3f 583e 803f
00000060: fb04 7e3f 9006 803f b254 803f 06e3 813f
00000070: 5e8f 7c3f 0f9f 813f c4a2 803f a60c 7c3f
00000080: ca41 7d3f 3f45 813f eebf 803f 6966 813f
00000090: 7396 803f bb90 7e3f 8a23 843f 1a80 833f
000000a0: 90d5 813f 2d08 7e3f 50bf 823f bbac 7f3f
000000b0: e027 813f 2a51 813f c744 7e3f b4be 813f
000000c0: 2fb3 803f 84c2 7f3f 6cd5 7e3f 69af 7c3f
000000d0: 3f3d 7c3f a0b5 813f de5a 853f aa58 813f
000000e0: 87eb 803f efd1 803f be6e 813f 58a2 803f
000000f0: 3d2b 833f 2fd3 7d3f a4e4 7c3f 6978 843f
00000100: 7b0c 803f e96a 7c3f 67a3 803f dd77 7c3f
00000110: 856a 7d3f 9047 7a3f 2e4a 7d3f 845a 823f
00000120: e36e 7d3f 13e8 7e3f d1d3 803f 49b1 7f3f
00000130: c1c6 7b3f c1d0 7a3f 3237 7c3f 7d85 803f
00000140: 7986 803f 7ee8 803f d0f3 7e3f c76f 813f
00000150: 6114 7d3f 7689 823f 7678 7e3f 077e 7d3f
00000160: b88e 7d3f 178e 823f 75e3 7d3f b820 803f
00000170: c341 803f cb00 7f3f 3828 823f 6727 813f
00000180: a8b6 7d3f 245a 793f e2ac 833f 290b 7e3f
00000190: 1efc 7f3f 9032 803f f731 803f 77c3 7e3f
000001a0: afb3 7c3f a524 803f 07ea 853f 4d17 7f3f
000001b0: a1e2 823f b41a 803f da99 7f3f c70f 7d3f
000001c0: eaea 813f 571b 843f aad9 7d3f 3698 7a3f
000001d0: 14ea 7e3f ee3c 7f3f 929d 7f3f 5cc3 803f
000001e0: bb1d 813f 689b 823f 25ce 793f 73ed 7d3f
000001f0: 39ab 773f 4191 7f3f 1fa7 803f ace0 7b3f
0.9897828 1.0329405 0.9902418 0.9677669 1.0098945 0.9705307 0.9872444 1.0017705
1.0083276 0.97767425 1.001752 0.98457086 1.0308022 1.0113248 1.0031382 0.9922101
1.038433 1.0039397 0.996994 0.99284244 1.0139633 1.0135287 0.9896565 1.0019026
0.9922635 1.0002003 1.0025847 1.0147407 0.9865626 1.0126666 1.0049672 0.984568
0.9892851 1.0099257 1.0058572 1.0109378 1.0045913 0.9943959 1.0323346 1.0273468
1.0143299 0.99231225 1.0214634 0.9987294 1.0090294 1.0102894 0.99323696 1.0136323
1.0054682 0.9990618 0.99544406 0.98705155 0.98530954 1.0133553 1.0418355 1.0105183
1.0071877 1.0064067 1.0111921 1.0049543 1.024757 0.99150366 0.9878638 1.0349246
1.0003809 0.9860063 1.0049866 0.98620397 0.9899066 0.97765446 0.98941314 1.0183873
0.98997325 0.9957287 1.0064641 0.9987989 0.9835015 0.97974783 0.9852172 1.0040737
1.0041038 1.0070951 0.9959078 1.0112237 0.9885922 1.01982 0.9940256 0.9902043
0.99045897 1.0199612 0.99175197 1.0009985 1.0020069 0.99610585 1.0168524 1.009015
0.99106836 0.9740317 1.0287135 0.9923578 0.99994075 1.001543 1.0015248 0.99517006
0.98711675 1.0011183 1.0462044 0.9964493 1.0225412 1.0008149 0.99844134 0.988522
1.0149815 1.0320843 0.99160254 0.97888505 0.99575925 0.99702346 0.9984981 1.0059619
1.0087198 1.0203676 0.97580177 0.99190444 0.9674564 0.99831015 1.0051001 0.983897

layers.1.1.bias f4 [128]
00000000: b532 b2bc a316 133c 4010 adb9 e98b 14bd
00000010: 85a4 abbb 6d6e 68bc 5596 68bc c60b 03bc
00000020: 6eb9 cc39 2598 acbc 0653 bebb 985d 0dbc
00000030: 932a 323c 9ce4 863b 845d 89bc 543d bfbb
00000040: 1d42 f03b c922 6fbc e191 86bc 7684 c4bc
00000050: 19bc 90bb 72bf 15bc 05c6 96bc d232 5ebc
00000060: 6c4c 6abc 74f0 84bc ea3d bb3a 7c34 81bc
00000070: a7bf 8abc 7974 a8bc 2103 84bc f510 e1bc
00000080: 697d 6dbc e077 e6ba c7db e1bb 47a4 fabb
00000090: 0b64 84bc d7e9 68bc fcde c33b 1410 d039
000000a0: 7be0 ebbb 6128 7ebc d4e4 4b3c 3c5b 72bc
000000b0: 459e 0ebc b373 153a e1e2 1abc d5db 7fbb
000000c0: 7953 90bc ecc6 8bbb ab72 53bc 9c27 b8bc
000000d0: eea1 c8bc 2692 d9bb 65d5 333c 92e3 f0bb
000000e0: 6e2a 21ba de61 53bc fdb7 d9bb 2423 8f3b
000000f0: 551c dabb 0979 cfbc 4e07 55bc 9638 3a3c
00000100: 35d0 84bc 0463 8fbc adcb e5bb 2427 16bb
00000110: 581e d6bc 39ce d7bc 959f d7bc 5515 1cbc
00000120: 9c98 85bc 6bed 98bc 6f0f 1cbc 8300 94bc
00000130: 866d 03bb a92a 00bd 7c52 94bb 8a98 89bc
00000140: 688a 58bc 1798 8c3a 4b04 3cbc 6698 8dbb
00000150: f853 93bb 2af9 f9bb 064d bdbb c346 cdbc
00000160: 9126 30bc 01bc b63b 03ef cdb8 3664 cdbb
00000170: 962a 40bc e141 35bc 3c89 12bc b3eb 4cbc
00000180: 3b0f a7bc 732d 98bc 249e aa3b bd33 5d3b
00000190: f5c7 95bb dd03 39bc de35 27bc cacb 6dbc
000001a0: c197 c0bb 6f8b c5bc 71ef 743c bbfa 90bc
000001b0: 3497 8ebc ae65 05bc e2f6 093c 6567 81bc
000001c0: 485b 6b3c 8217 a1bc 6ec2 78bb 77bf 53bc
000001d0: e6d8 98bc 3877 00bc b8f1 39bc 5737 22bc
000001e0: 2adf 56bc 4026 15bc 67a7 e8bc 2b79 72bc
000001f0: 26ba c4bc 3404 a9bc 1671 13bc bb7e 63bc
-0.021752695 0.008977565 -0.00033009239 -0.03626624 -0.005238118 -0.014186484 -0.014195998 -0.0079984125
0.00039048068 -0.021068642 -0.005808237 -0.0086282715 0.010874408 0.004116608 -0.016768225 -0.0058361683
0.0073321 -0.014595696 -0.016426982 -0.023988944 -0.0044169542 -0.009139882 -0.01840497 -0.013561921
-0.014300447 -0.016227938 0.001428542 -0.015772097 -0.01693709 -0.020563351 -0.016114773 -0.027473906
-0.014495232 -0.0017583333 -0.0068926546 -0.007648978 -0.016160985 -0.014215908 0.0059775095 0.0003968483
-0.007198391 -0.015512557 0.012444694 -0.01479226 -0.008704727 0.00057011395 -0.009453506 -0.0039040942
-0.017617928 -0.0042656567 -0.012905757 -0.022479825 -0.024491277 -0.0066397367 0.01097617 -0.0073513472
-0.0006147985 -0.012901751 -0.0066442476 0.0043682028 -0.0066562095 -0.025326269 -0.01300223 0.01136603
-0.016212562 -0.017503269 -0.0070128054 -0.0022911513 -0.026137516 -0.026343452 -0.026321212 -0.00952657
-0.016308121 -0.018667897 -0.009525164 -0.01806665 -0.0020054295 -0.031290684 -0.0045264345 -0.01679637
-0.013216592 0.0010726479 -0.011475633 -0.004321146 -0.004496094 -0.0076285796 -0.005777004 -0.025058156
-0.010751382 0.005576611 -9.819681e-05 -0.0062680496 -0.011728903 -0.01106307 -0.008943852 -0.012507367
-0.020393005 -0.01857636 0.00520684 0.0033752762 -0.004570956 -0.011292425 -0.010205714 -0.014513919
-0.0058774655 -0.024114339 0.014949665 -0.017697683 -0.017406084 -0.008141918 0.008420678 -0.015796373
0.014365025 -0.01966453 -0.0037957686 -0.012924067 -0.018658113 -0.007840924 -0.011349134 -0.009900889
-0.01311473 -0.009103358 -0.028400136 -0.0147993965 -0.024014544 -0.020631887 -0.00899913 -0.013885195

layers.1.1.running_mean f4 [128]
00000000: 98fd 133f 6c91 163e 0230 fdbe 03d0 183f
00000010: a6b5 713f 6de7 76bd f8d0 2a3f 524f 1f3f
00000020: bd45 633e 4653 81be 8ae2 0b3f cacb 6fbf
00000030: a5c5 f83d 8b17 3c3e 0167 803f aa70 4dbf
00000040: 4636 ce3e f3f7 633e f7f7 e53e b1a0 503f
00000050: 1ccc 453f fd0d 5a3f c508 313f 2715 553f
00000060: faa8 e83e d0cc 6c3f 2f19 8abf 697d 5f3f
00000070: adac 8e3e 4a33 463f d4f3 263f 3d58 f83e
00000080: 80fa f2bc 8adf 353f bd04 0b3e 8dbd 5b3f
00000090: 6b12 353f 9be0 ec3e d470 613f dbb8 cbbe
000000a0: 17a9 c03d 04c3 493f 9afc 54bf 1e02 843f
000000b0: 14c8 d23e 6c35 643e cdcb 3c3f 27c5 6a3f
000000c0: 5422 913f 84cd f0be fbad d63e eba1 fd3e
000000d0: 7d7b 6b3f 38fb 0f3f ad5a c33e 0640 6f3f
000000e0: e7c9 4d3f 1ecb 7c3f 6a49 503f 10a4 5c3e
000000f0: ace1 113f 8268 4a3f 02db 603f e18b 043f
00000100: 8ecc 1b3f 384a 9d3e 61ac 933e d9c8 1cbf
00000110: a2bb 8f3f c242 453f d2b4 2b3f eadc 303f
00000120: 6ba3 6a3f 5ca3 543f 84b9 de3e 876e 4d3f
00000130: e3d2 74bf d2f5 0a3f b16e b23e 3c4b 8d3f
00000140: a5a7 f83e 7d3b db3d 04b8 5fbf 4e3b 613f
00000150: efd4 323e f47e 323f da38 4cbf 4338 1b3f
00000160: af9c 1a3f 34c7 323f 3ed9 ea3e 7f19 42be
00000170: 32a2 2e3f c084 c23c ebf7 953e bc0a 9d3f
00000180: 23c4 0a3f b539 39bf bb0c ab3e e62e 54bf
00000190: 589d 14be 74fe 293f 2979 133f b461 513f
000001a0: 80c5 85bf c17f 493f 07b2 733e fd59 293f
000001b0: d914 703f 617e 8f3e b3b0 b7bf a969 f8be
000001c0: 54fe 41bf 7da3 343f 14af a1bf 6372 58bf
000001d0: e051 363f aabe 6c3e f3e3 003f 1f78 173f
000001e0: 06f1 293f de37 973f 34ab 8e3d c4ed 103f
000001f0: 5573 8e3d b28d 703f d875 153f 8da6 97bf
0.5780883 0.14703912 -0.4945069 0.596924 0.944178 -0.0602793 0.6672511 0.6223041
0.22194572 -0.25258845 0.54642546 -0.9367033 0.12147073 0.18368356 1.0031434 -0.80250037
0.40275782 0.22262554 0.44915745 0.81495196 0.7726457 0.85177594 0.69154006 0.832354
0.4544142 0.9250002 -1.0788935 0.87300736 0.27866116 0.7742201 0.652158 0.4850482
-0.029660463 0.7104422 0.13576026 0.85836107 0.7073123 0.4626511 0.8806279 -0.3978947
0.09407251 0.78813195 -0.8319794 1.0313146 0.41168272 0.22286004 0.73748475 0.9170708
1.1338601 -0.47031796 0.41929612 0.49537596 0.91985303 0.56242704 0.38155118 0.93457067
0.80386204 0.9874743 0.8136202 0.2154696 0.5698497 0.79065716 0.8783418 0.5177594
0.60859 0.30720687 0.28842452 -0.6124397 1.1229136 0.7705499 0.67072785 0.6908709
0.91655606 0.83061767 0.43500912 0.80246776 -0.9563429 0.5428134 0.34850076 1.1038585
0.48565403 0.10704706 -0.8739016 0.87981117 0.1746404 0.69724965 -0.7977425 0.60632724
0.6039533 0.6983521 0.45868868 -0.18955038 0.6821624 0.02374494 0.2929071 1.2268901
0.5420553 -0.7235368 0.3340815 -0.8288406 -0.14513147 0.6640389 0.5760675 0.8178971
-1.0450897 0.7871056 0.23798381 0.66152936 0.9378181 0.28026107 -1.4350799 -0.48518112
-0.757787 0.70561963 -1.2631555 -0.8454954 0.7121868 0.23119608 0.5034782 0.59167665
0.663834 1.1813924 0.06966248 0.566128 0.069555916 0.9396621 0.5838294 -1.1847702

layers.1.1.running_var f4 [128]
00000000: 9718 093f 1753 1d3e e2fb 0e3f 076c 5b3e
00000010: c0cc 583f a973 dc3e 13da a73e b5f0 e63e
00000020: 5f13 9b3e ce91 8e3e d107 aa3e 7507 2e3f
00000030: 40f5 7f3e 0682 283e b964 ea3e 8c84 1d3f
00000040: 66a7 973e ae64 083e 397c ae3e de57 983e
00000050: 069a f33e fb0c 6e3e c3ec c73e 5648 153f
00000060: 5761 8f3e 577a c83e dd95 023f be0a 0c3f
00000070: 6568 c23e f7e1 b73e 2e77 5d3e bece f53e
00000080: 16da 243e 807d db3e f269 7e3e f44d 233f
00000090: f56a f03e 0972 e83e a31e 9b3e b150 893e
000000a0: 8a49 573e 7bdd f53e 19f7 4d3f 817c e83e
000000b0: fdcc 883e ce03 973e b715 cf3e cbdc 213f
000000c0: 0cb1 113f 6036 4c3f 155c 843e 02cb 9d3e
000000d0: ad00 d03e 300c c43e cc14 903e d1ba 073f
000000e0: aa30 113f 86bd 443f 1094 dc3e 1cd9 8c3e
000000f0: 46a2 173e 4fdb 1a3f 65aa d53e 1de7 593e
00000100: f4b7 183f 8260 9f3e be89 9e3e 5637 8a3e
00000110: 9f55 843f dac3 f43e 5ce9 f13e e09e 003f
00000120: 9b04 e33e 862e 443f f130 513e efb8 aa3e
00000130: bee9 713f 1f58 e23e 631f 4c3e 3726 f03e
00000140: 221f 8e3e d409 0c3f 0ab8 153f 1cf5 c23e
00000150: 45a6 7a3e 2c0b 603e ec06 0c3f 4abd 0a3f
00000160: 4a96 e43e 054b 3a3f efa4 9e3e 436c a93e
00000170: 2b24 bd3e 9af7 eb3e a9ff 9c3e a4f3 163f
00000180: 9a57 aa3e d21b eb3e 839e 293e 86ca c43e
00000190: 10a8 a43e 461d 9a3e b7ab be3e 08bf 103f
000001a0: 24c9 263f 28d6 e33e a9a0 923e 8d3c 1a3f
000001b0: d7be 883e 4f92 873e d71c af3f 33f6 b53e
000001c0: 96f9 1c3f 7bb9 183e a736 863f 6e5a 0f3f
000001d0: 70bf 003f b9b0 b53e c4d3 7d3e f262 703e
000001e0: c5eb 463e c632 583f 03bf b23e 45d4 a23e
000001f0: 4ca3 b03e e52a 023f bcb6 c53e 703b 8b3f
0.53553146 0.15363728 0.5585309 0.21427928 0.84687424 0.43056992 0.32783565 0.4510552
0.30288216 0.27845615 0.33209088 0.6798013 0.24995899 0.1645585 0.4577997 0.61530375
0.29619902 0.13319656 0.3407915 0.29754537 0.47578448 0.23247139 0.39047822 0.583135
0.28003952 0.39155838 0.51009923 0.5470389 0.37970272 0.35914585 0.21627495 0.48009294
0.16098818 0.42869186 0.24845102 0.6379082 0.46956602 0.45399502 0.3029681 0.26819375
0.21024147 0.4802054 0.80455166 0.4540749 0.26718894 0.2949509 0.40446255 0.6322753
0.5691078 0.7977047 0.25851503 0.30818945 0.40625516 0.38290548 0.28140867 0.53019434
0.5671488 0.7685169 0.43081713 0.2750939 0.14807996 0.6049089 0.41731563 0.21279569
0.5965569 0.31128317 0.30964464 0.26995343 1.033863 0.47805673 0.47248352 0.50242424
0.4433945 0.7663349 0.20428826 0.33344218 0.9449729 0.44207856 0.19933848 0.46904156
0.27758127 0.54702497 0.58483946 0.3807763 0.2447749 0.21879262 0.5469806 0.5419508
0.4464591 0.7277072 0.3098521 0.3309041 0.36941656 0.46087343 0.30663803 0.58965516
0.3326996 0.45919663 0.16564374 0.38435763 0.32159472 0.3010046 0.37240383 0.5654149
0.65150666 0.44499326 0.286382 0.60248643 0.267081 0.26478812 1.3680676 0.35539398
0.6131834 0.14914505 1.0485429 0.5599736 0.5029211 0.3548639 0.24787813 0.23475245
0.19425876 0.84452474 0.34911355 0.31802574 0.34499586 0.508467 0.38615978 1.0877514

layers.2.0.weight f4 [128, 128, 3]
00000000: c691 f0bc 704a 9e3c c06f 11bd d162 30bc
00000010: a989 aa3c 2aec 92bc 1da5 53bd e90f 8ebc
00000020: 3dce a0bc a8f6 b53c d2ad 5f3d f437 513c
00000030: 8196 3ebc e572 0fbd 1103 f6bc a7d7 fe3c
00000040: 8f84 10bd c3e8 293d 41b7 b63c abde febc
00000050: f321 f1bc 3fd3 483d e6b5 953a c622 333d
00000060: fabe 833c 45b6 4c3d d3db 88bc 234a b33b
00000070: d0b3 b73b ca36 343d 3a99 0cbd a7df fdbc
00000080: ff66 453d 3521 33bc 151b 463d e485 803d
00000090: 9867 893b ba97 c3bc 72d0 8b3c c2a6 8b3c
000000a0: aad0 d5b8 2902 e53c e286 113d 6649 7ebc
000000b0: 683e 353d 492c 11bd 4c7c 573c a5b3 143d
000000c0: 81a9 24bd 4c29 4e3d 97f0 483d cd8e 8ebc
000000d0: b647 91bc 0bcd 8f3c 5246 9b3c 0928 033c
000000e0: b713 793c f193 de3c dfcd 3a3d d04d bf3c
000000f0: 82e0 49bc 3fec 963b 1f7f 03bd 5535 84bc
00000100: fe85 743d 1e30 dbbc c84d b2bc db93 233d
00000110: 61dc 633c f647 8fbc 119d debc 95b8 84bc
00000120: 120c 413c 7caa 323d 93d2 d93c 2339 dd3c
00000130: 8d3b a8bc d812 393d 4656 b3bc eac7 3e3d
00000140: 2235 febb 62c1 5a3d 3e67 92bc 1e8b f5bc
00000150: 4806 3fbd 00f9 583d bc94 8f3b 5124 afba
00000160: cc46 063a e326 b73a 6284 05bd 812c bebc
00000170: d37a 773d 8517 c9bc 5da1 f93b adb9 223d
00000180: 1d18 3d3d d49e 073d 0b9c 0f3d 4f02 47bd
00000190: 572b 803c 2452 393d aec8 d43b 6905 84bc
000001a0: b8bc 3e3d 02d6 7f3b dae4 993c 0d9f eb3c
000001b0: ffd7 2abd 7982 733d 3aa7 d63b 96f7 6b3d
000001c0: 2564 f3bb ccf6 653d 9f56 e73c 6236 fdbc
000001d0: 1127 18bd 1f8d 243d 5527 a43a 5386 0c3d
000001e0: b9be 583b ac87 023d e0f7 003d 389f 28bd
000001f0: 3530 9e3c ffce f73c ae13 28bb 5193 e5bc
00000200: ed05 983c ab72 33bd 3159 61bc 0cd7 d53c
00000210: 132c c1bc 4722 6fbb e909 a13b 6bd7 bcbc
00000220: dbd3 293d f4da 95bc c140 d43c d93a a239
00000230: ff7c 16bd 1237 a6bc f7ff 233d dd41 443d
00000240: 8583 03bd b60a 503d 0a24 f3bc 5cec cbbb
00000250: 71bb 003d 4be1 f2bb 07f8 203d b106 9b3c
00000260: b586 2c3c 6005 b9bc 0e5a 083d 23c3 1a3d
00000270: 7ae5 81bc 5ca5 b1bc f2f3 573d e6d7 2e3d
00000280: b09d d93c 93f5 d03c e58b a53c c68e 8a3c
00000290: eb3c 5c3d 1eae cf3c 23f8 deba 5592 363d
000002a0: aeb2 2e3d 6dd8 9d3c 1440 8d3c 0003 523d
000002b0: 1fd2 d0bb 9cdc 0f3c fff2 bfba 6127 243d
000002c0: eb53 eabb bafe af3c 5caf 583b 6eae 733d
000002d0: 4af7 003d 9998 823c c029 c33c 687b 1ebd
000002e0: c69f 353d 7cc2 193c 0582 74bc 0354 0f3d
000002f0: 7ad7 0abc 971c 6ebc 1593 803d 6b0f 103d
00000300: 9e1c 06bd 629a 843c 0ece f63b 2e44 5ebd
00000310: cf3f a13c 2122 473d bcba b8bc 8a18 e83c
00000320: badc ad3c 4be2 6cbc 2321 92bb 594b 543d
00000330: 9cfc 30bd a53a acbc c5bc 833d bde7 2a3d
00000340: 1523 743d 85aa 0ebc 345d 793c 0d89 1b3d
00000350: 9923 02bd 7d49 bf3c 23bd 533d ac56 673c
00000360: 9cac ef3c 253a 283c 9435 c63c a490 f139
00000370: b3a6 b0bc 912a 973c 6619 353d c50b 133d
00000380: 9dc6 393d 0e42 803b df79 bebc 4739 4a3c
00000390: 68e7 6cbd 1be3 6a3d a1c9 00bd 21e4 963c
000003a0: 45f4 403d dee4 673d ec95 ff3b aaea b73c
000003b0: 437a afbb 0b43 4a3d f152 183d 6b03 7a3d
000003c0: 9142 043c bf16 a1bc 46e8 293d 4d76 fdbc
000003d0: ee36 eabc 0834 2c3d a529 a8bc 2748 373d
000003e0: 8237 5a3d 86f2 993c 4109 af3c 99b6 f43a
000003f0: ea71 513c e160 483d 19cf 01bd f55b a23c
-0.029366385 0.019322604 -0.035506964 -0.010765747 0.020817595 -0.017934877 -0.051671136 -0.01734157
-0.019629592 0.022212341 0.054609127 0.012769688 -0.011632563 -0.03502168 -0.030030759 0.03110869
-0.035282668 0.041481744 0.02230418 -0.031112036 -0.029435134 0.049029585 0.0011422008 0.043734334
0.016082276 0.049978513 -0.016706383 0.0054714843 0.005606152 0.043997563 -0.034325816 -0.030990435
0.048193928 -0.01093321 0.04836567 0.062755376 0.0041932575 -0.02387606 0.017067168 0.01704729
-0.00010195498 0.027955132 0.035529025 -0.015520429 0.04424897 -0.035442624 0.013152193 0.036304135
-0.040200714 0.050332353 0.04905757 -0.017402077 -0.01773439 0.017553827 0.01895443 0.008005151
0.015202454 0.027170153 0.04560649 0.023352534 -0.012321593 0.0046057994 -0.032103654 -0.016138712
0.059698097 -0.026756343 -0.021765605 0.039935928 0.013907523 -0.017490368 -0.027174504 -0.016201297
0.011782663 0.043619618 0.026589667 0.027004784 -0.020536209 0.045183986 -0.021891724 0.04657737
-0.007757799 0.05340708 -0.017871495 -0.029973563 -0.04663685 0.05297184 0.004381744 -0.0013362264
0.0005122244 0.0013973381 -0.032596953 -0.02321458 0.06041987 -0.024547348 0.007618113 0.039727855
0.046165574 0.033110455 0.035060924 -0.048586186 0.015645666 0.04524435 0.0064936494 -0.016115861
0.046566695 0.003903747 0.018785883 0.028762365 -0.041709896 0.0594506 0.0065506967 0.057609163
-0.0074277096 0.056143567 0.028239546 -0.03090972 -0.03714663 0.040173646 0.0012523929 0.03430779
0.0033072664 0.031867668 0.031486392 -0.041167468 0.019310096 0.03025007 -0.0025646496 -0.028024347
0.018557513 -0.043810528 -0.013754175 0.026103519 -0.023580587 -0.0036488937 0.0049145115 -0.023051938
0.041461807 -0.018292882 0.025909783 0.00030942893 -0.0367403 -0.020289931 0.04003903 0.047914375
-0.03210785 0.050791465 -0.02968027 -0.0062232446 0.031428758 -0.007412111 0.039299037 0.01892409
0.0105301635 -0.02258557 0.033289008 0.037783753 -0.015856493 -0.021685295 0.05272288 0.042686366
0.02656445 0.025507724 0.020208308 0.016913783 0.053769033 0.02535158 -0.0017011206 0.044573147
0.04265087 0.019268239 0.017242469 0.051272392 -0.0063727046 0.008780625 -0.0014644562 0.040076617
-0.007151117 0.021483768 0.0033063507 0.05949252 0.031485833 0.015941905 0.023823619 -0.038691908
0.044341825 0.009384748 -0.014923577 0.03499223 -0.008474225 -0.014533184 0.06278054 0.035170954
-0.032742135 0.016186897 0.007531888 -0.05426424 0.019683747 0.048616532 -0.02254998 0.028332014
0.021223415 -0.014458249 -0.0044595166 0.05182967 -0.043209657 -0.021024058 0.06432489 0.04172491
0.05960377 -0.008707647 0.015219975 0.0379725 -0.03177223 0.023350472 0.051694047 0.014119785
0.029257111 0.010267769 0.02419547 0.00046074868 -0.021563863 0.018452914 0.044213675 0.035899896
0.045355428 0.0039141243 -0.023251472 0.012342758 -0.057837874 0.05734549 -0.03144229 0.018419327
0.047107954 0.05661475 0.0077998545 0.022450764 -0.005355151 0.049380343 0.037188474 0.061038416
0.008072511 -0.019664166 0.04148128 -0.0309402 -0.028590646 0.04204181 -0.02052767 0.044746544
0.053275593 0.018792402 0.021366717 0.0018670141 0.012783507 0.048920516 -0.031691644 0.01981924
