archived_data/MixedData/tcn_model.pt (torch, 148935 bytes, 19 tensors)

tcn.0.weight f4 [64, 12, 5]
000000 87 dc 20 bd 7e 22 0a be da 18 97 bd 94 bc bc bd
       -0.03927281 -0.1348972 -0.07377787 -0.09215656
000010 01 26 4f 3d a2 52 85 bd 3e d0 48 ba 2c 0a 6c bc
       0.050573353 -0.065099016 -0.0007660425 -0.014406722
000020 1e 26 b4 3c 2d 51 ed bc 58 bb a8 bc 8b a3 cc 3c
       0.021990832 -0.028969372 -0.020597145 0.024980327
000030 81 f6 c0 bd 4b 33 f0 3c eb d4 99 bc 4c 20 c3 3c
       -0.09422017 0.029321333 -0.018778285 0.023819111
000040 cc ea b9 bd 42 5e 5d 3c ff e1 88 3d 97 ed 2d 3d
       -0.09077987 0.013511242 0.0668373 0.04246291
000050 a1 c3 22 3d ee 59 85 3c 20 c4 60 bd b1 25 0c bc
       0.039737348 0.016278233 -0.05487454 -0.008553908
000060 ac 32 27 bd 7f 94 2d 3e e6 c3 c2 3d c8 30 b7 bd
       -0.04081981 0.16951178 0.09510021 -0.08944851
000070 7b 72 96 bd 81 19 29 3d 14 14 b1 3d 50 7c ca 3c
       -0.07346054 0.041284088 0.08646408 0.02471748
000080 b0 1f bf bc ce b2 8d bd 08 98 98 bd 20 be 9d 3d
       -0.02333054 -0.0691887 -0.07450873 0.07702279
000090 fc 4b af 3d 20 8d 5c 3c 5a d6 ba bd 3c 0d 82 3d
       0.08559415 0.013461381 -0.091229156 0.063501805
0000a0 94 da 1d 3d d0 f5 47 bc 72 29 a1 bd 16 a4 07 bd
       0.03853853 -0.012204602 -0.07869233 -0.03311547
0000b0 00 96 b2 b9 a8 df ee bd 84 b5 c9 bc fc d6 5f bd
       -0.00034062564 -0.11663753 -0.024622686 -0.054648384
0000c0 60 df 3c 3c a6 69 63 bd f8 3d 62 3d 29 dd 95 bd
       0.011527866 -0.055520676 0.05523488 -0.073175736
0000d0 e0 7a ab bb 18 b0 2c 3d d4 73 bf 3d 70 1b 70 3d
       -0.0052331537 0.042160124 0.09348264 0.058619916
0000e0 24 85 50 3d 60 12 00 3c 90 7d 1a bc ac c6 e4 3d
       0.050908223 0.007816881 -0.0094293505 0.11170706
0000f0 8a bb bd bd be 14 c2 bb 84 9d 16 bb fc 64 ef bd
       -0.09264286 -0.005922883 -0.002298207 -0.11689183
000100 22 79 b1 3d 31 f2 1b bd bb 37 10 bd f9 94 dc bd
       0.086656824 -0.03807277 -0.0352094 -0.10770602
000110 6f 13 bd 3c ee 2e cf 3d 88 e5 d1 bd 1c 2b 44 3d
       0.023080556 0.10116373 -0.10248858 0.047892675
000120 94 05 f9 bd 3a fc 56 3d da 2a d1 3d 34 e1 77 3d
       -0.12159267 0.052486636 0.102132514 0.060517505
000130 30 66 10 bd f0 6b 0b bb e7 52 e4 3c 82 d8 17 3d
       -0.035253704 -0.0021274053 0.027871562 0.037071712
000140 d4 19 77 bd c3 1d 8a 3d d6 dd ea 3b 25 ac fa bd
       -0.060327366 0.06743958 0.007167558 -0.12239865
000150 f4 2c 07 3e 53 6d e9 3a d3 ca 55 bd 35 4e 54 bd
       0.13200742 0.001780907 -0.05219538 -0.051832397
000160 eb 00 c4 bb 56 62 40 bc 30 ed a7 bb e8 e6 96 3d
       -0.0059815547 -0.011742195 -0.0051247105 0.073682606
000170 90 fc 0a 3c a4 f7 d2 bd da 9f 9c 3d a8 6d 97 bc
       0.008483067 -0.1030114 0.07647677 -0.018484905
000180 f7 1e 9d bd 80 08 70 bc aa a4 c4 3d 74 95 45 bd
       -0.07671922 -0.014650464 0.0960172 -0.048238233
000190 d8 96 99 bc 62 d1 c4 3d 8e 8a 8a bd a0 cf a8 3c
       -0.018748686 0.09610249 -0.067647085 0.020606816
0001a0 e4 60 32 3d 12 a4 d5 3d 81 85 e1 bd a4 59 79 bd
       0.043549433 0.104316846 -0.11011792 -0.060876504
0001b0 84 7a d8 3d 80 99 a2 3a 00 9b a1 ba ae 27 21 bd
       0.10570243 0.0012405366 -0.0012329519 -0.039344482
0001c0 1e be 2a bd ea 3c e6 bd c0 c7 98 3c 5e bc f7 3d
       -0.041685216 -0.11242087 0.018649936 0.12096475
0001d0 e6 5e 20 bd 96 7f de 3d c0 a7 c6 bc 0c 5b 77 3d
       -0.039153002 0.10864179 -0.024249911 0.060389563
0001e0 73 b0 0c 3d d9 59 a4 bc 69 3f b4 3d 0c 80 fa bc
       0.034347963 -0.020062374 0.08801157 -0.030578636
0001f0 a1 c1 3d bc 2d d2 e3 bd 81 ae 8f 3d 96 c7 f8 bd
       -0.011581809 -0.11124072 0.07015706 -0.12147443
000200 49 ff ad bc 7f 7d c9 3c d4 12 c9 3d 39 34 8e 3a
       -0.021239894 0.024595974 0.09818044 0.0010849304
000210 fb ec 4a 3d a2 f7 39 bd 3d 6f b6 bd 3a 0f b8 bd
       0.04954241 -0.045402177 -0.08907936 -0.08987279
000220 fe 93 b1 3d 8c 8c c6 bd 70 61 b7 bd a1 25 f8 3d
       0.086708054 -0.09694776 -0.089541316 0.12116552
000230 cc 5c 10 bd c6 06 0b 3e ac 8f bc 3d b2 42 f5 bb
       -0.035244748 0.13576803 0.09207091 -0.0074847573
000240 7d 59 54 3b b0 1a 0f be 4c 1a 8d 3b 94 10 c3 bd
       0.0032401972 -0.13975024 0.0043061133 -0.095246464
000250 66 e2 b2 bd 60 49 2e bd 40 6a 30 3d 08 73 37 3d
       -0.08734588 -0.042550445 0.043070078 0.044787437
000260 b6 77 e2 3d 65 6e d5 bd 9a 6a 93 bd 45 cb e9 bd
       0.11057989 -0.10421447 -0.07198067 -0.11415724
000270 a0 1c d0 3c b4 65 2e 3d 7f 1d 03 3e 68 62 fe bd
       0.025404274 0.04257746 0.1280422 -0.12421113
000280 0e c7 df bd 24 6e 76 bd 00 90 4e 3c 00 4b b7 bc
       -0.109266385 -0.060163632 0.012607574 -0.02237463
000290 9e be 7e bd 8e 0d 88 3d eb a3 9c bd 30 b1 86 3c
       -0.062193505 0.0664321 -0.07648452 0.016441911
0002a0 26 16 7b bd de ae 97 bd ea b0 16 bd 76 c6 c3 bd
       -0.06130042 -0.074064 -0.036789812 -0.09559338
0002b0 08 6d 8a 3d 36 a4 bd bd b0 01 7e 3d 98 8b 06 3d
       0.06759077 -0.092598364 0.062013328 0.03284797
0002c0 bf 49 02 be b6 5b 90 bd e4 c0 ba bd 8c 87 f6 3d
       -0.12723444 -0.070487425 -0.09118822 0.12037572
0002d0 56 64 4f 3d 3f 4f 00 be 4b ae 29 3d 12 7b 4d bd
       0.050632797 -0.1253023 0.041425984 -0.050166197
0002e0 9e e0 0b be 72 d9 e4 bc 19 99 93 3d 53 23 ca 3d
       -0.13659903 -0.027935717 0.072069354 0.09870019
0002f0 db 86 dd 3d f6 f6 eb bd 18 e6 b3 bd bd 9d 0a 3e
       0.10816737 -0.115217134 -0.08784121 0.13536735
000300 f2 5f ce 3d d4 2b bf 3d c3 29 49 bc 80 7d 91 3d
       0.10076894 0.093345314 -0.012278023 0.07104015
000310 ec 1a 6a bd 96 fa b0 bd 6c 13 4a bd 79 e2 e1 3d
       -0.05715458 -0.086415455 -0.04933493 0.11029524
000320 c7 bf 86 bd 47 4b ec bc 9c 70 4b bd 35 a9 ae 3b
       -0.065795474 -0.028844489 -0.04966794 0.0053302296
000330 b4 73 ee bd f5 15 ed bd 0c b6 41 bd 22 e9 c6 3d
       -0.11643162 -0.115764536 -0.047292754 0.09712435
000340 fa 38 97 3d 49 1c e8 bd 24 d0 10 3d 8e ae 33 bd
       0.07383914 -0.1133352 0.03535475 -0.04386764
000350 e0 ad e3 3b a0 66 d0 3b a8 59 f1 3d 60 08 34 bc
       0.0069482177 0.00635989 0.11784679 -0.010988325
000360 90 a3 1f 3c ee 6e ef bd 10 48 84 3d a8 f6 49 3d
       0.009743586 -0.1169108 0.06459057 0.049307495
000370 3a a6 3c bd e8 79 ea bd 7a 00 d4 3d e6 4f 8a 3d
       -0.046056964 -0.11449033 0.103516534 0.06753521
000380 fe 26 c4 3d a8 bc 8e 3d a0 49 c8 3b bc 25 c3 3d
       0.0957775 0.06969577 0.0061122924 0.09528682
000390 32 24 88 3d 58 ff 44 bc 54 da 21 3d d4 1f d2 3d
       0.06647529 -0.012023769 0.039514855 0.10259977
0003a0 e4 80 c0 bd 1c 3f eb 3d 36 6e fe 3d 70 32 c5 bc
       -0.09399584 0.114866465 0.12423365 -0.024071902
0003b0 38 3f d4 bd b8 f3 93 bc 80 20 d4 3c 68 50 28 bd
       -0.103636205 -0.01806055 0.025894403 -0.041092306
0003c0 e4 c0 87 bd 54 6e 99 bd 79 9d 8b bc 74 44 7c bd
       -0.06628588 -0.074917465 -0.017042862 -0.06158872
0003d0 c1 b4 d6 3d ec eb bc bd 21 82 11 3d a5 2c 3f 3d
       0.10483695 -0.09224686 0.03552449 0.046673436
0003e0 37 10 07 bd db 9b 17 bd 49 ae 3e 3d 5b 48 0a be
       -0.032974448 -0.03701387 0.04655293 -0.13504164
0003f0 ce eb f0 bd 8e e3 07 be fa d9 10 3d 7b 3c b5 3d
       -0.11763726 -0.13270399 0.03536413 0.08849426

tcn.0.bias f4 [64]
000000 3a 20 cf 3c 62 b6 f3 bc 39 c9 84 bc c3 d5 c7 3d
       0.025283922 -0.029750053 -0.016209232 0.09757569
000010 ae 7f 8a bc 2a ba 68 bc ec a1 a9 3d 57 54 9d bc
       -0.016906586 -0.014204541 0.08282837 -0.019205255
000020 aa ce 97 bd 0c 0f 5f bd 27 82 c0 bc 9f 57 5b 3d
       -0.07412465 -0.05445771 -0.023499561 0.05355036
000030 05 a8 35 3d f7 de 0d be a9 0a 94 bd e5 7f a5 bd
       0.04434969 -0.13854586 -0.07228596 -0.080810346
000040 c0 52 cb 3d c4 7b a4 3d de a3 c2 3d b2 44 62 bd
       0.09927893 0.08031419 0.095039114 -0.055241294
000050 a1 6c c7 3d cc 45 f5 3c f0 b0 2b 3d fa 70 9a ba
       0.09737516 0.029940508 0.041916788 -0.0011782937
000060 ad e4 c7 3d f8 f1 4f 3d ae 5b ca bd 3b 5b e5 3d
       0.09760413 0.05076787 -0.09880768 0.111990415
000070 83 cd 93 bd 03 23 ee bd be 5e 57 3d 56 81 ff bd
       -0.072169326 -0.11627772 0.052580588 -0.12475841
000080 7a 4a 2a 3d 3b 12 9d 3d f7 ad 05 be 8c 90 1d 3b
       0.041574933 0.07669493 -0.13054644 0.0024042455
000090 01 27 c4 3d 95 4d 29 3d aa f4 3d 3c bc 73 d2 3d
       0.09577752 0.041333754 0.011593977 0.10275981
0000a0 4d 85 b1 3d 38 6a 85 bd 8a d5 94 bd 53 36 60 bd
       0.08668003 -0.065144 -0.07267292 -0.054739308
0000b0 32 4e d1 3d 4b 01 df 3d b5 58 25 3d 78 c7 96 3d
       0.10219993 0.108889185 0.0403678 0.073622644
0000c0 ed 4f c5 3d 92 3f ed bd 73 b0 04 3d e4 9d 4c 3b
       0.09634385 -0.11584391 0.032394838 0.003122204
0000d0 ed 52 20 bd ea 8e fa 3c 2c a5 e8 3d 10 6c 40 3d
       -0.039141584 0.030585725 0.11359629 0.046978056
0000e0 63 5a c2 bd 9e 5d 69 bd 56 70 7c 3d 82 b7 3e 3d
       -0.09489896 -0.056974046 0.06163057 0.046561725
0000f0 bb 25 b9 bd f6 e2 29 bd 09 12 3d 3d 67 d4 dc 3d
       -0.090404 -0.041476212 0.046159778 0.107827

tcn.2.weight f4 [64]
000000 15 f3 85 3f 07 d8 7a 3f bd a2 7a 3f 98 e0 76 3f
       1.0464808 0.9798588 0.9790457 0.9643645
000010 7e e3 7d 3f 68 00 82 3f 6a 21 7c 3f de 27 7e 3f
       0.9917525 1.0156374 0.98488486 0.9927958
000020 e7 dd 77 3f 3f 49 83 3f dc bb 7f 3f 4f 4e 7c 3f
       0.9682297 1.0256728 0.99896026 0.9855699
000030 d1 86 7a 3f 85 c6 7b 3f db d4 77 3f f3 dd 74 3f
       0.97861964 0.9834979 0.96809167 0.9565117
000040 68 93 78 3f 45 b7 79 3f ba 84 81 3f 7d ab 76 3f
       0.97099924 0.9754527 1.011863 0.9635542
000050 7b 03 83 3f b3 40 80 3f 4b 1e 74 3f 69 5c 83 3f
       1.0235437 1.0019745 0.95358723 1.0262576
000060 c1 cd 7e 3f 4a 04 7b 3f 72 a5 7f 3f a7 9f 7b 3f
       0.99532706 0.9805342 0.99861825 0.98290485
000070 bf 32 7d 3f 0a b4 7f 3f d1 89 7b 3f b8 c2 7c 3f
       0.9890556 0.9988409 0.98257166 0.9873462
000080 9f fd 7d 3f 11 0a 7d 3f 75 d4 77 3f 9a 2b 82 3f
       0.9921512 0.98843485 0.9680856 1.0169556
000090 9e 1b 80 3f b3 1c 82 3f 19 57 81 3f 1f 95 82 3f
       1.0008428 1.0165008 1.0104705 1.0201758
0000a0 56 8c 81 3f d6 1e 7c 3f 9e 51 83 3f a9 23 7e 3f
       1.0120952 0.9848455 1.0259283 0.99273163
0000b0 dd 02 81 3f e7 27 80 3f fa f4 79 3f 95 53 81 3f
       1.0078999 1.0012177 0.9763943 1.0103632
0000c0 e9 8e 80 3f 3e 90 7b 3f 28 3b 81 3f 0b a4 7c 3f
       1.0043613 0.9826697 1.0096178 0.9868781
0000d0 5f e6 82 3f 8c 5d 80 3f 3b 3f 82 3f ce fa 80 3f
       1.0226554 1.0028548 1.0175546 1.007654
0000e0 43 c5 7c 3f 3f 5d 87 3f 2b 5e 85 3f 25 73 80 3f
       0.987385 1.0575331 1.0419363 1.0035139
0000f0 40 b7 80 3f 8f e3 81 3f ab ac 83 3f cd 22 80 3f
       1.0055923 1.014757 1.0287069 1.001062

tcn.2.bias f4 [64]
000000 27 bf a3 3c f3 f6 42 3c 20 1c 20 3c 59 e6 6c bb
       0.01998861 0.011899698 0.0097723305 -0.003614804
000010 d2 fc 09 bb d7 bf d0 bb 1b 07 5e bc 22 38 63 bb
       -0.0021055234 -0.0063705253 -0.013551499 -0.003467091
000020 3b cb 46 3c 97 f4 b1 3c 80 72 04 bc 93 90 8f 3c
       0.012133415 0.021723075 -0.00808394 0.017524993
000030 5d fe af 3c 06 d4 cc bc 4e 57 a6 bb ca e0 c6 3c
       0.021483595 -0.025003444 -0.0050763255 0.02427711
000040 49 7b 24 3c fd 2a f1 3b a4 2b cc 3b 21 eb b3 3c
       0.010039159 0.007359861 0.0062307883 0.021962704
000050 af 24 e8 3c 2b e7 de 3b 0f 58 99 3b e8 a9 4b bb
       0.028337805 0.0068024597 0.004679687 -0.0031076614
000060 75 a7 b2 bc 7a 84 0c 3c 8f 54 93 bb 66 be 6e 3b
       -0.021808365 0.008576507 -0.004496164 0.0036429404
000070 9f 00 8b 3b 2a 4f cf 3b a4 a6 a2 bb 95 a6 c1 3a
       0.0042420174 0.0063265758 -0.0049637128 0.0014774377
000080 be a0 8e 3b 27 81 19 bc 25 cf 8e 3b f7 ee 98 bb
       0.004352658 -0.009369171 0.0043581896 -0.0046671587
000090 2e df 58 3c 62 e4 09 bc 05 8b 5e bb 70 0e b4 bc
       0.013236804 -0.008416267 -0.0033957374 -0.02197954
0000a0 12 69 1d 3b aa dd c4 bb 6c 40 16 3c 54 36 85 bb
       0.0024018926 -0.0060078697 0.009170633 -0.0040653143
0000b0 b7 15 84 bc 2d a4 35 3c e3 2a 2e 3c d6 78 5a ba
       -0.016123636 0.011086506 0.010630342 -0.0008334046
0000c0 f3 53 c2 bb 95 86 1e bc 22 94 b7 3b eb 16 d4 3c
       -0.0059304177 -0.009675642 0.0056023756 0.025889834
0000d0 9c a8 ee ba 52 79 60 3c 86 2e 9b bc 80 df 61 3c
       -0.0018208208 0.0137008 -0.018943083 0.013786197
0000e0 90 42 b1 b8 37 d6 1b 3c 8f ab ae 3a 43 f1 21 3c
       -8.452416e-05 0.009511522 0.0013326275 0.009884181
0000f0 2e ed 7b bc 90 45 10 bd ec 53 60 bc 0f 82 5d 3c
       -0.015376372 -0.03522259 -0.0136918835 0.013519778

tcn.2.running_mean f4 [64]
000000 31 08 c4 3c 6c 3a 33 3c 4c ee f0 3c 8b ae aa 3d
       0.023929687 0.010939222 0.029410504 0.08334073
000010 59 10 b6 3c 8f 12 dd 3c 44 4c 2d 3e 0d ba ee 3c
       0.022224592 0.026986388 0.16923624 0.02914145
000020 e6 94 80 3c 55 e3 2f 3b 04 a5 ef 3c 48 4f 0a 3e
       0.015696 0.0026838381 0.02925349 0.13506806
000030 e8 8a 08 3e e0 34 c3 39 1c 53 89 3a 76 eb 16 3c
       0.13334239 0.00037232693 0.0010477039 0.009211412
000040 a7 a3 d5 3d 2a 89 12 3e 65 92 53 3d 1c 47 d7 3c
       0.10431605 0.14310136 0.051653285 0.026279025
000050 61 f5 e1 3c 1e c2 42 3c 11 fb 6c 3d 71 b4 87 3d
       0.027582826 0.011887101 0.057856623 0.06626213
000060 64 da 32 3e 22 76 03 3e 50 2e 55 3c 91 90 10 3e
       0.17466122 0.12838033 0.01301153 0.14117648
000070 ac 28 eb 3c 75 69 42 3c f6 b5 9b 3d bc 2c d9 3b
       0.028705917 0.011865963 0.07603066 0.006627647
000080 11 cd 87 3d 4e b0 a5 3d a1 23 c5 3a 32 45 37 3d
       0.0663091 0.08090268 0.0015040525 0.044743724
000090 99 85 79 3d c3 c5 c8 3d ad 59 37 3d 2f 8d d0 3d
       0.060918424 0.09803345 0.044763256 0.10183179
0000a0 c4 1f b5 3d b5 25 fa 3d 9f e0 f0 3a 04 71 fa 3c
       0.088439494 0.12214223 0.0018377489 0.030571468
0000b0 ab 97 bd 3d ee 34 1b 3e 3f c3 a5 3d a6 7c f1 3d
       0.09257444 0.1515691 0.08093881 0.11791353
0000c0 00 64 19 3e ec af d5 31 df da 5b 3d c4 a9 a2 3d
       0.14979553 6.219116e-09 0.05367553 0.079425365
0000d0 77 46 d6 3c 61 89 56 3d 58 38 3d 3e c2 65 53 3d
       0.026156647 0.05237711 0.18478525 0.051610716
0000e0 34 b3 c6 3b b4 33 a3 3c a4 fa e6 3c ec 75 7b 3d
       0.006063843 0.019922115 0.028195687 0.061391756
0000f0 75 08 22 3d 60 80 93 3d 17 5a ea 3d fc c4 01 3e
       0.039558847 0.0720222 0.114429645 0.126728

tcn.2.running_var f4 [64]
000000 7a f2 d8 3a d7 69 40 3a 62 11 64 3b 30 61 ff 3b
       0.0016551756 0.000733999 0.00348004 0.007793568
000010 2a a8 03 3b a5 fb 59 3b 68 b9 43 3c ec f0 77 3b
       0.0020089247 0.0033261564 0.01194606 0.003783281
000020 dc 8d b4 3a a3 0f 16 39 10 dd 2c 3b 4f 72 76 3c
       0.0013775188 0.0001431094 0.002637688 0.015041902
000030 ef 96 4e 3c 24 80 9e 37 39 6e 1e 38 6d 00 5f 3a
       0.012609228 1.8894738e-05 3.777279e-05 0.00085068383
000040 3e 57 35 3c f5 43 af 3c 02 3a 86 3b b0 d4 41 3b
       0.011068163 0.02139471 0.0040962705 0.0029576235
000050 a5 37 d1 3a 75 0d 85 3a 80 43 65 3c 3f f5 df 3b
       0.0015962018 0.0010151105 0.013993144 0.0068346555
000060 37 7f 4d 3c 79 2e 69 3c df 55 ce 3a 47 9a 4e 3c
       0.012542537 0.014232271 0.0015742144 0.012610025
000070 76 7a 39 3b 0f 12 c5 3a 3d 25 07 3c 9b a0 1c 3a
       0.0028301752 0.0015035289 0.008248624 0.000597486
000080 dd c7 8f 3b 5b 54 ca 3b f1 b5 dc 38 af 18 9d 3b
       0.004387839 0.0061746067 0.00010524307 0.0047942023
000090 a1 11 01 3c e0 60 3e 3c bf 74 7c 3b 96 a8 21 3c
       0.007877738 0.0116197765 0.0038521735 0.009866854
0000a0 59 4a d0 3b 6a e4 9d 3c 1f 8b 04 39 04 20 8d 3b
       0.006356519 0.019273955 0.00012640328 0.004306795
0000b0 7a 84 20 3c 3a c9 bf 3b 62 59 6e 3c cb c9 14 3c
       0.00979721 0.0058528455 0.014547678 0.009081314
0000c0 d6 91 90 3c 95 0e 2d 32 da 55 78 3b 86 02 27 3c
       0.017647665 1.0073241e-08 0.0037892968 0.010193473
0000d0 63 e4 ff 3a 79 6c ac 3b a5 02 af 3b dc 9c cf 3b
       0.0019523021 0.0052619544 0.0053408914 0.0063358378
0000e0 de 16 2d 3a 64 a0 93 3a 7e 12 2b 3b df fb 84 3b
       0.0006602834 0.001126301 0.0026103551 0.0040583457
0000f0 cd b0 84 3b 33 35 ea 3b cd e3 21 3c 01 53 13 3c
       0.0040493966 0.007147455 0.009880972 0.008991958

tcn.4.weight f4 [64, 64, 5]
000000 67 cb 49 bd bf b9 a0 3c 00 e7 22 3d d2 06 7d 3c
       -0.049266245 0.01961982 0.03977108 0.015443521
000010 c5 c2 05 bd 8f 07 44 3c a1 f7 e1 3b c6 54 db bc
       -0.03265645 0.011964693 0.0068959747 -0.026773822
000020 ee 46 34 bc dd ef 24 bd 88 3e 6e bc bd bf 3c bc
       -0.011003239 -0.040267814 -0.014541276 -0.011520323
000030 85 53 67 3c 91 91 09 3d 75 25 98 bb 42 09 33 3d
       0.014119034 0.03358609 -0.004643137 0.04371
000040 0a 5f 2f 3a 07 c5 9e bb 08 7d 15 3c 52 20 c9 3b
       0.0006689882 -0.004845265 0.009124048 0.006137886
000050 02 31 23 bd a7 98 fa bc 1a f0 ae bc 41 aa 74 bc
       -0.03984166 -0.030590368 -0.021354724 -0.01493317
000060 26 97 de 3c 5e 9b e4 bc a6 15 26 bd 7c 22 fb 3c
       0.027171683 -0.027906116 -0.04054799 0.030656092
000070 f4 9d 3a bd 36 7e 70 bd e1 07 20 bd 01 26 47 3d
       -0.045560792 -0.058714114 -0.039070014 0.048620228
000080 2e 17 af bc 0c 77 49 3d 75 e3 ec bb 4f f8 48 3a
       -0.021373358 0.049185798 -0.0072292634 0.00076663954
000090 a4 4c d8 bc 35 7b 38 bd 29 12 0f bd 83 f8 f3 bc
       -0.026403733 -0.045039374 -0.03492943 -0.029781586
0000a0 38 aa a0 3c 2a 70 16 bd 78 2f 33 3d df f0 27 bc
       0.019612417 -0.03672806 0.04374644 -0.010250299
0000b0 d2 a2 20 3c 4a ae 45 bd 03 9a 64 bd ca 7a ed bc
       0.009804444 -0.048261918 -0.05581094 -0.028989214
0000c0 9d 77 88 bc a1 08 ef bc ad 68 54 3b 3d d8 f1 3c
       -0.016658599 -0.02917892 0.0032411024 0.029522056
0000d0 1f 6a a0 3c d5 b4 01 bd 37 45 00 3d 78 0d b4 ba
       0.019581852 -0.031666595 0.03131601 -0.0013736924
0000e0 78 8e 11 bb 7e 10 a4 bc dc 69 b8 3b 71 1e b5 bc
       -0.0022210162 -0.020027395 0.005627854 -0.022109242
0000f0 03 8f f3 3c 7f 35 9d bc 20 1d 0a bc 3f 3f 23 bd
       0.02973128 -0.019190548 -0.0084297955 -0.039855238
000100 50 35 cc b7 4e 4f 17 bb 58 46 52 bd 04 2a 51 3c
       -2.434352e-05 -0.002308804 -0.051336616 0.012766365
000110 c6 7f 9c bc 80 b5 00 bd ed f5 16 bd 30 f8 f1 3b
       -0.019103896 -0.031423092 -0.036855627 0.0073843226
000120 2e 28 09 bc cf 2d 12 3d 18 bb 04 3d ce 2c 71 3c
       -0.008371396 0.035688218 0.03240499 0.014720155
000130 d6 80 74 3b c1 c0 63 bd e0 54 8a 3b 43 fd 13 3d
       0.0037308238 -0.055603746 0.0042215437 0.0361302
000140 82 88 3d 3d 22 70 15 3b 86 83 18 3d ae 7d dd 3c
       0.046272762 0.0022802432 0.037234806 0.027037468
000150 1c 67 0a bd fa 40 0e 3d 16 ff 5d bd 09 8d 1d 3b
       -0.03378974 0.034729935 -0.054198347 0.0024040362
000160 3b eb df 3c a4 5f 3a 3d a2 d0 e6 3c ad 65 83 3c
       0.027333846 0.045501366 0.028175656 0.016039694
000170 bf bd 68 bb 8c f7 2d bc 0e a4 31 3d d8 1e 43 3d
       -0.0035513488 -0.010618102 0.043369345 0.047636837
000180 0f e0 53 bc 6e 52 30 bc b0 ec 34 3c 53 c0 fb 3c
       -0.012931838 -0.01076184 0.011042759 0.030731356
000190 13 9f 28 bd 49 1d ad b9 5e 49 10 bc 40 0a 2b bd
       -0.04116733 -0.0003301895 -0.008806555 -0.041757822
0001a0 fc dd a5 bc 70 16 47 bd 30 c7 b9 bc 4d 82 10 3c
       -0.020247452 -0.048605382 -0.022677988 0.008820129
0001b0 4f 89 6e 3d be 57 ef 3c d0 45 13 3a 1c f6 1e 3d
       0.058236416 0.029216643 0.0005618008 0.038808927
0001c0 b5 4d 27 3d 70 e2 7f bc 48 ef 32 bd e4 24 d9 3b
       0.04084559 -0.015617952 -0.043685228 0.006626712
0001d0 fa 11 a9 bc 6d 1c 23 bb ed 16 9c 3c d7 b9 c6 3c
       -0.020638455 -0.002488877 0.0190539 0.024258537
0001e0 b2 fc d7 bc 68 6a bf bb 5c fa 68 3c 69 59 8d 3b
       -0.026365612 -0.005841542 0.014219847 0.004313637
0001f0 0c 97 01 bd 03 33 c3 bb af a5 b6 3b c6 28 46 bd
       -0.03163819 -0.005957009 0.0055739502 -0.04837873
000200 22 7e 3f 3d 1d 8a 6c 3c 40 72 5b bd 0d 40 23 3d
       0.04675115 0.014437226 -0.053575754 0.039856005
000210 18 3e ab bc 28 d1 a4 bc 07 a8 bf bc 3a ce ed 3b
       -0.020903632 -0.020119265 -0.023395551 0.00725725
000220 42 c5 80 bc 4d 80 39 bd b7 ac 28 bd ce 91 ab bc
       -0.01571906 -0.045288373 -0.04118034 -0.020943549
000230 44 4e f3 3c 39 29 e5 3b a0 39 12 bd 91 f1 8e 3c
       0.029700406 0.0069934395 -0.035699487 0.017449172
000240 d8 a0 09 3d 5d c5 c0 3c 4d 67 b5 ba 31 82 ac bc
       0.03360066 0.02353161 -0.001383999 -0.021058174
000250 06 43 3e bd a5 c4 a0 bc 43 a2 f8 3c 39 d8 75 3d
       -0.046450637 -0.019625017 0.03035081 0.06002066
000260 e1 4d 01 bc 7e aa f0 3c 4a de ab 3b d8 73 f0 3b
       -0.007892103 0.029378172 0.005245005 0.0073380284
000270 f8 c5 26 3c 06 1b 16 bc 80 07 d8 3c cf 0b 3e 3d
       0.010179035 -0.009161716 0.026370764 0.04639798
000280 94 33 84 bd 5c f6 8b 3b f7 32 eb 3b 70 cd 1c bd
       -0.0645515 0.0042713117 0.0071777063 -0.038281858
000290 a0 df ef bc 05 83 6d 3d 96 2d 5e bc 58 04 1c 3d
       -0.029281437 0.057986278 -0.013560673 0.03809008
0002a0 ab 5a 8d 3c 06 1b 07 bd 5c 75 8d bd f0 25 7a 3a
       0.017255148 -0.032984756 -0.0690715 0.00095423963
0002b0 e0 35 06 bc 17 f3 fd bc d7 9b 38 bc d6 4c 2c 3c
       -0.008191556 -0.030999703 -0.011267624 0.010516366
0002c0 40 09 50 b9 5a 94 ba 3c c2 f3 70 bc e6 27 5a 3d
       -0.00019839872 0.022775818 -0.014706554 0.053260706
0002d0 88 17 f8 3b 3b 20 b3 3c 66 90 03 bc bc 21 4c 3c
       0.0075711645 0.021865955 -0.008030033 0.012459215
0002e0 19 ed 38 3c ae 2c 9f 3c 51 2e 9a 3c 3c e3 77 3d
       0.011286997 0.019430485 0.018820914 0.060519442
0002f0 a3 06 87 3c af 7e 21 bc b8 02 4f bd 83 81 03 bc
       0.016482657 -0.009856864 -0.050539702 -0.0080264835
000300 48 25 c1 bb 86 b3 00 3d fd 94 06 3c b1 81 86 bd
       -0.005894337 0.031421207 0.0082142325 -0.065677054
000310 8a ed b6 bc 07 28 16 3d 9a 31 30 3d 71 05 0c 3d
       -0.022330064 0.036659267 0.043016054 0.034184877
000320 47 6e 8b 3d 72 03 3c 3c b2 da 8c bc 3a b9 86 bc
       0.06808143 0.011475431 -0.017194126 -0.016445745
000330 07 15 34 bd d0 f2 b0 bc 11 fd 09 3d b8 15 84 3c
       -0.043965366 -0.021600157 0.03368861 0.016123638
000340 2e 9d aa bc d6 9b 49 bd 16 bf 2f bd c9 83 70 3d
       -0.020826902 -0.049220882 -0.042906843 0.05871943
000350 38 c2 a1 3b c9 c3 7d bc b9 e6 21 bc 30 be 81 3c
       0.0049364828 -0.015488573 -0.009881669 0.015837759
000360 35 0b 22 3d ca 10 30 bd f1 a4 77 3c 7b 27 95 3b
       0.03956147 -0.04298476 0.015115009 0.0045518256
000370 d3 11 64 3d 72 f9 83 bc e9 5f 51 bd a5 4e 7e bd
       0.05568106 -0.016110156 -0.051116858 -0.06208672
000380 34 15 34 bc 51 f4 bd 3b 63 4b bb bc d2 14 ed 3b
       -0.010991383 0.005796947 -0.022863096 0.007235148
000390 7a 74 05 bc 8b d7 52 3d 24 1b 93 3d 98 d6 87 bb
       -0.008145446 0.05147509 0.07182911 -0.0041454546
0003a0 6c a2 5a bc d8 f2 fa 3b c6 39 6d 3d 05 f0 4f 3d
       -0.013344388 0.0076583438 0.057916425 0.05076601
0003b0 99 9c 47 3d 5c f8 50 3d 63 cb 52 3b 3b ac f5 3c
       0.048733328 0.051018104 0.0032164685 0.029989352
0003c0 e5 24 a2 3b 42 4f a5 bc 91 44 18 bd 0e f7 63 bc
       0.004948246 -0.020179395 -0.037174765 -0.013913883
0003d0 c5 43 93 bc e2 49 3f bc 1f 9e 16 3d 63 90 1f 3d
       -0.017976651 -0.01167533 0.03677189 0.038956057
0003e0 f8 b4 4b 3b 5e d3 88 bc 54 5a 93 3d b9 60 8b 3d
       0.0031083208 -0.01670235 0.07194963 0.06805558
0003f0 cd c7 b5 bc e2 36 3e bd bf 98 36 bc 37 d6 13 3c
       -0.022189999 -0.04643906 -0.011144816 0.009023241

tcn.4.bias f4 [64]
000000 f6 4e 15 bd 22 79 2b 3d ad 74 02 3d 19 d5 2c bc
       -0.036452256 0.041863568 0.031849552 -0.010548853
000010 25 16 9d 3c 46 42 bf bc 65 a0 13 3d 59 8f 23 bb
       0.019175598 -0.023347031 0.036041636 -0.0024957268
000020 42 9a 0c bd 59 08 5a bd 5a 81 62 bd 1a 16 a6 bc
       -0.0343268 -0.053230617 -0.05529914 -0.02027421
000030 d3 de b8 3c 96 95 35 bc 1b 0b f4 bc 3f 0f 6c 3c
       0.022567188 -0.011083027 -0.029790452 0.014407932
000040 63 6c b2 bb d8 be 60 bd 68 21 56 bc 46 d6 37 3d
       -0.0054450496 -0.054869503 -0.013069488 0.04488208
000050 c6 e5 36 bd fd 30 06 bd 92 d2 c5 bb b0 3f bb bc
       -0.044652723 -0.032761563 -0.006037065 -0.022857517
000060 f5 22 14 3d d1 3d c7 3b 36 dc f6 bc 9a 8e 2a bd
       0.03616615 0.006080367 -0.030134302 -0.0416399
000070 79 64 10 bd df c2 7c bc c6 28 32 3d 02 e8 2b 3a
       -0.03525207 -0.01542732 0.043495916 0.0006557704
000080 41 71 7b 3d 7e a3 09 3c 1a 12 c4 3c 44 28 2c 3d
       0.061387304 0.008400796 0.023934413 0.042030588
000090 c8 fe 46 bd 90 4c 0b bd 38 15 d1 3c 20 70 01 bd
       -0.048582822 -0.034008563 0.025522813 -0.03160107
0000a0 b6 94 06 bc f8 32 ab 3b 52 ef e0 3c 90 d3 60 3c
       -0.008214166 0.005224582 0.027457867 0.013722315
0000b0 00 a5 77 3c 8d fd a4 3c fe fe 0d bd d2 04 5d bd
       0.015115023 0.020140434 -0.034667008 -0.053959675
0000c0 cd af 3a bd 62 46 1b bc ed 4e ca bc 43 7b 39 3c
       -0.045577813 -0.00947723 -0.024695838 0.011320892
0000d0 68 e7 30 bd cb ba 94 bb 00 a4 df 3a 07 42 19 bd
       -0.043189436 -0.004538869 0.0017062426 -0.037416484
0000e0 1e ca a8 bb 61 ef b6 bc af 9b ff 39 7b d9 06 bd
       -0.0051510474 -0.022330942 0.00048753383 -0.03292225
0000f0 f6 63 3c bd 65 08 20 bd c5 ff 7e 3d 77 12 60 3d
       -0.045993768 -0.039070506 0.06225564 0.05470511

tcn.6.weight f4 [64]
000000 96 24 80 3f 42 9d 7c 3f 06 97 80 3f d4 84 7f 3f
       1.0011165 0.98677456 1.0046089 0.99812055
000010 26 3c 76 3f 5b 99 7b 3f 79 6d 81 3f 5d db 77 3f
       0.9618553 0.98280877 1.0111533 0.96819097
000020 8d 6c 82 3f 49 9e 75 3f d3 f4 7a 3f a7 19 83 3f
       1.0189377 0.9594465 0.9802982 1.0242203
000030 3a e6 7a 3f c1 00 7e 3f ee e5 80 3f 41 b0 80 3f
       0.9800755 0.992199 1.0070169 1.0053788
000040 06 e3 7d 3f bc ba 80 3f 4b 16 7a 3f 50 cf 81 3f
       0.99174535 1.0056987 0.97690266 1.0141392
000050 5e ec 7b 3f 91 26 82 3f 45 03 81 3f 0b 1c 7f 3f
       0.9840754 1.016802 1.0079123 0.99652165
000060 79 29 81 3f ce 85 7f 3f 61 b2 7e 3f bd 2d 80 3f
       1.0090781 0.99813545 0.99490935 1.0013958
000070 bb cb 80 3f 48 e8 7c 3f 8a 21 79 3f 92 c9 80 3f
       1.0062174 0.98791933 0.973168 1.0061514
000080 49 c6 7f 3f c7 ac 78 3f 71 0d 81 3f da 87 86 3f
       0.99911934 0.9713864 1.0082227 1.0510209
000090 45 f4 78 3f 1e 8f 82 3f 02 38 84 3f ff 4b 7b 3f
       0.97247726 1.0199926 1.0329592 0.98162836
0000a0 05 71 79 3f e1 1d 75 3f c9 83 7a 3f 40 5c 7a 3f
       0.9743808 0.95748717 0.9785734 0.9779701
0000b0 3f f5 81 3f 66 34 7a 3f 76 57 81 3f 16 63 84 3f
       1.0152968 0.97736204 1.0104816 1.0342739
0000c0 98 a7 77 3f 9e 61 7d 3f 06 61 82 3f b7 ff 7a 3f
       0.967401 0.98977077 1.0185859 0.9804644
0000d0 7a e3 7e 3f 03 97 7e 3f a9 6f 80 3f 1a 0e 81 3f
       0.9956585 0.99449176 1.0034076 1.0082428
0000e0 1b 17 7d 3f 5e 5e 75 3f 84 87 7c 3f 99 20 7f 3f
       0.9886338 0.9584712 0.9864428 0.99659115
0000f0 37 b6 7c 3f 6b d0 84 3f 8c 04 82 3f bb db 80 3f
       0.9871554 1.0376104 1.0157638 1.0067056

tcn.6.bias f4 [64]
000000 bc f0 33 3b a8 a2 58 3c 4d 15 c3 bc 81 cf c0 3c
       0.0027456721 0.013222374 -0.023813868 0.023536446
000010 45 11 d0 3c eb 98 14 3b 0e 95 9c bc e4 29 4c 3c
       0.02539886 0.0022674154 -0.019114044 0.012461159
000020 a9 eb fc 3c 9b 72 6a 3b bd 8f 31 bb e2 4d c4 3a
       0.03087409 0.0035773877 -0.0027093731 0.0014976824
000030 14 1f 1c ba 7a bd 7c 3b 3e a4 e8 bb ae 0f ce 3c
       -0.0005955559 0.0038565085 -0.0070996573 0.025153961
000040 d5 9e 9a 3c e8 9f 36 bc 32 fa 82 3c 94 51 34 bb
       0.018874565 -0.011146523 0.015988443 -0.0027514445
000050 14 41 3e 3c 94 f3 0d bc fc eb 67 3b eb 8f 7b 3b
       0.0116121955 -0.008664031 0.003538846 0.0038385342
000060 14 12 02 3b 07 94 ae bb 11 44 83 3c 22 10 35 bc
       0.0019847201 -0.005327705 0.016023668 -0.01105121
000070 54 35 95 b9 45 58 b7 3b 78 88 82 bb 58 55 ae bb
       -0.00028459227 0.0055952393 -0.0039835535 -0.0053202324
000080 7c 3e 90 3c 00 67 e3 3b 4a ed 4e 3c fc e0 41 bc
       0.01760792 0.006939769 0.012629816 -0.011833426
000090 c3 41 10 3b 53 27 ed 3b 55 4a 1a bc d1 40 65 3b
       0.0022011853 0.007237354 -0.009417136 0.003498126
0000a0 1c ad f3 3c 52 81 c1 3c 41 99 38 3c 0d b2 47 3b
       0.02974563 0.023621235 0.011267007 0.0030471117
0000b0 ca a2 82 ba 95 78 b1 3b ce 28 e4 3b a5 b9 46 3c
       -0.0009966728 0.005415986 0.006962872 0.012129222
0000c0 b6 10 5a 3b eb e5 dd bb a2 6a a8 3b de d3 d5 bb
       0.003327412 -0.006771793 0.0051396647 -0.0065255007
0000d0 dc 4c 64 3c 88 6f 8f bc 0d 39 6a ba 16 c3 09 3b
       0.01393434 -0.017509237 -0.0008934893 0.0021020821
0000e0 e6 35 89 3b 2d ea 94 3b 5e 2f 3f 3c fa 77 ee ba
       0.0041873334 0.0045445175 0.011669008 -0.0018193715
0000f0 fd c4 ca bb da 2b 3d 3c 68 d9 23 bc 40 d2 cf 3b
       -0.0061880336 0.0115461 -0.010000564 0.0063422024

tcn.6.running_mean f4 [64]
000000 38 b8 2b 3e f8 15 83 3e 56 a0 87 3e 95 de 40 3e
       0.16769493 0.25602698 0.26489514 0.18834908
000010 c3 e8 5c 3e 70 02 98 3e bb 56 8a 3e 35 31 6c 3e
       0.21573167 0.2968936 0.27019295 0.23065646
000020 d6 a0 1a 3e 10 fd 6d 3e c6 f8 75 3e a4 1c 23 3e
       0.15100417 0.23241067 0.24020681 0.15928894
000030 5c 0c 80 3e 5b 8c 87 3e d8 b8 39 3e 17 c6 34 3e
       0.2500943 0.2647427 0.18136919 0.1765369
000040 dc e1 81 3e 2c 47 8f 3e 80 9a 80 3e a4 cb 2e 3e
       0.2536763 0.27983987 0.25117874 0.1706987
000050 90 09 74 3e 68 68 28 3e 7f eb 28 3e 04 4a 3e 3e
       0.23831773 0.16446078 0.16496085 0.18582922
000060 d3 92 85 3e 31 96 82 3e 43 9f 51 3e 0e 57 76 3e
       0.2608858 0.25505212 0.2047091 0.24056646
000070 85 dc 24 3e 18 64 84 3e 70 bc 95 3e 0e 41 4c 3e
       0.16099747 0.25857615 0.2924533 0.19946691
000080 78 b7 51 3e 74 2e 4c 3e 1d f9 34 3e 7d 42 2d 3e
       0.20480144 0.19939595 0.17673154 0.16919895
000090 a3 b3 62 3e fb 76 1b 3e a6 ef 2e 3e 6a 9a 40 3e
       0.22138838 0.15182106 0.17083606 0.18808904
0000a0 24 4b 87 3e 9c f6 7e 3e c6 49 86 3e a4 09 89 3e
       0.26424515 0.24898762 0.2622816 0.26765168
0000b0 13 18 2d 3e f2 a5 61 3e 31 0e 78 3e 78 2d 0f 3e
       0.16903715 0.2203596 0.24224164 0.13982189
0000c0 8c 9a 61 3e 57 30 73 3e a6 71 09 3e 91 d4 9b 3e
       0.22031611 0.23748909 0.1342226 0.30435613
0000d0 f2 9b 0d 3e 20 ce 88 3e 5a 4f 5c 3e bf 2d 81 3e
       0.1382902 0.2671976 0.21514645 0.25230214
0000e0 2f 77 69 3e 7b 89 70 3e d2 1e 3e 3e 9a 88 34 3e
       0.22799371 0.23489945 0.18566445 0.17630234
0000f0 16 6c 50 3e 87 fa e8 3d e1 50 93 3e 71 13 5a 3e
       0.20353732 0.11375909 0.28772643 0.21296479

tcn.6.running_var f4 [64]
000000 e7 06 85 3d 1b e8 7e 3e 7c fa 16 3e 2e bf e2 3d
       0.06495457 0.24893229 0.1474399 0.11071621
000010 93 d3 03 3e a2 6a ab 3e e2 cc f3 3d 53 33 36 3e
       0.12873678 0.33479792 0.11904313 0.17793016
000020 c8 37 e4 3d 3c 75 48 3e 87 51 6a 3e 27 61 a9 3d
       0.11143452 0.19575971 0.22882663 0.082704835
000030 ee ba 1d 3e bb 91 8a 3e 18 9f 8f 3d 9f 33 9f 3d
       0.1540334 0.2706431 0.070127666 0.07773518
000040 31 b9 4b 3e c1 a6 49 3e 1e 51 84 3e 8a c6 83 3d
       0.19894864 0.19692518 0.25843138 0.06434353
000050 07 a9 51 3e 19 61 81 3d 43 3c 99 3d 78 d5 bc 3d
       0.20474635 0.06317348 0.07482197 0.092204034
000060 0b 1e 14 3e 78 9f 4e 3e 94 43 fb 3d 47 d4 2c 3e
       0.14464585 0.2017802 0.12268749 0.16877852
000070 fc b5 84 3d fb bf 39 3e 90 ca 97 3e de a5 af 3d
       0.06480023 0.18139641 0.2964673 0.085765585
000080 82 f4 a7 3d 14 05 d9 3d a7 82 ac 3d 90 75 30 3d
       0.08200933 0.10596672 0.084233575 0.043080866
000090 65 09 62 3e 53 43 5c 3d 20 23 79 3d b8 0d df 3d
       0.22073896 0.053775143 0.060824513 0.108912885
0000a0 5a 13 8d 3e b6 0c 95 3e 7a 31 6a 3e 2f 8d 7b 3e
       0.27553827 0.2911126 0.22870436 0.24565576
0000b0 d1 33 88 3d 39 bf 0c 3e 47 d8 2e 3e 3b b7 7f 3d
       0.06650508 0.1374482 0.17074691 0.0624306
0000c0 f6 a8 29 3e 8b 7f 1e 3e 8c 11 6c 3d a6 85 96 3e
       0.1656836 0.15478341 0.05763392 0.2939884
0000d0 ac 20 64 3d e4 4c 4f 3e a4 48 b6 3d d3 00 0e 3e
       0.05569522 0.20244175 0.08900574 0.13867502
0000e0 37 95 49 3e b4 7c 43 3e 24 ee d1 3d ea 25 ac 3d
       0.19685827 0.19090539 0.102505 0.08405669
0000f0 d8 f2 c8 3d 7c 79 55 3d 73 6d 0c 3e 3a 09 98 3d
       0.09811944 0.05211781 0.13713627 0.07423635

tcn.8.weight f4 [32, 64, 5]
000000 16 00 1a 3d 0c 3e 95 3d 3b c9 33 3d b7 dd 0d bd
       0.03759774 0.07287225 0.04389308 -0.034635272
000010 bd 8e 62 bc 95 c7 2f 3d ff ce 49 bc f8 49 13 3d
       -0.013827977 0.042914946 -0.012317418 0.035959214
000020 5f 5a e2 bc 85 76 0f 3c 36 36 06 bd c8 7c 5b bd
       -0.027630983 0.008756285 -0.032766543 -0.053585798
000030 b2 8e 9e bc 15 6d 62 bd f8 51 46 bc 2d 19 88 3d
       -0.019355152 -0.05527981 -0.012104504 0.06645427
000040 cb ba ea 3c a9 e5 01 bc bf 02 13 3d 77 ec 24 3d
       0.028653523 -0.00792829 0.03589129 0.040264573
000050 4a 3f cb 3c bf 7c 31 3d 96 24 44 bd fa 00 6b 39
       0.024810452 0.043331858 -0.047886454 0.0002241171
000060 0a 58 a0 bc e9 98 9b 3d 0b 62 23 bd 4a 73 39 3b
       -0.01957323 0.07597525 -0.039888423 0.0028297477
000070 09 16 f1 3c 32 96 4a bd a7 5a dd bc 9f d3 4e 3c
       0.029429452 -0.049459644 -0.027020765 0.012623697
000080 ca df ca 3c fb 83 ff 3b 72 da 03 bd 33 f9 c4 3c
       0.024764914 0.0077977157 -0.032190748 0.024044609
000090 de 54 83 bc 6d 75 13 bd e3 df 49 3c 1d 7d 4b bd
       -0.016031679 -0.036000658 0.012321445 -0.049679864
0000a0 eb 4b 17 3d 89 45 78 bd 46 86 36 3d 32 12 2c 3d
       0.036937635 -0.06061319 0.044561647 0.04200954
0000b0 42 db 4a 3b 4a 6f 14 bd 75 13 c1 3c 0b 92 83 bd
       0.0030953442 -0.036238946 0.023568848 -0.0642434
0000c0 20 4d e1 3b f8 22 1f 3d b5 1f 35 bc ff 50 72 3d
       0.006875649 0.03885171 -0.011054923 0.059159275
0000d0 a5 ea 49 bc 11 9a 50 3d ac 4a fb 3c 07 04 03 bd
       -0.01232401 0.05092818 0.030675255 -0.031986263
0000e0 9a b6 08 bc b5 47 25 3d 21 a5 f0 ba 9c b1 55 bd
       -0.008344317 0.04035159 -0.0018359759 -0.052171335
0000f0 7f 9f 7e 3d 53 31 eb bc e6 44 89 bd 03 9f 48 3c
       0.062163826 -0.028710043 -0.067025945 0.012244943
000100 a9 f8 80 bb 5c 17 4a 3d 08 28 8a bd 9f be 47 3d
       -0.0039358926 0.049338683 -0.067459166 0.048765775
000110 fa 1d 2d 3d a5 33 d0 bc e9 71 a8 bc 0f d9 25 bb
       0.042264916 -0.025415251 -0.02056213 -0.002530638
000120 a3 5c b2 ba 6e 78 56 bb 26 7d 90 3d ee 25 f4 3c
       -0.001360793 -0.003272559 0.0705512 0.029803243
000130 3e 3d 09 bd fe 76 7c bd bc 0c f5 3c 6b bc a6 bc
       -0.03350567 -0.061636917 0.029913299 -0.020353517
000140 87 77 23 3d 32 6f 59 bb 98 d3 2b bb 5f 29 4d 3d
       0.039908912 -0.003317785 -0.002621865 0.050088283
000150 80 bc b1 3c e7 5f b5 3c 5c ee da bc 43 9e 66 bd
       0.02169633 0.022140456 -0.026724987 -0.056303274
000160 df ba 50 bd 08 58 75 bb 45 a7 f4 bc 5f 18 5e 3b
       -0.050959464 -0.0037436504 -0.029864917 0.0033889038
000170 28 f9 f6 bc 49 b0 4c bd 76 31 87 bc 9c 2c fe bb
       -0.030148104 -0.049972806 -0.016503077 -0.0077567827
000180 9a 6e 5d bd 77 48 20 3d 13 73 01 3d 0a e8 19 3d
       -0.054060556 0.039131608 0.031603884 0.037574805
000190 07 3c 65 3b a6 ba b6 3c e2 39 15 bd 4e 8b 3d 3c
       0.0034978406 0.022305798 -0.036432154 0.011568857
0001a0 e8 4b 27 bd 7a 49 93 bc aa 0b 03 bd 2e 7e 6c bd
       -0.040843874 -0.017979372 -0.031993546 -0.05773752
0001b0 ac a9 e8 3c 39 23 7e bd dc 3e 83 3d 01 53 32 bc
       0.028401218 -0.06204531 0.06408474 -0.0108840475
0001c0 9a ea c5 bc 76 0a 6c bc 49 99 48 bc c9 d1 36 3c
       -0.024159718 -0.014406791 -0.012243577 0.011158415
0001d0 2d b8 40 bd 4e 61 c7 3c b4 b1 76 bc 14 82 a1 3b
       -0.047050644 0.02433839 -0.015057016 0.0049288366
0001e0 6a 19 15 bb 5d af 3f bd ee 7a a8 bb d4 e2 9d 3c
       -0.0022750744 -0.0467981 -0.0051416075 0.0192732
0001f0 f6 4c 59 bd 62 dd 9e 3d 84 c0 22 3c b4 9e a4 3c
       -0.05305191 0.07757069 0.009933595 0.020095207
000200 79 63 d7 3c 80 be bd 3c e4 dd e0 3c 9d 4c 59 bd
       0.02629255 0.023162127 0.027449556 -0.05305158
000210 2d b7 0c bd fd 1a c5 3b de d3 91 bb b0 a4 3c bc
       -0.034354378 0.00601518 -0.0044503054 -0.011513874
000220 50 f1 55 3c c4 9b db bc 6e 53 34 bd 3e 81 84 bc
       0.013058022 -0.026807673 -0.044024877 -0.016174909
000230 7a 9b 43 bb fa 89 a2 3c a9 cb 2a bd 2a 67 89 3c
       -0.002984731 0.019841183 -0.04169813 0.016772825
000240 c4 4f 2d bd 01 8b 8b 3c f6 8b 55 3c f1 a1 05 bc
       -0.0423124 0.017034056 0.013033858 -0.008156286
000250 ab 54 a2 bc 04 db 74 3d 27 72 c2 3c ce 2a 96 bc
       -0.019815763 0.059779182 0.023736073 -0.018330958
000260 42 c1 e4 bb 28 d0 2a bd 1d eb c1 bc e5 ce 83 bb
       -0.006981046 -0.04170242 -0.023671681 -0.0040224665
000270 88 88 51 bc b1 bb 83 3c e6 18 01 3d bb 40 f2 3c
       -0.012788899 0.01608071 0.031517886 0.029571882
000280 58 49 c3 bc a3 db 7a bd fb 4a c2 bc 92 3f 45 3b
       -0.023838684 -0.06124462 -0.023717394 0.0030097705
000290 c9 03 1c bd cd 2b d7 bc fd 31 fa 3c 2b 7a 8d 3c
       -0.038089547 -0.026266003 0.030541414 0.017270168
0002a0 9b c8 e7 bb 02 d6 9c bc 46 8a ec 3c e6 be a5 3c
       -0.0070734746 -0.019145016 0.028874528 0.020232629
0002b0 6f 4c 31 bc 0e 9a 00 bd 2b 00 44 bd 83 25 3c bb
       -0.010821446 -0.031396918 -0.047851723 -0.0028708882
0002c0 8a d9 d3 bc 6d bc 73 bd b4 2f 57 bd 3a 3c 8f bc
       -0.025860567 -0.05950587 -0.052535728 -0.017484773
0002d0 0b 9d 58 3d 88 eb 41 bd 62 13 14 bd aa 03 96 bd
       0.052884143 -0.04734376 -0.036151297 -0.073249176
0002e0 1f 71 51 bd 84 da cf 3a 52 93 f8 bc 9f 0a 41 bd
       -0.05113327 0.0015857969 -0.030343685 -0.04712927
0002f0 43 c4 7e bd 50 2d 5e 3c e0 95 a4 bc 4e 24 9d bc
       -0.06219889 0.013560608 -0.020090997 -0.01918235
000300 dc 4f 9b 3b 6c 45 ca bc 49 7c 4d 3d a6 74 1b 3d
       0.0047397446 -0.024691306 0.050167356 0.03795304
000310 15 47 6b 3d 5a 88 9f bc f3 d0 48 3d fc 47 46 bd
       0.057440836 -0.019474197 0.049027395 -0.048408493
000320 36 e9 a1 3d b5 d4 07 3c a6 6e 8d 3d e0 a4 00 3d
       0.079058096 0.008290459 0.0690587 0.031407237
000330 d9 6d 02 3c ba e0 2a 3d 96 fa 9c bc d1 22 76 3d
       0.00796076 0.041718222 -0.019162457 0.060091797
000340 11 37 25 3c 93 49 f3 bc bb 80 8d 3b fc 15 3d 3d
       0.01008393 -0.029698169 0.0043183244 0.046163544
000350 48 4d 84 3b 96 ce 41 3d 81 89 5f 3c e8 5b 48 3d
       0.004037533 0.047316156 0.013643623 0.048915774
000360 b0 68 06 3d 80 ff 2b 3d f1 b1 04 bc 65 e6 41 3d
       0.03281468 0.04199171 -0.008099065 0.047338862
000370 48 87 61 bd b8 9b 47 3d 58 39 85 bc 04 47 40 bd
       -0.055060655 0.04873249 -0.016262695 -0.046942726
000380 53 a8 f2 3c b4 cc a2 3c b4 a2 62 3d 7a 06 fc bb
       0.029621279 0.019873 0.055330947 -0.0076912018
000390 9a c6 c6 3c 43 4f 6d 3d e6 d1 4d 3d a8 4e c1 bc
       0.024264622 0.057936918 0.050249003 -0.023597077
0003a0 fd 6d ae bc 3d 54 8a bd 17 70 a6 bb 66 3c 04 3c
       -0.02129268 -0.067543484 -0.00507928 0.008071041
0003b0 f9 7f 08 bc 10 31 50 bd d6 00 50 3c 75 c3 51 3d
       -0.008331292 -0.05082804 0.012695512 0.051211793
0003c0 93 1b 19 3d 27 9a 11 3c 1b 7b 0e 3c 2d 3e 0e bd
       0.037379812 0.00888685 0.008696343 -0.034727264
0003d0 25 95 a2 3c 26 91 27 3d 5a 01 3a 3c 41 6c ac 3c
       0.019846508 0.04090991 0.011352861 0.021047713
0003e0 a4 01 81 bc 58 f2 3b 3d ca 56 9f bc 01 66 0a bd
       -0.015747853 0.045885414 -0.019450564 -0.033788685
0003f0 55 cf 1f bd ba 2a fd 3b 0c d2 7e 3d 02 0e 04 3d
       -0.039016087 0.0077260407 0.062212035 0.03223992

tcn.8.bias f4 [32]
000000 a9 03 03 3d bc 80 1a bd e9 2d cd 3c 5b 6d e9 bc
       0.031985912 -0.037720427 0.025046306 -0.028494528
000010 a5 52 36 3b dd 3c 0b bd af a2 47 3b c1 ef 27 bd
       0.0027820256 -0.03399359 0.0030461957 -0.04100013
000020 cf b0 05 3c 70 c2 a2 ba dd 2b da 3b 90 79 00 3d
       0.00815983 -0.0012417566 0.006658061 0.03136593
000030 39 42 77 3c 39 25 1f 3d 49 3c 52 bd 6a be 51 bd
       0.015091472 0.038853858 -0.051327024 -0.051206984
000040 74 6f 9b 3c 12 3c 6f bd d0 2a 63 ba 41 96 44 bb
       0.018974043 -0.058406897 -0.00086657424 -0.0029996785
000050 49 69 57 3c 17 aa e2 3c e7 39 cc bc 0b ad 01 bd
       0.0131476605 0.027668996 -0.024929954 -0.031659167
000060 b9 71 03 bd a9 70 e8 bc db 32 14 3c ec 17 80 3d
       -0.032090876 -0.028374033 0.009045328 0.06254563
000070 83 aa 87 3d 2d d3 a4 bc 11 c1 b9 3c 98 83 f1 bb
       0.066243194 -0.020120228 0.022675069 -0.0073704235

tcn.10.weight f4 [32]
000000 05 20 80 3f 48 c8 81 3f ab 4b 7e 3f 65 cf 7c 3f
       1.0009772 1.0139246 0.9933421 0.9875396
000010 04 7a 83 3f c1 38 84 3f 7f 59 82 3f dc b7 7e 3f
       1.0271611 1.032982 1.0183562 0.994993
000020 db f6 7d 3f 9a a5 7c 3f 30 b6 7f 3f e7 12 7f 3f
       0.99204797 0.9869019 0.9988737 0.9963822
000030 89 40 85 3f ad 9b 82 3f ca ff 7e 3f b0 fa 7e 3f
       1.041032 1.0203758 0.99609053 0.9960127
000040 f3 bd 83 3f ac ed 7d 3f 87 fc 81 3f 57 03 82 3f
       1.0292343 0.99190784 1.015519 1.0157269
000050 78 c5 87 3f c9 a3 80 3f a8 3a 84 3f 08 e3 80 3f
       1.0607138 1.0049983 1.03304 1.0069284
000060 46 0c 82 3f 76 f8 85 3f 46 a8 7d 3f e6 53 80 3f
       1.0159996 1.0466449 0.9908489 1.0025604
000070 e3 d1 7c 3f c7 21 88 3f 98 b6 81 3f 5a 58 80 3f
       0.9875776 1.0635308 1.0133848 1.0026963

tcn.10.bias f4 [32]
000000 0f 12 2e bb 3e d3 a2 ba 5e fc 14 3c a0 17 37 3b
       -0.0026561057 -0.0012422574 0.009093372 0.0027937666
000010 c0 30 a6 3b fa 11 6e 3a c6 0c 50 b9 43 2f 2f 3c
       0.0050717294 0.0009081658 -0.00019841184 0.01069242
000020 e0 85 87 3b d9 70 51 3c a3 82 31 3a 76 09 6c 3b
       0.004135832 0.012783253 0.00067714805 0.0036016381
000030 1c f6 29 3b f8 8c 1b 3c 41 7c 7f 3b 3b d6 8a 3b
       0.0025934046 0.009494059 0.0038983973 0.004236964
000040 eb 41 73 3b cf 82 f6 3b 44 2b 51 bc 61 7b c1 bb
       0.0037118148 0.007522918 -0.012766663 -0.0059046005
000050 8e 53 a9 bc e0 bc 9a bb 67 41 d6 bb 06 9b a7 bb
       -0.020669725 -0.0047222227 -0.0065385583 -0.005114916
000060 71 43 a7 bb c6 1a dc 3b 8a 63 f1 3b 0f aa ca bb
       -0.005104475 0.006717059 0.0073666023 -0.0061848233
000070 ab 53 82 3c 69 aa 2b bc aa 73 12 3b 16 a8 82 bb
       0.015909037 -0.010477641 0.0022346773 -0.0039873226

tcn.10.running_mean f4 [32]
000000 d0 4c 8c 3e cc 8b 0e 3e 82 12 50 3e 56 0f 47 3e
       0.27402353 0.13920516 0.2031956 0.19439444
000010 30 f5 10 3e 39 c2 05 3e de 75 27 3e 69 75 14 3e
       0.14156032 0.13062371 0.16353557 0.14497913
000020 29 25 53 3e 94 35 43 3e 9f cd 7e 3e a5 d8 76 3e
       0.20619644 0.19063407 0.24883126 0.24106081
000030 ae 80 0c 3e 24 46 2b 3e 17 13 3b 3e fa 23 57 3e
       0.13720962 0.16725975 0.18269001 0.21009818
000040 56 67 2a 3e a8 a8 55 3e b1 44 40 3e 6e aa 34 3e
       0.16640982 0.20865119 0.18776204 0.17643139
000050 38 18 22 3e b4 ee 5b 3e e1 29 07 3e 61 9a 27 3e
       0.15829551 0.21477777 0.1319957 0.16367485
000060 0a e2 03 3e fc 2d df 3d 2a 7a 65 3e 98 0c 72 3e
       0.12879196 0.10897443 0.22409883 0.23637617
000070 e9 c9 45 3e ef 77 10 3e 59 c9 29 3e 6d ee 43 3e
       0.19315304 0.14108251 0.16580714 0.19133921

tcn.10.running_var f4 [32]
000000 78 4a ac 3e 84 75 5a 3d bd f1 06 3e 5b 2b f2 3d
       0.33650565 0.053334728 0.13178153 0.11824676
000010 07 a7 84 3d 5e e9 32 3d 7b 18 72 3d 84 40 ad 3d
       0.064771704 0.043679588 0.059105378 0.08459571
000020 6c 37 0f 3e f9 bc f9 3d 53 cf 87 3e ca 0c 77 3e
       0.13985986 0.12194247 0.26525363 0.24125972
000030 ff bc a5 3d f7 12 68 3d 59 b4 2b 3e a6 31 2d 3e
       0.08092689 0.05665871 0.16768016 0.1691347
000040 44 40 7f 3d 8c 56 2c 3e a1 25 ac 3d 29 bb a9 3d
       0.062317148 0.1682989 0.08405615 0.08287651
000050 06 86 bc 3d bf bf d0 3d 94 40 94 3d 6e be b0 3d
       0.092052504 0.10192823 0.0723888 0.086300716
000060 de b5 7b 3d da a7 ed 3c 90 23 2c 3e 5b c9 d8 3d
       0.06145274 0.029010702 0.16810441 0.105852805
000070 a6 f1 95 3d 1f f9 a0 3d ab 74 8a 3d bf a7 a4 3d
       0.073214814 0.07860016 0.06760534 0.080398075

fc.weight f4 [1, 32]
000000 52 fe 0d 3d 85 76 16 bd ae 1e 82 3c 7a 51 df ba
       0.034666367 -0.036734123 0.01588377 -0.0017037832
000010 3b 26 18 be 3f 61 20 3d e6 ca 3c 3e a2 e0 23 bd
       -0.14858334 0.03915524 0.18436775 -0.04000915
000020 d9 b3 82 bc 53 b6 e8 3d 0f e2 2b 3e 57 79 11 3d
       -0.015954899 0.113629006 0.16785453 0.03551611
000030 87 d5 58 be 3f 0b 0b 3d c2 41 1d 3e ec a8 a3 3c
       -0.21175204 0.033946272 0.15357116 0.01997801
000040 e1 a5 13 3d 62 5d ce 3d c6 d3 38 be 18 fa 8f bd
       0.036046866 0.10076405 -0.18049535 -0.070301235
000050 c1 9b 81 bd a3 95 28 be 75 90 4a be 40 ef 29 be
       -0.06328536 -0.16463332 -0.19781668 -0.16595173
000060 fe 71 01 bd a5 fa f4 3d d8 2d a8 3d 0c de 14 be
       -0.031602852 0.11961869 0.08211869 -0.14537829
000070 ab 42 32 3c c1 a9 e9 bd ca bc 0c bd da db b2 3d
       0.010880153 -0.11409331 -0.03435973 0.087333396
